python/ml-1m_default/SASRec.epoch=860.lr=0.001.layer=2.head=1.hidden=50.maxlen=200.pth (torch, 860418 bytes, 28 tensors)

item_emb.weight f4 [3417, 50]
000000 00 00 00 00 00 00 00 00 00 00 00 00 00 00 00 00
       0.0 0.0 0.0 0.0
000010 00 00 00 00 00 00 00 00 00 00 00 00 00 00 00 00
       0.0 0.0 0.0 0.0
000020 00 00 00 00 00 00 00 00 00 00 00 00 00 00 00 00
       0.0 0.0 0.0 0.0
000030 00 00 00 00 00 00 00 00 00 00 00 00 00 00 00 00
       0.0 0.0 0.0 0.0
000040 00 00 00 00 00 00 00 00 00 00 00 00 00 00 00 00
       0.0 0.0 0.0 0.0
000050 00 00 00 00 00 00 00 00 00 00 00 00 00 00 00 00
       0.0 0.0 0.0 0.0
000060 00 00 00 00 00 00 00 00 00 00 00 00 00 00 00 00
       0.0 0.0 0.0 0.0
000070 00 00 00 00 00 00 00 00 00 00 00 00 00 00 00 00
       0.0 0.0 0.0 0.0
000080 00 00 00 00 00 00 00 00 00 00 00 00 00 00 00 00
       0.0 0.0 0.0 0.0
000090 00 00 00 00 00 00 00 00 00 00 00 00 00 00 00 00
       0.0 0.0 0.0 0.0
0000a0 00 00 00 00 00 00 00 00 00 00 00 00 00 00 00 00
       0.0 0.0 0.0 0.0
0000b0 00 00 00 00 00 00 00 00 00 00 00 00 00 00 00 00
       0.0 0.0 0.0 0.0
0000c0 00 00 00 00 00 00 00 00 fc fb 5d bc f8 11 5e bc
       0.0 0.0 -0.013548847 -0.013554089
0000d0 0c e4 a1 bd ff bf 0d bd dd 56 e4 bd ab 93 1e 3e
       -0.079048246 -0.03460693 -0.1114938 0.15486018
0000e0 7c 7e 03 be 49 f3 5a be f9 36 dc bd cc 74 a9 bd
       -0.12841219 -0.21381868 -0.10752673 -0.0827423
0000f0 bc 2a a3 3b bb 6c 92 bb f9 57 9c bd 8a 18 69 be
       0.0049794596 -0.004468528 -0.07633967 -0.22763267
000100 a5 80 6c 3e b2 93 3e 3c be 80 f4 3c 0d a1 b9 be
       0.23095949 0.011631893 0.029846545 -0.36255684
000110 12 95 8e bc 26 be 9f 3e 6e 01 01 39 80 9a 26 3e
       -0.017405067 0.3119976 0.00012302931 0.16269875
000120 7d fe 38 be 99 87 0d 3e 02 65 08 3d 27 93 68 3c
       -0.1806583 0.13821258 0.033299454 0.01419524
000130 fa 20 9a 3d f6 80 6c 3e ec 0d ec 3e f2 f2 2d be
       0.07525821 0.2309607 0.46104372 -0.16987208
000140 5b 32 5f 3d e5 94 44 3d 5e b8 ff 3d f5 30 89 bd
       0.054491382 0.04799356 0.12486337 -0.06698791
000150 65 f5 5c be 95 5d b1 3e 86 f3 2b 3e 31 9c a1 3d
       -0.21577986 0.3464171 0.16792116 0.07891119
000160 28 0a 0e be 43 c9 cf bd 1d ed f3 bd 7f fa 27 be
       -0.13871062 -0.101458095 -0.1191046 -0.1640415
000170 5e 2a ba 3e 9d e8 b4 3d b2 e2 99 3d 0e 28 08 be
       0.3636045 0.0883343 0.07513942 -0.1329653
000180 89 d3 8f 3d d7 b5 e6 3d 17 0a b0 bd 78 25 c3 3d
       0.07022769 0.11265152 -0.085956745 0.09528631
000190 68 2d c2 bc 4c 79 b2 be f2 a4 5c be 74 85 13 3e
       -0.023703292 -0.34858167 -0.21547297 0.14406377
0001a0 d9 a8 93 3d 97 42 8b bd 9d 12 b4 be d5 94 83 be
       0.072099395 -0.067998104 -0.3517045 -0.25699487
0001b0 e0 0e dd 3d dd fd 33 3e 74 47 8e 3e f8 bd 5b bd
       0.10793853 0.1757731 0.2778889 -0.053647965
0001c0 b7 a6 a9 3d 8f a1 01 be a8 5d de bb 25 ea 9e 3e
       0.082837515 -0.12659286 -0.006786067 0.31038013
0001d0 8f 59 5c be 3a 61 0a bf 92 46 bd bc 1c 04 e2 3d
       -0.21518539 -0.54054606 -0.02310494 0.1103594
0001e0 19 64 af 3e bf db 71 bd 8e fc 84 be dc 10 a9 3d
       0.34256056 -0.059047457 -0.25973934 0.08255169
0001f0 23 7c da bd 15 6f 14 bd e0 1f d4 bd ba 9f 2e 3e
       -0.106682085 -0.03623875 -0.10357642 0.17053118
000200 38 b3 a4 be 00 52 85 3e 95 1a 88 bd d0 c1 92 3e
       -0.32167983 0.26039124 -0.06645695 0.28663492
000210 23 61 87 3e 93 2b 8a 3e 53 c7 16 3e 81 35 1f 3e
       0.26441297 0.2698637 0.14724474 0.15547754
000220 9a 45 8d 3e 77 cb 79 bd b4 aa 42 3c ed 03 94 bd
       0.27592164 -0.060985055 0.011881519 -0.07227311
000230 2c 09 ca bd 4b de 40 3e 82 bd c3 bd 4e 40 61 3d
       -0.09865031 0.18834798 -0.0955763 0.054992966
000240 c1 66 2a be 13 3f 3b 3e 63 41 e0 bd 8c 1c ad bc
       -0.1664076 0.1828578 -0.109499715 -0.021131776
000250 82 44 79 bd 45 5b 6b bc 89 97 98 be 27 a3 a4 3d
       -0.06085635 -0.014365022 -0.29803112 0.08038931
000260 67 09 23 3e 60 06 57 3e 16 5f 28 3e 39 a9 1e 3e
       0.15921555 0.20998526 0.16442522 0.15494241
000270 1f fb 12 be dd db 91 3e 43 46 26 3e e2 ef 9d 3d
       -0.14353608 0.28488055 0.1623774 0.0771177
000280 a4 43 6a be d7 3d 3e be a4 04 9f bd 8f 0f 99 3d
       -0.22877365 -0.18578278 -0.07764557 0.07473671
000290 a7 b6 3b 3d 7a 8c 1c 3e 47 38 4a be c7 c5 31 bf
       0.045828488 0.15287963 -0.1974803 -0.6944241
0002a0 32 ad 41 3e f3 8f 95 3c fc 50 3b be e8 52 b9 3b
       0.18913725 0.018257117 -0.18292612 0.005655635
0002b0 2a f1 04 be 28 d0 56 be dd 76 0d 3e 06 24 62 3d
       -0.12982622 -0.20977843 0.13814874 0.055210136
0002c0 da 23 b2 3d 1b d0 27 3e 80 5d 30 bd c0 12 90 3e
       0.086982444 0.1638798 -0.04305792 0.28139305
0002d0 98 20 0e be 09 17 76 3e 6d 0b e8 3e f1 e6 81 bd
       -0.13879621 0.24032225 0.45321217 -0.06342877
0002e0 54 28 93 3d fb 81 f4 3d d7 1d 5d bd b9 13 3a bd
       0.07185426 0.11938854 -0.053983536 -0.045428965
0002f0 26 b2 98 bd 7d 5a cb 3c ac 8f cd be bb f7 45 bd
       -0.07455854 0.024823422 -0.40148675 -0.048331957
000300 61 fb 50 bd 63 7e 18 be 7c 13 f2 bd d8 6f 5f 3c
       -0.051020984 -0.14891963 -0.118201226 0.0136375055
000310 81 71 21 3e ca 10 d5 bd 9e 3b 3c 3d 24 73 5c 3d
       0.15765955 -0.10403593 0.045955293 0.053820744
000320 d7 b1 b2 3d c2 f1 68 bb a0 cd 3e 3d 55 4b 72 3c
       0.087253265 -0.003554449 0.046582818 0.014788468
000330 83 cf 0d 3e 67 53 ac 3d c7 e7 91 be 32 d7 99 3d
       0.1384869 0.08414345 -0.28497145 0.075117484
000340 3f 9a a3 bc 74 94 1c 3d 04 56 d8 3d ac 14 92 be
       -0.019971011 0.038227513 0.10563281 -0.28531396
000350 b1 24 4b 3e ac 0d 65 be 90 c7 fb 3d 3e db fd bd
       0.19838215 -0.22368497 0.12293923 -0.12395333
000360 53 5b c5 3d 11 24 bb be b6 a4 7c bd 9f 61 45 3e
       0.09636559 -0.36550954 -0.061680518 0.1927552
000370 7b e4 47 bd fc f1 9e 3e 40 80 62 be 59 98 98 3e
       -0.04880188 0.31043994 -0.22119236 0.29803732
000380 f4 75 2b bc 52 b0 19 3e 3b f4 cc bd 7d 8f 43 3e
       -0.010465134 0.15008667 -0.10007521 0.19097705
000390 8f 86 4e 3e e7 cd 81 3d 1b 3b 8c 3d 10 df 0d bd
       0.20168518 0.06338101 0.06847211 -0.034636557
0003a0 25 69 16 3e 03 0a e0 bd 2d 6e 8f bd 36 9e 06 3f
       0.14688547 -0.109394096 -0.07003436 0.5258516
0003b0 ec f2 ac 3d eb 6d 19 bc 54 21 0c be 5f d4 45 bc
       0.08444771 -0.009364585 -0.13684589 -0.012074559
0003c0 a7 86 3f be f3 f7 aa bd f2 09 1f 3e 5b 26 03 3e
       -0.1870371 -0.08348074 0.15531138 0.128076
0003d0 6d 78 12 3d d4 9e 21 be a0 1b 15 3e 90 d8 42 3d
       0.03575938 -0.15783244 0.1456132 0.04756981
0003e0 ce 85 82 3c 8d 24 2e 3e 81 e2 ae bd 6c 1a 1e 3e
       0.015932944 0.1700613 -0.08539296 0.15439767
0003f0 be 63 38 3e 02 9c 91 3d 4b 7a 87 bc 1a 04 1a bc
       0.18006799 0.07109834 -0.016537806 -0.009400392

pos_emb.weight f4 [201, 50]
000000 00 00 00 00 00 00 00 00 00 00 00 00 00 00 00 00
       0.0 0.0 0.0 0.0
000010 00 00 00 00 00 00 00 00 00 00 00 00 00 00 00 00
       0.0 0.0 0.0 0.0
000020 00 00 00 00 00 00 00 00 00 00 00 00 00 00 00 00
       0.0 0.0 0.0 0.0
000030 00 00 00 00 00 00 00 00 00 00 00 00 00 00 00 00
       0.0 0.0 0.0 0.0
000040 00 00 00 00 00 00 00 00 00 00 00 00 00 00 00 00
       0.0 0.0 0.0 0.0
000050 00 00 00 00 00 00 00 00 00 00 00 00 00 00 00 00
       0.0 0.0 0.0 0.0
000060 00 00 00 00 00 00 00 00 00 00 00 00 00 00 00 00
       0.0 0.0 0.0 0.0
000070 00 00 00 00 00 00 00 00 00 00 00 00 00 00 00 00
       0.0 0.0 0.0 0.0
000080 00 00 00 00 00 00 00 00 00 00 00 00 00 00 00 00
       0.0 0.0 0.0 0.0
000090 00 00 00 00 00 00 00 00 00 00 00 00 00 00 00 00
       0.0 0.0 0.0 0.0
0000a0 00 00 00 00 00 00 00 00 00 00 00 00 00 00 00 00
       0.0 0.0 0.0 0.0
0000b0 00 00 00 00 00 00 00 00 00 00 00 00 00 00 00 00
       0.0 0.0 0.0 0.0
0000c0 00 00 00 00 00 00 00 00 0b d3 2d 3f 42 06 67 bf
       0.0 0.0 0.6790015 -0.90243924
0000d0 02 1e b1 bd 87 07 80 3d b9 01 2e bf 1b 3d 86 3f
       -0.08648302 0.06251436 -0.6797138 1.0487398
0000e0 86 55 4e 3f f4 4a fa be 23 63 95 bf 4d 45 df 3c
       0.8059925 -0.4888531 -1.1670879 0.027254725
0000f0 53 b7 4b 3e 43 32 c7 bf e1 e9 32 bf d2 22 f4 bf
       0.19894151 -1.5562214 -0.6988812 -1.9073126
000100 b2 1a ff 3e 34 5a 9a bf 91 d7 9d bf 2b d2 a6 3f
       0.49825054 -1.2058778 -1.2331411 1.3032888
000110 05 eb e0 3e a5 db 9d 3f cb 41 18 3f fd 0e ec be
       0.43929306 1.2332655 0.5947539 -0.46105185
000120 c4 c1 05 3f 50 07 fc be 04 aa f7 3e c8 15 cf 3e
       0.5224879 -0.4922433 0.483719 0.40446305
000130 f1 fe 0f 3e fd a1 c4 bf 9a f4 ca bf 1d 42 13 bf
       0.14062096 -1.5361935 -1.5855896 -0.57522756
000140 62 9b 52 bf 72 4c 22 3f 0a e4 66 be c6 b7 f1 bf
       -0.82268345 0.63397896 -0.22547927 -1.8884208
000150 d7 14 a8 3e 3e 6a 9e be fb 16 a1 3f 8d 30 d6 3c
       0.328284 -0.3094043 1.2585138 0.026146198
000160 47 3d 07 bf 7a 7f 62 be 14 89 e7 3f 0e 07 97 bf
       -0.52827877 -0.22118941 1.8088708 -1.1799028
000170 f9 4e 73 3c e9 b5 b3 bf 16 4c 0d c0 0e 09 4b 3f
       0.0148503715 -1.403989 -2.207769 0.7931069
000180 b1 ce db be 6b 49 d3 bc 30 9f 07 bf 88 0c af bf
       -0.4293113 -0.025791844 -0.52977276 -1.3675699
000190 7e 84 d4 3e c7 f2 4a be 43 d3 84 bd 09 d3 d9 3e
       0.41507334 -0.19819175 -0.064856075 0.4254382
0001a0 5c 20 a9 be c8 04 2c 3f e0 9f 97 3f e6 6d d3 bd
       -0.330325 0.67194796 1.1845665 -0.10323696
0001b0 c2 a0 8b bf 5e 35 e8 be 09 bc 4e 3e 12 5e f5 be
       -1.0908434 -0.45353216 0.20188917 -0.47923332
0001c0 6c c9 6d be 6e 33 af bf 45 07 24 3e 6f 09 63 bf
       -0.23221368 -1.368757 0.16018398 -0.8868627
0001d0 c4 9e 5d bf 82 54 d9 3f c6 36 f4 3d 93 15 39 3f
       -0.8657038 1.6978915 0.1192451 0.72298545
0001e0 b6 16 87 3e 6e bb c0 be 8f e9 14 3f d2 ec 2a 3f
       0.26384515 -0.37642998 0.5816888 0.6676761
0001f0 ac d5 46 3f 6c f0 11 3f 1e 26 76 3e a6 77 b5 bf
       0.7766979 0.5700748 0.24037978 -1.4177139
000200 3e 2e 9d bf c7 b5 96 be 9f 45 da be 09 18 cc 3e
       -1.2279737 -0.2943556 -0.42631242 0.39862087
000210 e2 a2 32 bf fc 80 82 bf 4f a9 36 3f c7 9a 0e bf
       -0.6977979 -1.0195613 0.71352094 -0.5570492
000220 91 3b 29 3f 72 14 2b 3d ee 57 96 be 02 80 c1 be
       0.66106516 0.041767545 -0.2936396 -0.37792975
000230 28 d7 48 3f d1 d5 6d bf 5d b0 6e 3e 77 4b 9f bf
       0.784533 -0.9290438 0.23309465 -1.2444905
000240 c5 4f 82 bf 99 3d ab 3d 33 e3 c4 bb 8d 4b 0b 3e
       -1.0180594 0.08361358 -0.0060085296 0.13603039
000250 c6 3d e7 be e4 cb 9f bf 09 e5 5f 3e 35 bb ef be
       -0.45164317 -1.2484097 0.21864714 -0.46822515
000260 db d6 94 3e 8e 10 2f 3f db f4 e3 be 55 4c fe 3d
       0.29070172 0.68384635 -0.44522747 0.12416903
000270 d6 df 96 3f 2b 85 90 be 1c 98 16 bf 6d 6a 50 bf
       1.1787059 -0.282266 -0.5882585 -0.8141239
000280 17 4f e0 bc bc 0c 04 bf 03 e3 3e bd 65 55 89 bf
       -0.027381463 -0.5158193 -0.046603214 -1.0729185
000290 2b 03 8b bd 9d 6a 0a bf 02 53 1d bf 9c 45 c8 3f
       -0.067877136 -0.5406893 -0.61454785 1.5646243
0002a0 c0 32 87 3d 11 12 42 3f f5 eb 4c 3e c5 67 c1 be
       0.06601477 0.7580882 0.20011885 -0.37774482
0002b0 ef ed 66 3e c3 20 48 3f 45 8b 0e 3f bc ca 18 3f
       0.22551702 0.7817499 0.5568126 0.5968435
0002c0 39 58 bf be c9 19 b6 bf 65 07 88 bf db 5e ee be
       -0.37371996 -1.4226619 -1.0627257 -0.46556744
0002d0 32 46 bf be 99 95 b2 3e 57 2e 0c bf 16 60 99 bf
       -0.37358242 0.3487976 -0.5475821 -1.1982448
0002e0 fe 34 51 3f c3 1e 0b bf 91 54 21 3e 02 68 6b be
       0.81721485 -0.54343814 0.15754916 -0.22988895
0002f0 60 97 2d 3e 90 c2 6e be 63 8a 71 3f 81 b4 6f bf
       0.16952276 -0.23316407 0.94351786 -0.936348
000300 5c 42 93 3e ef 81 75 bf 87 e3 fb be 93 b5 42 bd
       0.28761566 -0.9590139 -0.49197027 -0.047536444
000310 5d e6 b3 3e 6b 96 83 be 30 3f 83 3e b9 91 85 bf
       0.3513669 -0.25700697 0.25634146 -1.0435096
000320 79 17 d6 bd 90 84 bd 3d 98 ee 5d 3e 89 1f 85 3f
       -0.10453696 0.092538 0.21673048 1.0400249
000330 32 11 df 3d 2b 18 ba 3e d3 38 af 3f 4b 9e 03 be
       0.108919516 0.36346564 1.3689216 -0.12853353
000340 58 49 1f bf d6 2e b7 be 16 a1 a5 3e 97 94 08 bf
       -0.6222129 -0.3577792 0.3234946 -0.5335173
000350 d3 47 59 3e e1 c0 5d bf 53 da 48 be 1a 27 0e bf
       0.21218805 -0.86622435 -0.19614534 -0.55528414
000360 a3 25 02 3c 9f c2 c8 3f d7 f8 86 3d 8c 88 c7 3e
       0.007943544 1.5684394 0.06590431 0.38971364
000370 f7 85 4e 3b 68 93 0a bf 55 fe 3f be 59 04 72 3f
       0.0031512955 -0.54131174 -0.18749364 0.94537884
000380 35 46 99 3e 04 7d 4c 3f aa 76 75 be 22 96 c3 bf
       0.29936376 0.7987826 -0.23971048 -1.5280192
000390 b4 e8 78 bf 98 9e 03 bf f5 42 45 bf bb 44 03 3e
       -0.97230077 -0.5141387 -0.77055293 0.12819187
0003a0 e3 12 19 bf e9 c8 2d bf b3 96 8a 3f 3c 95 12 bf
       -0.59794444 -0.6788469 1.082724 -0.57258964
0003b0 3d 4f fa bc d3 26 94 be 10 ce d9 bd a9 3f 1f be
       -0.030555362 -0.2893587 -0.106350064 -0.15551628
0003c0 95 42 4a 3f ee fa 50 bf ec a2 7f 3e 45 30 66 bf
       0.79007846 -0.8163289 0.24964494 -0.89917403
0003d0 58 2f 3b be da ac 9e 3d 37 44 a2 bd ca 1b b3 be
       -0.18279779 0.077478126 -0.07923167 -0.3498214
0003e0 a6 94 c5 3d 70 2c 8b bf 97 da 98 be d2 da 2d bf
       0.09647493 -1.0872936 -0.2985427 -0.6791202
0003f0 b2 38 86 3d df ab 85 3f bc 94 09 3e 76 2b d7 3e
       0.065537825 1.0443076 0.13435644 0.42025346

attention_layernorms.0.weight f4 [50]
000000 57 b4 8c 3f a1 7f 61 3f 63 95 78 3f 14 1b 03 3e
       1.0992535 0.8808537 0.97102946 0.12803298
000010 2b 5c 2e 3f ab 44 6c 3f d6 d8 de 3e 9d c3 9a 3f
       0.6810939 0.9229228 0.43524808 1.2090946
000020 4e 12 60 3f 6b 3e 8d 3f 52 88 6e 3f e1 48 89 3f
       0.8752793 1.1034673 0.9317676 1.0725366
000030 82 12 9d 3f 2f 71 6f 3f f0 10 88 3f 23 34 59 3f
       1.2271273 0.9353208 1.0630169 0.8484518
000040 98 3f 9d 3f 83 53 af 3e 6b eb 9d 3f a0 c3 95 3f
       1.2285032 0.34243402 1.2337469 1.1700325
000050 2e 48 63 3f 13 5b 81 3f e8 fd 8c 3f cd 07 3e 3f
       0.8878201 1.0105919 1.1014986 0.74230653
000060 c9 a0 81 3f 10 d8 83 3f 33 28 9f 3f 0d 9a 11 3e
       1.0127193 1.0300312 1.2434143 0.14218922
000070 34 c8 70 3f 80 e5 61 3f 0a 36 a0 3f 5e 58 3e 3f
       0.94055486 0.88240814 1.2516491 0.7435359
000080 f8 71 83 3f 85 d5 8e 3f 0b 40 97 3f 4c b6 13 3f
       1.0269156 1.1158911 1.1816419 0.5770004
000090 2d b3 9b 3f 6e c3 80 3f d9 f4 83 3f 34 ce 87 3f
       1.2164055 1.005964 1.0309097 1.0609803
0000a0 4d 30 8c 3f 68 d9 76 3f 37 4b 89 3f 14 6d 63 3f
       1.095224 0.96425486 1.0726079 0.88838315
0000b0 ef 00 94 3f 61 a9 8f 3f 09 b7 91 3f 0f e0 90 3f
       1.1562785 1.1223565 1.1383983 1.1318377
0000c0 d0 0b 8d 3f 21 fd e7 3e
       1.101923 0.4531031

attention_layernorms.0.bias f4 [50]
000000 9b 08 36 3c e1 16 41 be 09 7e 97 bd 23 fb 16 be
       0.01111045 -0.18856384 -0.07397086 -0.14744239
000010 35 db e7 be c5 6c 6a 3e 3d 7f e7 3e d4 08 f8 3b
       -0.4528443 0.22893055 0.45214263 0.007569412
000020 fb 4b b8 be 90 dd 28 3e bc f7 4a 3e 13 98 c1 bd
       -0.35995468 0.1649077 0.19821066 -0.09452834
000030 2e da 03 be a2 04 4c bc 2a 09 bf 3d 4a d1 18 be
       -0.12876198 -0.012452276 0.0932792 -0.14923587
000040 c1 43 5b be 17 27 3a bf 4e 45 1d 3f 87 19 50 3e
       -0.21412565 -0.72715896 0.61433876 0.20322238
000050 70 ed 64 3e 01 4d c0 3e 56 d8 dd bc f0 c1 26 3d
       0.223562 0.3755875 -0.027080696 0.040712297
000060 55 0a f8 3c 03 25 f9 3d c3 fa 43 3b c4 65 e2 bd
       0.030278364 0.121652626 0.0029904104 -0.110545665
000070 07 38 96 3d 73 68 77 3d fe 68 f4 3b 05 da e0 bc
       0.07334905 0.060402345 0.007458805 -0.02744771
000080 01 2b af bd 16 4d 31 be bf 85 c5 3d 2d 45 63 3e
       -0.08553124 -0.17314562 0.09644651 0.22194357
000090 50 de a4 3e af 82 59 3e ff 58 71 bd 94 10 0b 3e
       0.3220086 0.21241258 -0.058922764 0.13580543
0000a0 23 8d 67 3d fc 6e bc bb 54 0b f0 3d 29 5f aa be
       0.056531083 -0.005750535 0.11720911 -0.33275726
0000b0 95 3a 27 3d 92 ca 6f 3e fe 3d 24 be 27 58 21 3c
       0.040827353 0.23417118 -0.16039273 0.009847677
0000c0 1c 0f d4 be 7d f2 81 be
       -0.41417778 -0.25380316

attention_layernorms.1.weight f4 [50]
000000 48 99 40 3f b7 d5 41 3f 18 06 5e 3f 7b f7 f3 3e
       0.7523389 0.7571673 0.8672805 0.4764975
000010 f7 cf 19 3f 1f 2d 88 3f 47 bf a2 3e 88 a4 5b 3f
       0.60082954 1.063877 0.31786558 0.8579793
000020 2b b3 5b 3f 96 6b 29 3f 04 92 43 3f b0 03 55 3f
       0.85820264 0.6617979 0.7639468 0.8320875
000030 4e bc 66 3f 50 fb 3b 3f e3 12 75 3f 2a 56 3b 3f
       0.9013108 0.7343035 0.95731944 0.7317835
000040 de c2 39 3f 6f 26 51 3e 55 bc 27 3f 29 76 43 3f
       0.7256297 0.20424818 0.65521747 0.76352173
000050 6b 3a 30 3f 03 cb 26 3f 2d a8 07 3f c4 d0 07 3f
       0.6883914 0.6515352 0.5299099 0.53052926
000060 c6 96 5e 3f c9 36 22 3f 6d bb 96 3f f0 ad 71 3e
       0.8694881 0.63364846 1.1775948 0.23601508
000070 08 04 ef 3e 1b 10 11 3f 6c 5d 75 3f 62 47 fb 3e
       0.46682763 0.566652 0.95845675 0.49077898
000080 32 cf 3d 3f 1a 0f 68 3f 07 29 44 3f 82 19 9b 3e
       0.7414428 0.90648043 0.766251 0.30292898
000090 92 89 52 3f d7 35 43 3f 9d 45 5a 3f f1 6e 17 3f
       0.82241166 0.7625403 0.8526247 0.5915366
0000a0 25 14 3d 3f e9 3c 46 3f b3 12 8d 3f 7c 62 2e 3f
       0.73858863 0.7743669 1.1021332 0.68119025
0000b0 65 a2 06 3f c2 3e 74 3f a4 e6 72 3f 4b b4 10 3f
       0.52591544 0.9540826 0.9488318 0.56525105
0000c0 66 e8 80 3f 71 be 0b 3f
       1.0070922 0.54587466

attention_layernorms.1.bias f4 [50]
000000 3e 81 5a bd 82 aa e1 bd 63 d3 a4 3d 5d ce 36 3e
       -0.05334591 -0.1101885 0.08048131 0.17852159
000010 fb 8c 56 3e b8 f7 9d bd 0f 53 0c bf 95 e9 44 bd
       0.20952217 -0.07713264 -0.5481424 -0.048074324
000020 82 3b 91 3e 5b 91 c9 3d 37 6a d4 bd 01 7a 97 3e
       0.28365713 0.098421775 -0.103718214 0.2958527
000030 fe f6 6b be 0b 54 fa 3d 99 85 bb 3d 5c 28 f2 bc
       -0.23043439 0.12223061 0.09156341 -0.02956026
000040 e4 52 e8 bd b6 60 20 bf a8 5e a9 bd 71 f1 76 bc
       -0.11343935 -0.6264757 -0.08270007 -0.015072213
000050 ba 40 01 be fd 18 4c bd 9d f2 cc bb 46 1c 3d be
       -0.12622347 -0.04982852 -0.0062545077 -0.18467817
000060 44 b8 66 bd 99 7e da be 8e 95 02 3e ad 6b 88 3d
       -0.056328073 -0.4267471 0.12752363 0.066611625
000070 17 a9 6f 3e f1 0f 19 3d 5f 16 47 3e b9 35 06 3d
       0.23404346 0.03736872 0.19442128 0.032766078
000080 38 55 8a 3e df 4d 54 3e 22 12 64 be 4d da 94 3c
       0.27018142 0.2073283 -0.22272542 0.0181705
000090 18 b3 e6 bd 05 32 2c be c1 5c a8 bd 40 74 3f bd
       -0.11264628 -0.16815956 -0.082208164 -0.046741724
0000a0 de 7f 31 3d cb 44 42 3e 7f 2f 77 be c9 8a c1 3e
       0.043334834 0.18971555 -0.24139212 0.37801197
0000b0 5c 03 37 bd 79 1e 00 3e 9e bb 46 bd f9 c5 fc 3d
       -0.044680938 0.12511624 -0.04851877 0.12342448
0000c0 9d 16 d3 3b 41 65 ea 3d
       0.0064419047 0.11445094

attention_layers.0.in_proj_weight f4 [150, 50]
000000 c0 77 95 3d e2 43 55 bd 3a eb 0e 3d 22 c6 a4 be
       0.07298231 -0.05206669 0.0348923 -0.32182413
000010 79 4f e1 3c d9 35 99 bd ed fb ce bd 1b 09 ca bd
       0.027503716 -0.07480974 -0.10106645 -0.09865018
000020 7c 80 de bc 5b 8f 98 3d 4f b6 5e 3c 23 bc 78 3d
       -0.027160875 0.07449218 0.01359327 0.060726296
000030 22 1c 04 bd bc 97 00 3d 84 42 a8 bd f9 08 34 3e
       -0.032253392 0.031394705 -0.08215812 0.17581548
000040 5e d4 59 3d f6 52 5f 3e 5d 7a d8 3d c1 cd d4 3d
       0.053181045 0.21808991 0.10570214 0.10390807
000050 24 d3 dd bd a6 c5 a2 3b 84 92 3c bd 9e 30 27 3c
       -0.108312875 0.004967409 -0.046038166 0.010204462
000060 97 b5 3d bb 46 58 48 bd f0 19 6c 3d 1d 04 a7 3d
       -0.0028947347 -0.04891231 0.057641923 0.081550814
000070 fa bb ad 3c 9a 7b 1f 3e a1 c9 c7 3d 4c 04 a0 bc
       0.021207798 0.15574494 0.097552545 -0.019533299
000080 e8 66 f3 3d e6 cb 89 3d b9 c6 a7 3c e1 9d 0b 3e
       0.11884862 0.06728344 0.0204805 0.13634445
000090 09 bf 44 bd a7 91 cc 3c 10 e0 85 3d d9 aa 41 bd
       -0.048033748 0.024971796 0.06536877 -0.047282074
0000a0 14 19 41 3d a7 b5 dc bd 9d 33 8b 3d 54 03 2e bd
       0.047143057 -0.10776835 0.06796954 -0.042483643
0000b0 40 16 30 bc a9 65 87 3a f4 1a 20 bd 16 01 fd bd
       -0.010747492 0.001032998 -0.039088205 -0.12353723
0000c0 77 3d 9f 3d 63 50 eb bc 5b 1d e6 bd 8c 90 0f bb
       0.07775395 -0.028724855 -0.11236068 -0.0021906225
0000d0 7e ff 00 3d 73 6a 51 bd b3 cb 5f 3d f8 d3 0e bd
       0.031493656 -0.05112691 0.054637622 -0.034870118
0000e0 43 e6 c9 3e ae d2 0a bd b0 05 56 bd 74 9a 4e 3c
       0.39433488 -0.033892326 -0.052251518 0.012610067
0000f0 ae 37 5d bd f2 0b 30 3d a7 e0 09 3d 7d d6 10 bd
       -0.05400818 0.042980142 0.03366151 -0.035360802
000100 b8 14 fe 3c ff 07 3d bd 0c 87 6c bc 11 f8 29 3e
       0.031015739 -0.046150204 -0.014436495 0.16598536
000110 2f 9f 8c bd 21 94 9c bd d7 da b7 3c 82 02 c9 bd
       -0.06866299 -0.07645441 0.022443218 -0.098149315
000120 b5 4e b5 bc f3 58 c7 3b 15 07 e5 39 2a 57 ac 3d
       -0.022132257 0.0060836016 0.0004368356 0.08415063
000130 1b 84 97 bd b7 af 76 be 06 9e 9c 3d c1 bd b5 bd
       -0.07398244 -0.24090467 0.07647328 -0.08874083
000140 a7 11 1f 3c f1 bd 03 be d8 6d 86 3d 55 2c 0f 3d
       0.0097087985 -0.12865426 0.0656392 0.034954388
000150 d0 01 f6 3c 2a fd 24 3d 09 16 8b bd 8f 9c 2a 3c
       0.030030161 0.0402805 -0.06791312 0.010413303
000160 8e 40 60 bd 15 86 0e bd 89 45 92 3b 10 39 f3 3c
       -0.054749064 -0.03479584 0.0044638556 0.029690295
000170 30 00 ca bc 22 26 9a bd fb 9a 0a 3c 01 1f e7 bc
       -0.024658293 -0.075268045 0.008459802 -0.028213026
000180 78 ed fb 3b 28 7f 49 3c de 31 7f bd 26 48 4d 3e
       0.0076882206 0.012298383 -0.062303416 0.20047054
000190 23 9a b1 bd 77 03 37 bd 9f 84 5c 3c 57 01 c8 3e
       -0.08671977 -0.04468104 0.013459354 0.39063522
0001a0 2d 69 8f bd 26 45 29 bd 33 8d 1f 3e 67 0c 25 bd
       -0.070024826 -0.04132571 0.15581207 -0.04029503
0001b0 7f a1 3c bb ca 02 e0 bd e8 3d 77 bd 7e ff 91 bd
       -0.0028782783 -0.10938032 -0.060361773 -0.071288094
0001c0 b1 5a c3 bc fa 89 f2 bb 64 85 32 bd 34 32 04 3d
       -0.023846956 -0.007401702 -0.043584242 0.03227444
0001d0 6a 94 a7 bc 5f 74 de bd 91 b9 bb 3a 1f 72 7d bb
       -0.020456512 -0.1086204 0.0014322271 -0.0038672758
0001e0 ce 71 d4 bc b2 59 c7 bb 7a 77 76 bd 4b a7 98 3b
       -0.025933173 -0.0060836906 -0.060172535 0.0046586148
0001f0 f9 62 b8 bd db f7 2a bc 21 1e ef 3c 88 e1 c3 bc
       -0.090032525 -0.01043507 0.029189171 -0.023911253
000200 8d 2f ec 3c 54 6c 88 3c e7 b2 85 3d 3d f9 fb bb
       0.028831268 0.016653217 0.065282635 -0.0076896236
000210 ae a2 10 bd cc bd e0 3c f0 26 44 3d 82 f1 c8 3b
       -0.035311393 0.027434252 0.047888696 0.0061323056
000220 c8 3f ed bc 6f ba 52 3b 5e dc 25 3c b9 39 1b 3c
       -0.028961077 0.003215458 0.01012334 0.009474211
000230 fc be ea bc 3e 28 c6 bc e0 da 1b 3c 3f 2c 9b bc
       -0.028655522 -0.02418911 0.009512633 -0.018941997
000240 e5 24 00 bd b2 e0 89 bc ea 04 c6 bc 1a ca bd 3a
       -0.031285185 -0.016830776 -0.024172265 0.0014479787
000250 95 92 12 bd f9 5c 97 b9 d5 54 8e bd f0 fe 95 bd
       -0.035784323 -0.00028870234 -0.06949774 -0.07324016
000260 0e 6e 05 3d 93 6b 2f 3f 3b da cd 3d 3b 1b 3f 3d
       0.03257566 0.6852352 0.1005139 0.04665683
000270 ca 6e 00 3e 39 39 b0 bd 1d bd 72 bd 1d 7d a6 3c
       0.12542263 -0.08604664 -0.059262384 0.02032333
000280 0a 22 bb bd e0 32 56 bd 6e 17 7c bd b6 b8 01 be
       -0.09137352 -0.052294612 -0.06154578 -0.12668118
000290 a0 37 36 bd 93 a9 ad bd 75 38 af bc 61 e7 b8 3c
       -0.044486642 -0.08479609 -0.021389225 0.022571268
0002a0 ff 0b c8 3d 76 77 29 3d 60 14 24 3c 30 41 de bc
       0.09767913 0.041373692 0.010014623 -0.027130693
0002b0 9a 11 2a 3d 4c d5 23 3d 91 ef 4b 3d 31 6f 83 3c
       0.041520692 0.039998338 0.049789015 0.016044231
0002c0 79 5c 2b bd 3d 85 f1 be fe 6f 32 bc 83 96 17 bd
       -0.041836236 -0.47171965 -0.010890959 -0.037008774
0002d0 68 ad 27 bd c0 77 1c 3d 0d d7 06 3d e1 b7 cf bb
       -0.040936857 0.03820014 0.032919932 -0.0063390587
0002e0 70 8d 08 bd 97 ba c7 bd f2 f5 ed 3d da 4f a7 bd
       -0.03333801 -0.09752386 0.11619176 -0.08169527
0002f0 dc 48 98 bd 8a e3 e8 3c 57 0c d6 bc 41 c2 ef bd
       -0.07435772 0.028428812 -0.026128931 -0.11706973
000300 b4 89 75 bc 5d 25 32 3d 7c 91 0d bd 8b 4c af 3d
       -0.014986444 0.043492664 -0.034562573 0.08559521
000310 3c f6 b1 bd 72 2e ae 3c cb 02 f4 bc 1c 4e 1f 3d
       -0.086895436 0.021262381 -0.029786488 0.03889285
000320 6c 3c 01 bd 58 ad 7f bc 65 d1 3d bc 77 f0 8c bd
       -0.031551763 -0.015605293 -0.011585568 -0.068818025
000330 46 e2 35 bc 3b db 36 bb 38 14 a2 bd f6 68 da bc
       -0.011101311 -0.0027901668 -0.07914013 -0.026661377
000340 3c 35 24 3b f9 a0 8b 3c fa a5 34 bd ba 2d 39 ba
       0.0025056144 0.017044531 -0.0441036 -0.0007064004
000350 d6 9f 97 3c 74 a1 4b 3d fb 8e b2 3b bc de e4 bb
       0.018508833 0.04971452 0.0054491735 -0.00698456
000360 96 f3 7e 3c 4f be 13 be 97 8b 9e 3a 7d b0 85 3c
       0.015561005 -0.14428066 0.0012096044 0.016319508
000370 18 3f b7 bc af c8 f5 3b 85 eb 82 3b aa f5 e6 ba
       -0.022368953 0.00750073 0.0039953613 -0.0017620821
000380 76 86 a7 bc c6 36 1b 3c 86 37 c8 3c 12 44 ed 3d
       -0.020449858 0.009473508 0.024440538 0.11585249
000390 a8 f1 07 bd c7 ee 40 bd eb 8c 9d 3c c5 3e 00 bd
       -0.033189446 -0.047102716 0.019232234 -0.03130986
0003a0 ab 69 b2 3c 37 3b b9 3a 6b 37 41 bc 35 72 ce bd
       0.021778902 0.0014132027 -0.011792998 -0.10080377
0003b0 22 ee 98 bc 36 78 55 bd d6 e7 17 bd 05 e7 11 3c
       -0.018668238 -0.052116595 -0.03708633 0.008905177
0003c0 3a 63 bd 3b 75 aa 37 bc ad c5 d5 bc 0a 4b 67 3c
       0.005779651 -0.011210074 -0.026095236 0.014117012
0003d0 0a 52 8a b7 b1 f8 f1 ba 50 45 4b 3b 3d f9 a4 3b
       -1.6489084e-05 -0.0018460957 0.0031016655 0.0050345943
0003e0 8c 0c 85 bc 28 6a 96 bd 6e c9 8f 3c 93 79 99 bd
       -0.016241334 -0.073444664 0.017552104 -0.074938916
0003f0 1d a8 d1 3b 47 51 17 3f b8 98 52 3d 1a b8 1f bd
       0.0063982145 0.59108394 0.051415175 -0.038993932

attention_layers.0.in_proj_bias f4 [150]
000000 fc fa c0 3d e2 55 8d 3e 86 73 6e bd 62 54 42 3e
       0.094228715 0.27604586 -0.05821564 0.18977502
000010 01 2f f4 bd 14 19 86 be de 93 9a be 2b b2 7f be
       -0.11923028 -0.26191008 -0.3019094 -0.2497031
000020 82 15 17 3f f8 1b 16 bd a5 07 70 bf db 26 c6 bd
       0.59017193 -0.036647767 -0.93761665 -0.0967538
000030 6d 94 3b be f0 06 2a bf 89 63 0a be 59 13 71 3f
       -0.18318339 -0.66416836 -0.13514532 0.9417015
000040 6d 41 a9 3f a2 aa 9f bd fa 23 18 bd ee b6 78 bf
       1.3223091 -0.077962175 -0.037143685 -0.9715413
000050 58 63 d9 be ca c2 6f 3d 62 6f 59 bd 80 0f c1 3d
       -0.42458606 0.058535375 -0.05308474 0.094267845
000060 14 fd 5a 3e 37 b4 35 bf 70 ae ce bd 87 e6 52 3e
       0.21385604 -0.7097811 -0.10091865 0.20595752
000070 96 2a ce 3e 13 a8 be bc b5 e7 76 be 7b 8a e5 be
       0.40266865 -0.023273503 -0.24111827 -0.44832215
000080 5b 56 81 be 6b 67 cd 3d c2 a2 ff bd 0e d2 93 3e
       -0.25261196 0.10029491 -0.124822155 0.28871197
000090 c0 fd 14 bd 65 ef b0 bc b2 4f bc be 49 ae 89 3e
       -0.036374807 -0.021598527 -0.36779553 0.26890782
0000a0 24 32 35 bf e7 0d 18 be d1 74 37 bd 56 52 26 bf
       -0.70779634 -0.14849053 -0.04478914 -0.64969385
0000b0 05 81 48 bc 89 b3 63 be 59 bf db bc 46 25 cd be
       -0.012237792 -0.22236456 -0.02682464 -0.400675
0000c0 04 2e 3a be 09 ee 89 be d2 0b 6e 3a 77 53 64 39
       -0.18181616 -0.2693942 0.0009080741 0.00021774867
0000d0 0a 24 48 3a 57 b6 c3 3a 56 27 9f 39 52 d5 32 ba
       0.0007634765 0.0014931661 0.0003035615 -0.00068219483
0000e0 43 5d ab b9 8a 61 1b 3a db 5a 27 b9 1a ad 99 b9
       -0.00032685147 0.0005927315 -0.00015960207 -0.00029311405
0000f0 fc 24 9c ba b0 a0 33 ba 67 00 68 b9 9d cc 30 bb
       -0.0011912878 -0.00068522524 -0.00022125394 -0.0026977428
000100 09 26 95 b9 b4 22 f6 3a 28 e6 56 b9 eb 36 2c ba
       -0.00028447833 0.0018778653 -0.0002049437 -0.0006569463
000110 92 21 c9 b9 72 0b 26 3a ae 6a 42 b9 a8 29 a2 b9
       -0.0003836272 0.0006334103 -0.00018541023 -0.00030930084
000120 42 aa 56 ba ce e4 70 ba 1a 2e 63 39 6f 6c 83 3a
       -0.00081888225 -0.0009189368 0.00021665581 0.0010026823
000130 29 ce 6f 39 25 b6 e5 39 27 58 b4 ba fa b0 76 3a
       0.00022869617 0.00043813992 -0.0013759182 0.0009410527
000140 49 b2 6d 3a b2 94 03 ba 85 3f 00 39 d0 3a eb b9
       0.0009067399 -0.0005019411 0.00012230694 -0.00044866512
000150 c2 d0 de 3a c4 19 89 39 4d 5b 06 ba 24 ce bb b9
       0.001699947 0.00026149873 -0.0005125299 -0.00035821006
000160 0d 8a d6 39 8b 97 bc ba b6 c4 0b 3a 65 cd e2 39
       0.00040920117 -0.0014388425 0.00053317414 0.0004325911
000170 ec f5 1b ba cd 18 48 39 51 9a de 39 e8 7a 9f ba
       -0.0005949426 0.00019082725 0.00042458114 -0.0012167366
000180 b4 f9 a9 b9 97 6f 3b ba 47 93 62 38 a0 40 db 39
       -0.00032420235 -0.0007150112 5.401976e-05 0.00041819084
000190 e4 b7 51 3e 49 b1 3d be c3 43 9b 3e c4 6e d6 bd
       0.20480305 -0.1852466 0.30325136 -0.104703456
0001a0 96 54 c4 3e 41 4a 63 3d 86 e2 16 be c1 cb 61 be
       0.38345784 0.055490736 -0.1473485 -0.22050382
0001b0 de 83 da 3d 7f cc 32 3e d1 48 08 3e 60 68 a8 be
       0.10669683 0.17460822 0.13309027 -0.32892132
0001c0 23 ae b7 3d 1e fa f2 3c a3 be f7 3e 6d c7 07 3e
       0.08968761 0.02966028 0.48387632 0.13259669
0001d0 3e 2d 10 3e 88 43 ca 3d 09 59 42 bf f2 d5 88 3c
       0.14079759 0.09876162 -0.75917107 0.01670358
0001e0 2e 57 47 3c ac ed 36 3e 9c fd 55 3e 8d 1b 32 3e
       0.012166781 0.17864102 0.20897526 0.17393322
0001f0 77 05 a9 3e c6 fd 11 3d 65 4d 1d 3d 8c 11 7c bd
       0.33011982 0.035642408 0.038403887 -0.06154017
000200 9e d4 d6 3a a3 6e ea 3e 8a b7 89 be 39 bd a3 be
       0.0016390269 0.45787534 -0.26897842 -0.31980303
000210 4a 2c 61 3d 7b 32 a6 3e cf 2e 60 bd 06 59 81 3d
       0.054973878 0.3246039 -0.05473214 0.06315808
000220 18 e5 be 3d 54 ff b5 be 41 ec 5c 3d 89 c0 d2 3d
       0.0932104 -0.35546362 0.053936247 0.102906294
000230 34 b8 b7 3e 1b f4 8e 3e 79 ee 1e be 85 db 2a 3e
       0.35882723 0.27920613 -0.15520658 0.16685303
000240 b4 e8 e6 bd 8d f3 0d bd cd f1 a5 3e 84 15 0b be
       -0.11274853 -0.034656096 0.32411042 -0.13582426
000250 23 e3 ae bd 06 b5 d4 be
       -0.08539417 -0.4154436

attention_layers.0.out_proj.weight f4 [50, 50]
000000 4d 10 02 3c ba ed 80 3e dd 6b 6f be 1a 8d 85 3d
       0.007938457 0.2518137 -0.2338099 0.065210536
000010 8a 76 41 bd 9f a9 91 bd d7 1a 05 be 88 17 77 b9
       -0.04723219 -0.07112431 -0.1299852 -0.00023564522
000020 f0 9f 0d bf ca 9f 78 be 93 91 cf bb e9 de 42 3e
       -0.5532217 -0.24279705 -0.0063344925 0.19030346
000030 cb 8f 20 be 8b c0 da bd 61 ba 41 be e5 f1 06 3e
       -0.15679853 -0.10681256 -0.18918754 0.13178213
000040 a0 e4 8f bd 28 1e 6b bc 2e 1b ce 3d 0c d8 34 3d
       -0.07026029 -0.0143504515 0.10063778 0.04415135
000050 1c dc af bd e1 15 ea bc 61 b4 5f be 04 1e b0 bc
       -0.085869044 -0.028574886 -0.21846153 -0.021498688
000060 3f f6 6d be 93 5d 05 3e 4e 3c 05 be 02 f9 21 be
       -0.23238467 0.13023977 -0.13011286 -0.15817645
000070 15 c6 ea bd 20 69 9e 3d 9e b2 c9 bd cc a5 36 3e
       -0.114635624 0.07734895 -0.09848522 0.17836684
000080 d5 97 de 3d 22 ca 00 be 2b a1 4c be 63 34 2d 3e
       0.108688034 -0.12577108 -0.19983356 0.16914515
000090 79 2f 30 3e c1 e7 dc 3a a8 65 31 be 05 32 3e 3d
       0.1720561 0.0016853736 -0.17323935 0.04643442
0000a0 7f 33 29 be ed 12 98 be 67 51 41 3c ac fe 08 3e
       -0.1652355 -0.2970194 0.011799193 0.133784
0000b0 8f 84 aa 3d ad 75 9c be ad 76 38 bd 5f 69 06 3f
       0.08326065 -0.3055853 -0.045035053 0.52504534
0000c0 07 d9 5a 3d 13 fb 7f 3e a9 c0 f4 bd 83 b2 93 bd
       0.05342963 0.24998121 -0.119508095 -0.07211783
0000d0 75 66 1b bf 78 2c ad be 47 29 a6 bd 87 94 8d 3e
       -0.6070321 -0.3382299 -0.08113342 0.2765238
0000e0 1c 75 b4 be 57 c6 96 3d b0 4b 01 3c 77 b6 01 bf
       -0.35245597 0.07362049 0.00789158 -0.50669044
0000f0 00 d7 b8 bc 58 c1 57 bd f9 b2 3c 3e 44 16 cb bd
       -0.022563457 -0.05267462 0.18427648 -0.09916356
000100 db 69 08 3e af 84 95 bd 45 bf c8 3d fb 51 94 bd
       0.1332163 -0.07300698 0.09802107 -0.07242199
000110 0d ee 47 be 7a 7f 80 bd ab 83 19 3d ff 05 c8 3e
       -0.19524403 -0.06274314 0.037479084 0.39067075
000120 e5 c7 82 bd 94 1e 28 be 7e 72 4b 3e b1 34 f9 3d
       -0.06385783 -0.16417915 0.19867894 0.12168253
000130 17 55 68 3e b7 fb c6 3d f6 d8 de 3d eb 1f ca 3e
       0.22688709 0.097159795 0.10881226 0.39477476
000140 a3 82 3c be be 0a 70 be 7b 3a 8d be fe c0 53 be
       -0.18409209 -0.23441598 -0.2758368 -0.2067909
000150 b5 db 06 3e 7b b3 8c 3e a7 e6 c8 3e fb 25 7f be
       0.13169749 0.27480683 0.39238474 -0.24916832
000160 84 92 64 bd f0 cb ba bd 83 6a b8 3e a9 97 0f bd
       -0.05580379 -0.09120929 0.36018762 -0.035056744
000170 06 43 24 3e 57 a2 63 3e e9 62 8a be b9 3e ee 3e
       0.16041192 0.22229896 -0.27028587 0.4653223
000180 d6 9d 28 3e 54 a5 2a be 3e 8e 8e 3d fd 54 50 be
       0.1646646 -0.1666463 0.06960724 -0.2034492
000190 4b ab d4 bd 35 49 9d be a6 ee 78 be 87 75 af bd
       -0.10384234 -0.30719915 -0.24309787 -0.085673384
0001a0 f9 54 68 bd 2d a4 3d 3e 5a 72 cb bd 02 05 8d 3d
       -0.05672166 0.1851966 -0.0993392 0.06885721
0001b0 92 49 50 bb 73 a9 11 bd c3 f1 15 3d 1d f6 e8 3e
       -0.0031782133 -0.03556199 0.036607515 0.4550027
0001c0 ce 08 45 3e e7 aa 31 bd af 68 7c be 53 fb 29 3d
       0.1924164 -0.043375876 -0.24649309 0.041499447
0001d0 68 2a a7 3d 6a 73 ba be 4b ef 7c 3e f5 e5 c9 bd
       0.08162385 -0.3641618 0.24700658 -0.09858314
0001e0 5f 7b 10 be 56 10 9c 3d 0a b3 8f 3d 91 17 ca 3a
       -0.14109562 0.07620303 0.07016571 0.00154184
0001f0 92 0d 57 be 22 73 8f be 5a 77 a7 3c 25 37 1c 3d
       -0.2100127 -0.28017527 0.020442653 0.038138527
000200 b0 bf 11 be a0 15 14 bd 74 bc 46 3e 44 46 a0 be
       -0.14233279 -0.036153436 0.19407827 -0.31303608
000210 d9 41 d9 bd c0 7e 23 be e7 16 6d be 0d 6f 5c 3e
       -0.106082626 -0.1596632 -0.23153268 0.21526738
000220 1d 98 1c 3e 3d bd 2a 3e 91 23 d8 bc 67 5d b7 bb
       0.15292402 0.16673751 -0.026384147 -0.005595851
000230 f6 0d 56 be 8a 35 86 bd 13 8d 86 bd a4 61 c3 bd
       -0.20903763 -0.065531805 -0.065698765 -0.09540108
000240 65 48 05 be 18 0f 6f 3d da 03 90 3d 64 96 2b be
       -0.13015898 0.058364004 0.070319846 -0.16756588
000250 aa ea bc bd 96 95 10 bc ed 1f 56 bf c6 3f 1c be
       -0.09224446 -0.008824727 -0.83642465 -0.15258703
000260 12 e4 83 bd fa 2b 99 bd 51 27 e1 3e 25 24 d9 be
       -0.06439985 -0.07479091 0.4397531 -0.4241039
000270 f1 8b d7 be b5 73 91 3e ae 12 75 3e ae 7c 15 bf
       -0.42098954 0.2840859 0.23932907 -0.5839337
000280 cc 1e e0 be ec 68 65 be f3 10 a9 3e b2 88 61 3e
       -0.43773496 -0.22403306 0.33020744 0.22024801
000290 f9 ac 60 3e d2 e7 9d 3e 3c 4e 26 be 45 86 16 be
       0.21940984 0.30840927 -0.16240782 -0.14699657
0002a0 0e 61 b1 3d 15 f7 3c be 18 60 c3 bc f0 9b e2 3d
       0.0866109 -0.1845363 -0.023849532 0.11064899
0002b0 7d a0 17 be 4c d5 0a 3f dc e2 b5 be b3 5f 7e be
       -0.14807315 0.54231715 -0.35524642 -0.24841194
0002c0 be 83 a8 bd ec c8 39 3e fa ea 05 3e 19 38 a9 be
       -0.08228253 0.18143052 0.13077918 -0.33050612
0002d0 65 6d b0 bd bd 33 1f 3e 68 43 0c 3f 1e 75 6c 3e
       -0.08614615 0.1554708 0.54790354 0.23091552
0002e0 2c e4 61 3d f6 3c 5b bf bb 51 04 bf 14 e6 1f 3e
       0.055149242 -0.85639894 -0.5168721 0.15615112
0002f0 5c 40 78 3e 31 87 0a 3d bc ee 34 be e1 a2 8d 3e
       0.24243301 0.033820335 -0.17669195 0.2766333
000300 e2 b9 67 bc c5 c7 9c bd cc 89 22 3e 2d d8 e0 bd
       -0.014143439 -0.076552905 0.15872878 -0.10978732
000310 51 20 1b be 7d 9b 1e bd 93 47 7b 3f 35 07 12 bf
       -0.15149046 -0.038722504 0.9815609 -0.5704225
000320 a0 46 64 3d df 39 c8 3e ae 20 0d 3e 9f a2 05 bd
       0.055731416 0.39106652 0.13781998 -0.03262579
000330 f0 95 3f bc 4b 2a d6 3b 3e b3 e2 be dd 0e 43 3d
       -0.011693463 0.0065358034 -0.44277376 0.047621597
000340 39 74 1a be e8 15 d3 3e 98 47 40 bc 85 c2 ab 3e
       -0.15083398 0.4122765 -0.011735819 0.33546844
000350 eb 5e 03 3e b5 10 74 be bd 11 51 3d d4 43 58 3c
       0.12829177 -0.23834498 0.051042307 0.013199765
000360 c9 96 8f 3e 90 e1 22 3d 8c 57 49 3c 07 19 75 be
       0.28044727 0.039765894 0.012288939 -0.23935328
000370 f9 28 b0 be 2a 4b 7e be 0e a4 dd 3e cd ee 97 be
       -0.3440626 -0.2483336 0.43289226 -0.29674378
000380 ee 8b b8 3e 8b cb 0d be 1a 83 77 3e a4 78 95 3d
       0.36044258 -0.13847177 0.24171105 0.07298401
000390 3b 9e 3f 3e af 44 17 bc 5d 44 42 be 47 60 f7 bd
       0.18712704 -0.009232684 -0.18971391 -0.1207891
0003a0 aa 9d 3b 3e 2b 6e 11 3e 22 cb 72 be af 20 55 be
       0.18321863 0.14202182 -0.23710302 -0.20813249
0003b0 9e 83 8a 3e 17 25 57 3e 82 cd 3f 3e f2 49 71 be
       0.2705354 0.21010242 0.18730739 -0.23563364
0003c0 a9 cf 63 3e 58 c2 96 3e 7f b4 ac 3c 0a 67 db bd
       0.22247185 0.29445148 0.021082161 -0.107130125
0003d0 32 c9 13 3c f5 4e 5a 3e 28 dc d8 bd cc 77 6c bd
       0.009020137 0.21319182 -0.105888665 -0.057731435
0003e0 34 2f 0e bd ae 77 c2 3d 1d 06 99 bd 78 1e c3 bc
       -0.034712985 0.09495483 -0.07471869 -0.02381824
0003f0 fd 84 7a 3d c3 ae f6 bb 4d 7b b6 3c f5 5b be be
       0.061161984 -0.0075281574 0.022275591 -0.37179533

attention_layers.0.out_proj.bias f4 [50]
000000 47 5d 97 bb 61 e6 4a be 07 56 09 be b7 36 87 be
       -0.004619274 -0.19814445 -0.13411723 -0.26408932
000010 bd 1d 1f bf d6 86 6d 3e c2 c3 ee 3e cc a2 ad bc
       -0.6215475 0.23195967 0.46633726 -0.021195792
000020 bc b6 bd be 41 61 2b 3e 7f 20 42 3e 34 03 39 bd
       -0.37053478 0.16736318 0.18957709 -0.04516907
000030 6e cf 39 be c4 ae 85 bb fe cd 09 3e b2 6e 31 be
       -0.18145534 -0.0040796716 0.13457486 -0.17327383
000040 0b d1 70 be 42 a7 46 bf 43 ba 2c 3f a6 9b 41 3e
       -0.23517244 -0.77598965 0.6747171 0.18907031
000050 f0 4b 83 3e cd c7 fa 3e 20 ee 60 bd 16 1d 86 3c
       0.25643873 0.4898056 -0.054914594 0.016371291
000060 8e 95 7e 3c 34 46 bc 3d a7 10 2e 3d 83 7f 11 3d
       0.015538586 0.09193078 0.04249635 0.035521995
000070 02 bc 58 3d 5c 1d d8 3d d4 0f 21 3c 7e 36 69 bc
       0.052913673 0.10552475 0.009830434 -0.014234183
000080 56 f0 76 bd 82 c6 3e be 27 88 10 3d 21 41 a3 3e
       -0.060287796 -0.18630412 0.035286095 0.31885627
000090 07 b9 b5 3e 3f 89 86 3e 79 fa 04 bd 03 d9 d7 3d
       0.35492727 0.26276585 -0.03246543 0.105394386
0000a0 69 ca 79 3d 4f 04 5c 3d 35 9a ec 3d 69 fa cf be
       0.06098405 0.053715046 0.1155285 -0.40620735
0000b0 1b 19 d5 3d e4 66 97 3e ff c0 40 be 81 53 a8 3d
       0.10405179 0.29570687 -0.18823622 0.08219052
0000c0 b6 80 f6 be bb c2 f2 be
       -0.48145074 -0.47414193

attention_layers.1.in_proj_weight f4 [150, 50]
000000 49 b9 3f 3e 4c 2a a9 bd cb 9e b5 be a6 d9 a4 3e
       0.18723024 -0.082600206 -0.35472712 0.32197303
000010 3c 12 e8 bd 4c 01 14 3d d5 f0 e2 3e 7a 71 bd bd
       -0.11331603 0.03613405 0.44324365 -0.092501596
000020 59 e4 7e be 8e f5 02 be 42 59 ac 3c 93 76 8b bd
       -0.24891795 -0.12788984 0.021038655 -0.068097256
000030 77 30 4c be fd f8 79 bd c6 82 99 bc 42 0b d6 bd
       -0.19940363 -0.06102847 -0.018739115 -0.10451366
000040 52 61 06 3e ec 53 bf 3c 6f fb 6c 3d 35 db 69 bd
       0.13123062 0.023355447 0.057856973 -0.057093818
000050 4e 20 35 be f3 93 1d 3e f1 41 55 be a9 fc 29 be
       -0.17688105 0.1538847 -0.20825936 -0.16600288
000060 86 ca 8b 3e 2c 7e 82 3e a2 94 6b bd 05 92 e5 3e
       0.2730295 0.25486887 -0.057514794 0.44837967
000070 27 46 e3 3e a1 7b fd 3d 58 9b 99 bd 3d 0f 26 be
       0.4438946 0.12377096 -0.075003326 -0.1621675
000080 56 0b 3f 3d 32 bb c4 bd c3 17 2c bc d5 6a 10 3e
       0.04664167 -0.09606017 -0.010503712 0.14103253
000090 b0 56 e9 3d 46 dd c6 bc c2 89 35 3d 5a a0 c8 3b
       0.113934875 -0.024275433 0.04432083 0.006122631
0000a0 2d c3 ec 3c 0b 01 86 be 7f 9e 14 3e a5 3f 25 be
       0.02890166 -0.2617267 0.14513586 -0.1613756
0000b0 bc 25 3d be 9a 32 3c 3e d5 d2 bc bd 31 7f 05 3e
       -0.18471426 0.18378678 -0.092199005 0.13036801
0000c0 4a f9 d2 bd 1d 0a 65 be 0b 0b c4 3c 43 ef bd bd
       -0.10301454 -0.22367139 0.023931047 -0.09274151
0000d0 3a f6 83 be 5e 42 49 be d8 ef a8 3e 45 02 f2 bd
       -0.25773793 -0.19654223 0.32995486 -0.11816839
0000e0 42 6d 98 3e 4e 42 41 bd eb 53 60 bc 8a a5 7e bd
       0.29770857 -0.047182374 -0.013691883 -0.06216959
0000f0 ac 0a 09 be f7 19 2a 3d e5 be 10 3e 94 de b8 3d
       -0.13382977 0.04152867 0.1413532 0.090268284
000100 2c 07 14 3e 63 05 f0 bb 3b 73 c6 bd ce a4 73 be
       0.14455861 -0.007324861 -0.09689947 -0.23793337
000110 e6 ac 05 3d 2f 7a 26 bd 30 ec 35 3d 72 83 33 be
       0.032635592 -0.040643867 0.0444147 -0.17530611
000120 a4 5f b4 3e fe f8 20 3d 16 85 75 bd 25 1b c1 3c
       0.35229218 0.039299957 -0.059941374 0.023572514
000130 3a 63 9d 3c c1 b3 3f bf e3 a1 99 3d 9f c7 68 3e
       0.019212354 -0.7488366 0.075015806 0.227324
000140 dd 8c 33 bd 8b 2b 34 be 0e dc 9b bc 7e 83 23 bd
       -0.04383551 -0.17594735 -0.019025829 -0.039920323
000150 48 65 58 3d 28 dd 0a 3e 64 6a 0a 3e f5 f4 37 3d
       0.052830964 0.13560927 0.13517147 0.044911344
000160 9d 1d f8 3d 0b 40 ae bd 1c bb 43 bd 2a 59 ad bd
       0.12115023 -0.08508309 -0.047785863 -0.08464272
000170 7b 03 57 bd 32 2d d4 3e cb a3 18 3e e7 65 01 3e
       -0.052493554 0.4144073 0.14906232 0.12636529
000180 e4 51 87 bc 41 7b cc bd c9 fb 3f 3e 5e b1 e0 3e
       -0.01651854 -0.09984446 0.18748392 0.4388532
000190 37 ec ef bd 7d 86 5f 3c ea 12 38 bd f3 31 3d 3e
       -0.11714976 0.013642904 -0.044939913 0.18476085
0001a0 2b a6 25 3d 79 c7 54 bc 0f 54 e3 3e 3e 26 03 be
       0.040441673 -0.012987011 0.4440007 -0.12807557
0001b0 1b 15 86 3d 21 a1 83 bc 6d 47 45 bd 04 cd 5e be
       0.06546994 -0.016068043 -0.04816382 -0.21757895
0001c0 f5 9d 6c 3e 74 b3 ac 3e 7f cb ae bd 35 63 06 3d
       0.23107131 0.33730662 -0.085349075 0.032809455
0001d0 ca a5 61 3d 0d 05 16 3e 04 51 0a 3e 15 e2 bf bd
       0.05508975 0.14650364 0.13507468 -0.093692936
0001e0 eb 3e 23 3e 36 e7 13 be 6a 94 10 bd e6 d0 be bd
       0.1594197 -0.14443669 -0.03529779 -0.09317188
0001f0 ef a2 9d bc 57 84 60 be 95 63 e5 3d 4a 07 70 3f
       -0.019242732 -0.21925484 0.112006344 0.9376112
000200 e6 8b 80 be 46 83 9b 3e 45 67 86 bb 1a a9 85 bd
       -0.25106734 0.3037359 -0.004101666 -0.06526394
000210 5b 3d df bd 4d fa d3 bd 26 2c b8 3d fd 30 35 bd
       -0.109003745 -0.103504755 0.08992796 -0.044236172
000220 41 46 88 be c7 29 0a bb cc ce db bc 28 6b 9a 3d
       -0.266161 -0.002108203 -0.026832007 0.0753997
000230 fb c6 36 3e ed 19 55 bc 3d cf 86 3d 65 a4 8d 3d
       0.17849343 -0.0130066695 0.06582496 0.069161214
000240 7b 13 44 3e 22 78 df bc 2c 44 97 3c ef e3 f1 bd
       0.19148056 -0.027278963 0.018465124 -0.11811053
000250 34 c2 f5 3d a8 eb c7 be ac 22 99 be 77 93 af 3d
       0.11999932 -0.3904698 -0.29909265 0.085730486
000260 84 27 94 3d d7 e1 39 3d a0 e5 9f be cd 7c 13 be
       0.072340995 0.045381393 -0.31229877 -0.14403076
000270 09 78 b3 3e 33 2d e2 bb a0 6e 4b bd 17 5b 1f be
       0.35052517 -0.006902361 -0.049666047 -0.15562092
000280 4d 6c 80 3d be 5e fa 3b 5e 91 18 3e 69 b3 1a 3e
       0.06270657 0.0076406887 0.14899203 0.15107502
000290 0a bf de 3d bf 11 1f 3e 96 e9 0c be 4c 9e a9 bd
       0.108762816 0.15534113 -0.13760981 -0.08282146
0002a0 b0 8b 8d 3b 85 69 97 3d 43 5c 9a 3d 77 a2 1f 3d
       0.0043196306 0.07393173 0.07537129 0.038973298
0002b0 bf 0e 4f 3e d6 cf fa bd c2 95 8a 3b 5b 7e 40 be
       0.20220469 -0.12246673 0.0042292783 -0.18798201
0002c0 df 52 05 3e 1b ae 68 be 02 18 a4 bd 38 06 15 bd
       0.13019894 -0.22722666 -0.080123916 -0.036382884
0002d0 11 78 3c 3d 85 e6 8f be 3f 8f 37 3e f4 f5 51 3e
       0.04601294 -0.2810556 0.17925738 0.2050398
0002e0 76 8f 22 bd 8c d6 12 3e 1e d0 3d 3e 55 fc d7 3d
       -0.039687596 0.14339656 0.18536422 0.105461754
0002f0 b6 4b 57 3e 03 57 86 3e cd e5 aa 3c 75 f7 76 bc
       0.21024975 0.2623826 0.02086153 -0.015073647
000300 ed e4 57 3c bb df bb 3d 8e d0 5f 3e d8 e9 f8 3c
       0.013177139 0.091735326 0.21856901 0.030384943
000310 f9 7e 38 3e e2 19 6f 3d 82 fb 18 bd bb 70 2a 3e
       0.18017186 0.058374293 -0.03734923 0.16644566
000320 a6 3c 8d 3c 8c e1 a2 3d d5 a7 9d bb e7 e6 a9 3c
       0.017240833 0.07953176 -0.004811267 0.020739986
000330 ae 42 5a 3b 82 80 c0 bd 19 bc d1 3e 77 bf 0b 3e
       0.0033303904 -0.09399511 0.4096382 0.13647257
000340 e3 ed 7b 3c ea e7 29 be d8 59 f2 3d 67 04 05 3e
       0.015376541 -0.16592374 0.118335426 0.1298996
000350 0a 98 43 be ae b6 3b bc 1a 1c 66 bc a4 02 ba bd
       -0.19100967 -0.011457128 -0.014044786 -0.09082535
000360 0f fc d5 be 8e b1 56 bd ee bc 1e 3d 3d 9f 00 be
       -0.41793868 -0.052415423 0.038754396 -0.12560745
000370 56 23 43 be 8a 51 52 be a3 4f 31 be df 5a e9 bd
       -0.19056448 -0.20538917 -0.17315535 -0.113942854
000380 2e d9 2d bd 05 91 82 bd de 6e c6 3d 99 7c d1 3e
       -0.042443447 -0.063753165 0.09689115 0.40915373
000390 09 19 b8 be 30 0a f3 bd bc c5 4d 3e d8 c6 c1 bd
       -0.359566 -0.118671775 0.20094961 -0.094617546
0003a0 a2 26 c1 bd d1 c1 d3 bd 95 ce 44 bd 73 86 89 3e
       -0.09431197 -0.10339702 -0.048048574 0.2686039
0003b0 39 f5 a0 bd cc 47 9e 3e 96 e7 a7 3d ce 7d 58 3d
       -0.078592725 0.30914152 0.081984684 0.05285435
0003c0 cf c2 11 bc 76 05 c8 bd a6 bb 8c bd 0c cd 4a 3e
       -0.008896544 -0.097666666 -0.068717286 0.19804782
0003d0 20 85 b3 be db 31 db 3d 80 2a 43 3d d8 94 2d bd
       -0.35062504 0.107028686 0.047647953 -0.042378277
0003e0 3a d6 14 3e b4 79 7d bd aa fa bc 3c 2d aa c2 bd
       0.14534846 -0.061883643 0.023068745 -0.09505115
0003f0 a9 e4 5d bd 08 1b 28 bf e4 ba 35 be ed 00 90 3d
       -0.054173145 -0.65666246 -0.17747074 0.070314266

attention_layers.1.in_proj_bias f4 [150]
000000 03 ff ae be 9a 58 eb bd 42 4d cb 3e b6 0e 10 bf
       -0.34178934 -0.11491509 0.3970738 -0.5627245
000010 b6 0c 3f be b0 63 a6 bd 2a c4 97 3d f2 e6 e0 bd
       -0.18657193 -0.08124483 0.07410462 -0.10981549
000020 4b f5 6f bb 1b d2 9a 3e 48 7c 30 bf 14 f7 30 bf
       -0.0036614712 0.30238423 -0.6893964 -0.6912701
000030 99 13 ac bc 30 8f d1 3c e7 3e 99 bd 48 f4 39 bf
       -0.021005439 0.025580972 -0.07482701 -0.7263837
000040 54 6b 4d bd 25 9b 71 bd 6a 0b f4 3e cd a3 26 be
       -0.050151184 -0.058985848 0.47664958 -0.16273423
000050 4e e1 48 be 2e c9 ad 3e 03 8e c1 be e8 36 b9 3d
       -0.19617197 0.3394255 -0.3780366 0.09043676
000060 be d5 25 3d 1f 83 20 3d b0 6f 5d 3d d9 10 7c be
       0.040487044 0.039187547 0.05406159 -0.24615802
000070 3c ac fc 3c ce ce ab 3c 22 c0 30 3e 8c af 28 be
       0.030843846 0.020972636 0.17260793 -0.16473216
000080 aa fb f0 3d 51 b3 2e 3f 4c 93 8c be 71 9c f5 3e
       0.11766751 0.68242365 -0.2745613 0.47970918
000090 b5 3a fd 3e a2 92 f0 3e c5 bc bd be fa 02 a1 be
       0.49458852 0.46986872 -0.37058082 -0.31447583
0000a0 f9 62 b5 3e d9 0f a0 3e 1f 2a 14 bf c3 e9 bc 3e
       0.35427073 0.3126209 -0.5787677 0.36897096
0000b0 b2 c6 4d bf 74 12 f2 be f0 a4 e1 be 7d 70 0c bf
       -0.8038131 -0.47279704 -0.4407115 -0.54859143
0000c0 16 cf 3b bf db f4 37 3e 23 91 06 3d 65 d0 e2 bb
       -0.73362863 0.17964499 0.032853257 -0.006921815
0000d0 9a 3d 95 3c 9e f9 03 3d a9 13 74 3c 3f 55 1d bc
       0.01821785 0.032220475 0.0148972655 -0.009602844
0000e0 de 0c 9b bc de 4f b4 3c 60 de 35 3b 78 60 43 bd
       -0.018927034 0.02201074 0.0027750954 -0.04769942
0000f0 63 eb 12 3d e2 a0 08 3c 90 f7 bc 3c 64 65 a4 3c
       0.035869014 0.008339139 0.023067266 0.020067878
000100 68 8f 29 3c 1f 0d a6 3b fa 58 c2 39 4f 2b 38 bc
       0.010349132 0.005067482 0.00037068856 -0.011240794
000110 62 f3 0b bd 89 eb 96 3c d9 e9 ee 3c 64 91 06 3c
       -0.034167655 0.018422859 0.029164242 0.008213375
000120 72 6b 9a bb 5e 7d a3 3c 5c f5 05 3c 15 32 9d bb
       -0.0047125155 0.01995724 0.008176174 -0.00479723
000130 40 41 d7 3c 13 6e 17 3d e5 ee 06 3d 68 63 79 3b
       0.02627623 0.03697021 0.03294267 0.0038053636
000140 66 de 66 3c 71 74 0f 3d 18 d8 d7 bc 55 05 7e bd
       0.01409111 0.035023157 -0.026348159 -0.062016804
000150 e1 e4 17 3b e9 9f ab bb fa 85 ca bc 9a 58 1a bd
       0.0023177194 -0.0052375686 -0.024722088 -0.037682153
000160 32 15 81 3c c2 b1 80 3b 4d c9 b7 bc 2c 0a 32 3b
       0.015757177 0.0039274404 -0.022434855 0.0027166707
000170 5f 40 17 3d 77 df af bd e7 b9 73 3c 16 a3 e2 3c
       0.036926623 -0.085875444 0.014875866 0.027665656
000180 62 d5 bc 3c e1 5f 13 3d 38 6d d7 3c 67 32 31 3c
       0.023050968 0.03598011 0.026297197 0.0108152395
000190 75 77 fa be eb 9c a2 3d 76 83 27 3e 1a 8a 41 3d
       -0.48919263 0.07940086 0.16358742 0.047250845
0001a0 55 1f ae 3e 7f ba d1 3d 39 f1 66 bc f5 9c 29 be
       0.3400828 0.102406494 -0.014095598 -0.1656378
0001b0 18 2a 8f 3d c4 d3 da 3d 0a 26 ef 3d ca 2a 30 bd
       0.069904506 0.10684922 0.11677177 -0.043009557
0001c0 87 6c 0c 3e b6 03 47 3d d9 cc de be 87 25 d3 3d
       0.13713275 0.048587523 -0.4351566 0.10309892
0001d0 34 ea 5f 3d d5 22 44 be 68 d5 34 bc 72 66 52 3e
       0.054666713 -0.19153912 -0.011037208 0.20546892
0001e0 b4 1e 43 3e 28 ac 29 3e a1 38 52 bc 13 4d a2 bd
       0.19054681 0.16569579 -0.012830884 -0.07924857
0001f0 ab 30 07 3d c9 89 a3 bb ee e9 b8 bd 32 4b 30 bd
       0.033005398 -0.0049907905 -0.090289935 -0.04304046
000200 64 0f 29 bc 08 37 b6 be 0e d7 3d 3e 2c ae 3a 3d
       -0.010318611 -0.3558886 0.18539068 0.04557626
000210 ce 41 82 3e 3a 78 02 3e 7e fa ad 3d 82 7e 9e 3e
       0.2544083 0.12741175 0.08495043 0.30955893
000220 57 ad 71 3e d3 4d 3d 3e a9 b9 17 bc 14 45 b4 3d
       0.2360128 0.18486719 -0.009260573 0.08802238
000230 23 e3 96 3e 3f 75 1f be 21 4e 94 be 80 3f 93 3e
       0.29470167 -0.1557207 -0.28965858 0.28759384
000240 1e a3 e3 bb 67 a5 4e be 7e 14 3c 3e 24 73 0c 3e
       -0.0069469353 -0.20180283 0.18367192 0.13715798
000250 4c 05 6d 3e ce 77 49 be
       0.23146552 -0.19674608
