python/ml-1m_default/SASRec.epoch=1000.lr=0.001.layer=2.head=1.hidden=50.maxlen=200.pth (torch, 860450 bytes, 28 tensors)

item_emb.weight f4 [3417, 50]
000000 00 00 00 00 00 00 00 00 00 00 00 00 00 00 00 00
       0.0 0.0 0.0 0.0
000010 00 00 00 00 00 00 00 00 00 00 00 00 00 00 00 00
       0.0 0.0 0.0 0.0
000020 00 00 00 00 00 00 00 00 00 00 00 00 00 00 00 00
       0.0 0.0 0.0 0.0
000030 00 00 00 00 00 00 00 00 00 00 00 00 00 00 00 00
       0.0 0.0 0.0 0.0
000040 00 00 00 00 00 00 00 00 00 00 00 00 00 00 00 00
       0.0 0.0 0.0 0.0
000050 00 00 00 00 00 00 00 00 00 00 00 00 00 00 00 00
       0.0 0.0 0.0 0.0
000060 00 00 00 00 00 00 00 00 00 00 00 00 00 00 00 00
       0.0 0.0 0.0 0.0
000070 00 00 00 00 00 00 00 00 00 00 00 00 00 00 00 00
       0.0 0.0 0.0 0.0
000080 00 00 00 00 00 00 00 00 00 00 00 00 00 00 00 00
       0.0 0.0 0.0 0.0
000090 00 00 00 00 00 00 00 00 00 00 00 00 00 00 00 00
       0.0 0.0 0.0 0.0
0000a0 00 00 00 00 00 00 00 00 00 00 00 00 00 00 00 00
       0.0 0.0 0.0 0.0
0000b0 00 00 00 00 00 00 00 00 00 00 00 00 00 00 00 00
       0.0 0.0 0.0 0.0
0000c0 00 00 00 00 00 00 00 00 cb c1 8b 3b 76 d4 74 bc
       0.0 0.0 0.0042650453 -0.014943233
0000d0 b4 1e 91 bd 41 b9 1f bd cb 7c db bd 17 2d 32 3e
       -0.07085934 -0.03899503 -0.10717162 0.17400013
0000e0 c4 2f ef bd 8c c0 75 be 40 9b 0a be ef 6d da bd
       -0.116790324 -0.23999232 -0.13535786 -0.106654994
0000f0 46 20 25 3d 20 3e 32 b9 bc 23 b1 bd 88 c8 7b be
       0.04031398 -0.00016998546 -0.08649394 -0.24588215
000100 2c 41 7d 3e ed 4c 81 3c 3c 29 60 3d 14 32 cc be
       0.24731892 0.015783751 0.054726824 -0.39881957
000110 6a c8 fb bc 60 a8 a0 3e 7d f2 b6 3b c7 61 32 3e
       -0.030735213 0.3137846 0.005583106 0.17420112
000120 1f ba 55 be fb f7 1c 3e 50 29 96 3c 20 ed 95 3c
       -0.20871781 0.15328972 0.018330246 0.018301547
000130 19 7e a3 3d e4 01 82 3e 4e eb fa 3e 69 f6 28 be
       0.079830356 0.25392067 0.49007648 -0.16500248
000140 54 a5 6a 3d 59 48 06 3d 7c 92 08 3e 85 4b 68 bd
       0.057286575 0.03278384 0.1333713 -0.056712646
000150 34 ce 73 be 15 8c c1 3e a1 a2 31 3e 26 4d bb 3d
       -0.23809129 0.37802187 0.17347194 0.09145574
000160 88 ef 01 be b6 44 b6 bd c3 e4 e9 bd 7f 93 1e be
       -0.1268903 -0.08899824 -0.11420586 -0.15485953
000170 4a e2 b9 3e 51 37 b3 3d d8 00 a7 3d 86 b2 0c be
       0.36305457 0.08750785 0.08154458 -0.13739976
000180 57 38 ae 3d 5e a0 08 3e fc 86 01 be 3f 94 bc 3d
       0.0850684 0.13342425 -0.12649149 0.09207963
000190 96 02 95 bd 59 68 b2 be 7d 60 70 be e3 ba 13 3e
       -0.07275884 -0.34845236 -0.23474307 0.1442676
0001a0 a7 2c f3 3d 97 99 e4 bd 92 da bf be a5 65 96 be
       0.11873751 -0.111621074 -0.37471443 -0.29374424
0001b0 4b 63 f7 3d 48 9f 24 3e 55 fb 9f 3e 22 b1 82 bd
       0.120794855 0.16076386 0.3124644 -0.06381442
0001c0 d8 53 5b 3d 46 8b 07 be 2e 33 dd bc 95 ab a8 3e
       0.053546757 -0.13236722 -0.027001943 0.32943407
0001d0 60 c8 85 be 11 d1 11 bf 5a b4 31 3c 45 fe 17 3e
       -0.26129436 -0.56959635 0.010846222 0.1484309
0001e0 4d e1 b3 3e 6f ae e8 bc d2 5a 87 be ed 67 c1 3d
       0.35132828 -0.028403489 -0.26436478 0.094436504
0001f0 30 6b fc bd 2f 46 a9 bc 4f 95 e2 bd 3d a5 34 3e
       -0.12325132 -0.020663349 -0.110636346 0.17641158
000200 c0 3e b4 be 2d 98 8f 3e 40 ca 6a bd 8e 50 96 3e
       -0.35204124 0.28045788 -0.057321787 0.29358333
000210 ab 7b 99 3e dc cc a5 3e 7a 45 34 3e cc fb 49 3e
       0.29977164 0.32382858 0.17604628 0.19724959
000220 5e fe 8e 3e c6 37 63 bd df c6 80 3c d7 b5 e7 bd
       0.27928442 -0.05547311 0.01571983 -0.1131398
000230 8e aa 04 be d3 25 31 3e b1 62 ac bd 7a 5c 51 3d
       -0.12955686 0.17299585 -0.084172614 0.051113583
000240 3b 3a 4d be 95 24 69 3e 9e 34 06 be 14 90 9a bc
       -0.20041744 0.22767861 -0.1310601 -0.01886753
000250 86 1f a5 bd 36 99 2d bd b2 b4 a2 be c2 f9 92 3d
       -0.08062653 -0.04238244 -0.31778485 0.07176544
000260 29 e1 27 3e 02 8a 46 3e d5 d8 37 3e f9 76 18 3e
       0.16394486 0.19388583 0.17953809 0.14889134
000270 61 31 da bd 08 5d 96 3e 40 0d 27 3e 76 22 8a 3d
       -0.106539495 0.29367852 0.16313648 0.06744854
000280 d6 4b 93 be 62 ff 53 be 7d bd a8 bd 59 73 1d 3e
       -0.28768796 -0.2070289 -0.08239267 0.15376033
000290 3b 18 83 3d f3 ca 13 3e 93 83 54 be 93 19 3f bf
       0.06401106 0.14432888 -0.20753317 -0.746484
0002a0 6c ad 5b 3e f1 ac 43 ba c3 1c 3f be 5e 49 6f bb
       0.21452874 -0.000746443 -0.18663315 -0.0036512236
0002b0 a0 f4 fc bd 08 bf 6f be b3 10 11 3e ad 57 6f 3d
       -0.12351346 -0.23412716 0.14166526 0.058433224
0002c0 74 ba de 3d be 00 3e 3e dd 61 53 3c 3b 50 91 3e
       0.10875407 0.1855497 0.01290175 0.28381523
0002d0 2e da 1f be f8 e4 80 3e ed f7 fd 3e 05 db 7e bd
       -0.15610573 0.2517469 0.49603215 -0.062220592
0002e0 03 28 c6 3d 05 d7 c6 3d dc 19 35 bd 51 b5 3c bd
       0.096756004 0.097089805 -0.044214115 -0.046071354
0002f0 ec 7a 8b bd e2 20 ca 3b 17 75 cf be 92 c5 a5 bd
       -0.06810555 0.0061684707 -0.4051902 -0.08094324
000300 8e ea 29 bd 72 db ff bd 04 44 fb bd e2 3e 35 bd
       -0.041483454 -0.12493028 -0.12268832 -0.044249423
000310 dd 39 18 3e 77 72 27 be 8f 6a 2b 3d 8f 37 96 3d
       0.14865823 -0.16352259 0.04184967 0.07334816
000320 f1 b0 cb 3d 28 75 46 bc 74 18 5d 3d 85 df e6 3c
       0.09945858 -0.012112893 0.0539784 0.028182754
000330 69 7e 09 3e 1a 4e 69 3d 3f cf 8d be 82 60 95 3d
       0.13427128 0.05695925 -0.2769718 0.07293798
000340 9e 24 81 bb fd 07 31 3d 7c 3b cc 3d 17 88 99 be
       -0.0039411327 0.04322051 0.09972283 -0.2998664
000350 d5 77 56 3e be b6 82 be 99 e6 e7 3d 90 a8 0b be
       0.2094415 -0.25530046 0.1132328 -0.1363852
000360 61 59 b7 3d 97 54 ca be ca 0e 86 bd 30 fc 55 3e
       0.089525945 -0.39517662 -0.065457895 0.20896983
000370 ca 9e f7 bc 55 89 a3 3e 2a ca 5b be b9 39 9a 3e
       -0.030227084 0.31940714 -0.21463838 0.30122164
000380 58 4f 34 bd 94 bf 3b 3e 20 bf b6 bd 14 a7 54 3e
       -0.04402098 0.183348 -0.08923173 0.2076686
000390 9e f0 3b 3e 6b 8a 88 3d 40 02 8d 3d 53 14 98 bd
       0.18353507 0.06667026 0.06885195 -0.074257515
0003a0 b1 11 e6 3d 36 78 0b be 7e 58 4c bd ac 30 0a 3f
       0.11233843 -0.13620076 -0.04988908 0.5398052
0003b0 9b 2b f5 3d ef c6 83 3b fa 64 10 be 32 ac 63 3c
       0.11971208 0.0040215175 -0.1410102 0.013896035
0003c0 49 39 4b be bc 92 84 bd e9 11 05 3e 15 cd 1d 3e
       -0.19846071 -0.064733 0.12995113 0.15410264
0003d0 25 c6 c8 3c 05 e9 2e be 19 bd 17 3e ac d6 87 3d
       0.024508545 -0.17081077 0.14818229 0.06632742
0003e0 84 46 85 3c 2d f2 3c 3e 29 94 9b bd 09 55 20 3e
       0.016268976 0.18451758 -0.07596619 0.15657438
0003f0 a2 d3 47 3e 23 35 af 3d 77 36 4f bd 33 cd dd bb
       0.19514325 0.08555057 -0.05058905 -0.0067688464

pos_emb.weight f4 [201, 50]
000000 00 00 00 00 00 00 00 00 00 00 00 00 00 00 00 00
       0.0 0.0 0.0 0.0
000010 00 00 00 00 00 00 00 00 00 00 00 00 00 00 00 00
       0.0 0.0 0.0 0.0
000020 00 00 00 00 00 00 00 00 00 00 00 00 00 00 00 00
       0.0 0.0 0.0 0.0
000030 00 00 00 00 00 00 00 00 00 00 00 00 00 00 00 00
       0.0 0.0 0.0 0.0
000040 00 00 00 00 00 00 00 00 00 00 00 00 00 00 00 00
       0.0 0.0 0.0 0.0
000050 00 00 00 00 00 00 00 00 00 00 00 00 00 00 00 00
       0.0 0.0 0.0 0.0
000060 00 00 00 00 00 00 00 00 00 00 00 00 00 00 00 00
       0.0 0.0 0.0 0.0
000070 00 00 00 00 00 00 00 00 00 00 00 00 00 00 00 00
       0.0 0.0 0.0 0.0
000080 00 00 00 00 00 00 00 00 00 00 00 00 00 00 00 00
       0.0 0.0 0.0 0.0
000090 00 00 00 00 00 00 00 00 00 00 00 00 00 00 00 00
       0.0 0.0 0.0 0.0
0000a0 00 00 00 00 00 00 00 00 00 00 00 00 00 00 00 00
       0.0 0.0 0.0 0.0
0000b0 00 00 00 00 00 00 00 00 00 00 00 00 00 00 00 00
       0.0 0.0 0.0 0.0
0000c0 00 00 00 00 00 00 00 00 00 74 33 3f 06 55 7d bf
       0.0 0.0 0.70098877 -0.9895786
0000d0 86 2f c0 bd 5c 34 6e bc 42 56 3d bf 6c 2b 8a 3f
       -0.093840644 -0.014538851 -0.73959744 1.0794501
0000e0 d7 6c 3b 3f 47 e7 12 bf 6c f4 9a bf f8 c9 9b bc
       0.7321295 -0.5738415 -1.2105842 -0.019017205
0000f0 58 67 86 3e 8a 87 e7 bf cd 90 49 bf 18 25 fc bf
       0.2625072 -1.8088238 -0.78736573 -1.969882
000100 fe 0f 01 3f b0 ae 97 bf c9 f0 a8 bf 83 8d a4 3f
       0.5041503 -1.1850185 -1.3198482 1.2855686
000110 fe 69 06 3f 29 ad a9 3f 03 9f 26 3f a7 dc e3 be
       0.5250548 1.3255969 0.6508638 -0.44504282
000120 2f 4f 08 3f 42 41 fe be d5 0a 1c 3f a4 0a ab 3e
       0.53245825 -0.49659163 0.6095403 0.33406556
000130 ee 85 e5 3d 44 ed cf bf 4c 53 de bf 10 30 21 bf
       0.11207186 -1.6244283 -1.736917 -0.6296396
000140 a9 ec 49 bf 1c 5f 1e 3f 8b 6f 9d bd eb 86 02 c0
       -0.7887674 0.61863875 -0.07687291 -2.0394847
000150 6f 8c c2 3e 2a 07 84 be 80 a1 9e 3f f2 2b 3e bc
       0.37997767 -0.25786716 1.2393036 -0.011607157
000160 9f 2a 01 bf 52 da 8d be 5b 56 e0 3f 29 d7 9a bf
       -0.5045566 -0.27705628 1.7526354 -1.2096912
000170 25 9c 19 3e b3 29 c2 bf 90 40 14 c0 60 9c 5b 3f
       0.1500097 -1.5168976 -2.3164406 0.85785484
000180 da 7c fd be f1 f1 58 3d d3 fc f6 be d9 36 b8 bf
       -0.49509317 0.05296511 -0.48239765 -1.4391738
000190 7c 0a f7 3e dd a5 43 be e3 dd e6 bc 8c 9d f8 3e
       0.48250186 -0.1910624 -0.028181976 0.485577
0001a0 b8 e0 be be 86 21 40 3f 03 6c a0 3f 34 15 51 be
       -0.37280822 0.7505115 1.2532963 -0.20418245
0001b0 54 e3 8f bf d3 74 b8 be b9 e8 7d 3e d3 79 0f bf
       -1.124125 -0.3602663 0.24795808 -0.56045264
0001c0 a0 96 a1 be f1 74 b3 bf 54 23 5e 3e 87 d4 4a bf
       -0.3156023 -1.4020063 0.21693164 -0.7923054
0001d0 40 f8 67 bf 5d a5 e8 3f 80 e7 2e 3e b2 2c 4b 3f
       -0.90613174 1.8175465 0.17080498 0.79365075
0001e0 a7 a8 a2 3e 11 79 b9 be 71 e5 22 3f 78 71 1e 3f
       0.31769297 -0.3622518 0.6363135 0.6189189
0001f0 27 31 5c 3f c6 ab 11 3f 5b 49 36 3e 7b a0 c3 bf
       0.860125 0.5690273 0.1780142 -1.528335
000200 3e c1 a8 bf 9f 16 64 be 59 b1 b8 be f1 f5 b7 3e
       -1.3183973 -0.22274254 -0.36072806 0.35929826
000210 7c 53 37 bf f5 2d 86 bf b6 a9 30 3f ed c4 1b bf
       -0.7161176 -1.0482775 0.6900896 -0.6084736
000220 2b 10 29 3f d1 86 07 bd dd 06 a1 be 07 e0 e7 be
       0.66040295 -0.033087555 -0.3145055 -0.45288107
000230 ae a9 34 3f b4 8b 6a bf 8d d8 b2 3e 85 98 a6 bf
       0.7057141 -0.9161942 0.3493084 -1.3015295
000240 7b 5a 90 bf 07 77 ec 3d 3a da 8d bc c1 09 03 3e
       -1.1277612 0.1154614 -0.017315973 0.1279669
000250 ee 36 c3 be 62 0e a6 bf 22 6e 86 3e 83 c6 06 bf
       -0.38127846 -1.2973139 0.262559 -0.52646655
000260 26 5e 5b 3e 59 6c 35 3f 1c 6b 06 bf 4a a2 42 3e
       0.21422634 0.7086845 -0.52507186 0.19007221
000270 b0 4b a0 3f 54 6d 99 be 8e de 12 bf 19 f5 57 bf
       1.2523098 -0.29966223 -0.5737084 -0.84358364
000280 b7 df 87 ba ad 39 1f bf 69 6c 8b bd cd ca 93 bf
       -0.0010366355 -0.6219738 -0.06807787 -1.1546265
000290 09 b0 08 be e8 4f 11 bf 33 f0 27 bf 89 12 d3 3f
       -0.13348402 -0.5676255 -0.6560089 1.6490031
0002a0 ce 8d 18 3e c9 38 4e 3f 8e a3 40 3e f7 87 b6 be
       0.14897844 0.805554 0.18812391 -0.35650608
0002b0 41 16 55 3e ef 88 40 3f 04 93 11 3f bc bf 0c 3f
       0.2080927 0.75208944 0.56864953 0.54980063
0002c0 59 74 c9 be 90 ad c3 bf b4 99 91 bf 01 01 14 bf
       -0.3934658 -1.5287342 -1.1375031 -0.5781403
0002d0 55 3c ac be 82 81 a5 3e 6a 56 ee be e7 43 a6 bf
       -0.3363978 0.3232537 -0.46550304 -1.2989472
0002e0 dc a0 49 3f 54 ab f9 be 7c 32 fa 3d 74 b8 6e be
       0.78761077 -0.48763525 0.122166604 -0.23312551
0002f0 c1 21 66 3e e8 b5 7d be 34 8f 68 3f ad e8 64 bf
       0.22473814 -0.24776423 0.9084351 -0.89417535
000300 27 7d d0 3e 39 e0 89 bf 00 e7 0f bf c2 12 2d bd
       0.40720484 -1.0771552 -0.56211853 -0.042254217
000310 c7 aa cd 3e 42 39 38 be 81 3b 98 3e 05 2e 8e bf
       0.40169355 -0.17990592 0.29732898 -1.1107794
000320 14 13 20 be 9f 51 90 3c 6c 3a 20 3e 05 7b 94 3f
       -0.15632278 0.017617045 0.15647286 1.1600043
000330 cd f0 c7 3d b7 77 dd 3e de 00 b2 3f 91 4f 59 be
       0.09762726 0.43255398 1.3906515 -0.21221758
000340 39 f9 11 bf 2b c9 94 be ff 9f d0 3e b6 e7 01 bf
       -0.5702091 -0.2905973 0.40747067 -0.5074419
000350 af f0 98 3e 1a d9 78 bf d4 ba 43 be ad cc 0c bf
       0.29871127 -0.9720627 -0.19114238 -0.5499981
000360 a9 39 b3 3c 4b 77 de 3f b0 f3 9b 3d 41 15 dc 3e
       0.02187808 1.7380155 0.07614839 0.42984965
000370 97 5e ae 3d 75 7f 09 bf a1 ee 19 be 29 f5 65 3f
       0.08514135 -0.5371011 -0.15032436 0.8982721
000380 c4 6d 92 3e 0b 43 33 3f 35 31 5b be 50 3d d2 bf
       0.2859937 0.70024174 -0.2140549 -1.6424961
000390 74 c1 84 bf fc a8 02 bf 93 1e 41 bf 55 9c 66 3d
       -1.0371537 -0.510391 -0.7543728 0.056301434
0003a0 75 77 0b bf 4d f8 42 bf 25 68 8c 3f 82 c8 14 bf
       -0.5447915 -0.76160127 1.0969282 -0.5811845
0003b0 6a 6f f9 bd 6e 12 d6 be 9b 99 ca bd b7 c0 79 be
       -0.12179454 -0.41810936 -0.09892579 -0.24389921
0003c0 bf 9a 59 3f 5f 16 40 bf 1a 27 a0 3e d5 90 76 bf
       0.8500175 -0.75034136 0.31279832 -0.96314746
0003d0 f5 0e 68 be 05 cf 7f 3d 96 97 8c bd 53 4c ab be
       -0.22661956 0.06245329 -0.0686485 -0.33456668
0003e0 8c 58 cb 3d 63 7f 93 bf d7 ed ab be a6 99 3e bf
       0.09928998 -1.152325 -0.33579895 -0.744532
0003f0 63 d6 44 3d 92 cd 87 3f c8 97 bd 3d bc b4 e2 3e
       0.048056018 1.060961 0.092574656 0.44278514

attention_layernorms.0.weight f4 [50]
000000 75 f3 91 3f 5b 9b 69 3f c7 d8 82 3f b8 68 09 3e
       1.1402422 0.9125268 1.0222405 0.13418853
000010 31 92 32 3f e0 65 7a 3f 46 c0 fa 3e ce 68 a3 3f
       0.6975432 0.978117 0.48974818 1.2766359
000020 d5 e2 6a 3f 0a 82 92 3f b8 ae 74 3f 87 64 91 3f
       0.9175237 1.1445935 0.955791 1.1358804
000030 d2 55 a7 3f bf 40 7b 3f d5 26 8c 3f 5e 98 65 3f
       1.3073065 0.9814567 1.094935 0.8968562
000040 88 c9 a8 3f 05 75 b1 3e 6a bf a5 3f fa c9 9a 3f
       1.3186502 0.3465959 1.294904 1.2092888
000050 d7 61 72 3f dd ec 88 3f 01 3c 93 3f a5 f2 3f 3f
       0.9468054 1.0697285 1.1502687 0.7497962
000060 29 1e 87 3f e6 60 8d 3f 6d 3e a5 3f 99 50 04 3e
       1.0556079 1.1045196 1.2909676 0.1292137
000070 e4 6e 7f 3f 82 85 69 3f 1a 26 ab 3f 38 0b 46 3f
       0.9977858 0.9121934 1.3371003 0.7736087
000080 5d 9c 8b 3f ef 42 94 3f 3a 44 9e 3f 0f 68 21 3f
       1.0907093 1.1582927 1.2364571 0.63049406
000090 5b 9b a2 3f 88 6a 86 3f 48 f6 88 3f 92 0f 90 3f
       1.2703661 1.0501261 1.0700159 1.1254752
0000a0 0b f3 93 3f 82 9b 81 3f d6 7c 90 3f d3 ef 72 3f
       1.1558546 1.0125582 1.1288097 0.9489719
0000b0 4c 84 9b 3f 35 0a 97 3f 79 df 98 3f 89 a4 97 3f
       1.2149749 1.179999 1.1943198 1.1847087
0000c0 bc 1c 95 3f a0 fa e6 3e
       1.1649394 0.45113087

attention_layernorms.0.bias f4 [50]
000000 40 69 23 3b 9d 0e 5c be e6 7d 9b bd 71 f6 25 be
       0.002493456 -0.2148995 -0.075923726 -0.16207291
000010 88 19 f8 be 1d 1d 83 3e 6a ad 06 3f 2c 88 6c 3c
       -0.4845698 0.2560815 0.5260836 0.014436763
000020 b5 c9 c5 be ed b3 43 3e b8 26 5a 3e c0 8c d4 bd
       -0.38630453 0.19111605 0.21303833 -0.103784084
000030 27 48 05 be 71 dd 09 bc 53 15 e9 3d 58 b0 28 be
       -0.13015805 -0.008414612 0.113810204 -0.1647352
000040 91 8b 6f be 52 3f 52 bf c4 7b 2b 3f 67 b7 74 3e
       -0.23393084 -0.8212787 0.66985726 0.23898087
000050 bc 06 79 3e 5c a6 c8 3e 49 8d 22 bc ad 4c 52 3d
       0.24318975 0.39189422 -0.00992138 0.051342655
000060 19 33 0b 3d 94 3e 06 3e cd 16 0a bc 4c 62 e8 bd
       0.033984277 0.13109809 -0.008428288 -0.11346874
000070 ff aa 9c 3d d2 83 69 3d ec ce 13 ba 7d b8 c9 bc
       0.076498024 0.05701048 -0.0005638439 -0.024624104
000080 4f 8d a0 bd 8c 80 41 be ba bb ba 3d e4 d9 53 3e
       -0.078394525 -0.18896693 0.09117837 0.20688587
000090 99 25 b7 3e f1 08 4a 3e 9a e1 a6 bd b1 cb 04 3e
       0.35770872 0.19729973 -0.08148499 0.12968327
0000a0 19 ea 99 3d ec 09 9d 39 13 43 da 3d 71 a8 ba be
       0.07515354 0.00029952766 0.10657325 -0.36456636
0000b0 00 72 1f bb b8 dc 88 3e 98 4a 2e be 1e 5e 65 3c
       -0.0024329424 0.26730895 -0.17020643 0.01399949
0000c0 ca cc da be 89 01 84 be
       -0.42734367 -0.2578242

attention_layernorms.1.weight f4 [50]
000000 2d 2b 40 3f df 90 3f 3f 2a 46 5f 3f 89 a8 ee 3e
       0.7506588 0.7483043 0.87216437 0.46612957
000010 3d c7 19 3f 76 1f 89 3f 92 d4 96 3e eb fe 5f 3f
       0.6006964 1.0712726 0.29459053 0.8749835
000020 5d c4 5a 3f 4d 96 2f 3f 6e 24 48 3f 7d 39 57 3f
       0.85455877 0.68588716 0.7818059 0.84072095
000030 a4 fb 65 3f ab 68 3c 3f f5 58 81 3f 75 c5 47 3f
       0.898371 0.7359721 1.0105273 0.7803567
000040 f2 e0 3b 3f 64 1f 49 3e 16 07 2a 3f 64 64 42 3f
       0.73390114 0.19640881 0.6641706 0.75934434
000050 a4 08 37 3f ab 6b 25 3f 23 3e 0e 3f 3b 78 08 3f
       0.7149756 0.64617413 0.55563563 0.5330846
000060 d3 19 5d 3f 2b 51 31 3f 00 ef 9c 3f 18 99 65 3e
       0.8636753 0.6926448 1.2260437 0.22421682
000070 8f 06 e1 3e 1c bd 0e 3f 03 b3 80 3f c0 6b fb 3e
       0.43950316 0.5575731 1.005463 0.49105644
000080 76 9f 40 3f 03 1a 71 3f 90 b7 4b 3f 37 d8 96 3e
       0.7524332 0.94180316 0.7957697 0.29461834
000090 b8 2c 58 3f ad e2 4b 3f 0c 63 5f 3f 87 62 17 3f
       0.84443235 0.79642755 0.8726051 0.59134716
0000a0 92 54 42 3f 49 89 4a 3f 58 ef 92 3f ed 17 34 3f
       0.75910294 0.7911573 1.1479292 0.7034901
0000b0 8a d7 0a 3f 91 b7 7f 3f d8 5f 82 3f e8 39 0b 3f
       0.54235137 0.99889475 1.0185499 0.5438523
0000c0 36 ad 84 3f da 45 08 3f
       1.036536 0.53231585

attention_layernorms.1.bias f4 [50]
000000 32 1e 55 bd e5 9b 0a be de 2c 8f 3d 2a 12 2b 3e
       -0.05203075 -0.13536032 0.069909796 0.16706148
000010 8f 23 53 3e 05 38 d7 bd 14 1e 0f bf e8 c3 5b bd
       0.20619033 -0.10508732 -0.5590527 -0.053653628
000020 61 7e 9e 3e 08 d8 a3 3d 76 b9 e6 bd 08 84 93 3e
       0.30955794 0.08000189 -0.112658426 0.2881167
000030 c7 34 66 be 20 d0 e3 3d 8b d2 b0 3d 76 f2 12 bd
       -0.2248107 0.11123681 0.08633908 -0.03587576
000040 8b ab 0c be f9 cf 21 bf 3a 03 a1 bd 6d d9 75 bc
       -0.13737313 -0.63207966 -0.078619435 -0.015005452
000050 5d 8f d2 bd ae 5d 3c bd c6 18 9a 3b ff b5 40 be
       -0.102812506 -0.045987777 0.0047026603 -0.18819426
000060 e9 f1 a9 bd a7 8c dc be 88 e7 0b 3e a3 7e 86 3d
       -0.08298094 -0.4307606 0.13662541 0.06567123
000070 33 f2 67 3e 4c 74 de 3c 2a 74 4d 3e c4 d6 22 3d
       0.22650985 0.027155064 0.20063844 0.039755598
000080 30 d9 8c 3e 85 c0 5f 3e 16 c5 68 be fe 77 be 3b
       0.2750945 0.21850784 -0.22731432 0.005812644
000090 94 12 ff bd d7 bc 39 be aa d8 c8 bd ba c1 47 bd
       -0.12454715 -0.18138443 -0.098069504 -0.048768736
0000a0 9b 01 0f 3d 57 b1 4f 3e 0f 5b 87 be 02 c1 c2 3e
       0.03491364 0.20282494 -0.2643666 0.38037878
0000b0 07 5a 0f bd e6 ee d3 3d 24 41 56 bd 45 8e eb 3d
       -0.034997966 0.10348301 -0.052308217 0.11501745
0000c0 a5 cd 7a 3a 3e a5 06 3e
       0.00095673866 0.13148972

attention_layers.0.in_proj_weight f4 [150, 50]
000000 87 7a 17 3d 04 a0 83 bd 5c e5 0f 3d c6 5b ab be
       0.036982086 -0.06427005 0.035130844 -0.33468455
000010 8e e8 8c 3c 40 1a 5c bd 79 81 ea bd 5c ae d5 bd
       0.017200734 -0.05373597 -0.11450476 -0.10433647
000020 8e e3 de bc 32 8c 9d 3d 57 74 5f 3c db 32 81 3d
       -0.027208116 0.07692756 0.013638577 0.06308528
000030 7b 75 12 bd 10 c7 b0 3b e5 70 91 bd 16 ad 20 3e
       -0.03575657 0.005394824 -0.07101611 0.15691027
000040 fd d1 38 3d cc 4f 53 3e b3 49 bc 3d cc 89 e5 3d
       0.045122135 0.20635909 0.091937445 0.11207923
000050 26 2a a3 bd 1f d7 8c bc 80 d9 13 bd ed 49 3f 3c
       -0.079670236 -0.017192421 -0.036096096 0.01167534
000060 cd b1 ba bc 0b e1 5c bd b8 07 5e 3d 07 69 8f 3d
       -0.02278986 -0.053925555 0.05420658 0.07002454
000070 38 c6 ed 3c bd a2 25 3e b8 5c dc 3d 9f 08 b1 bc
       0.029025182 0.16175361 0.10759872 -0.021610556
000080 3f 66 f5 3d b8 7c 09 3d 2e 97 45 3d b1 c3 04 3e
       0.119823925 0.033566207 0.04823988 0.12965275
000090 8e 27 f5 bc a1 49 ca 3c 3f ba 9c 3d e9 b2 16 bd
       -0.029926088 0.024693312 0.07652711 -0.036791716
0000a0 d8 ec 6d 3d d4 42 b3 bd 14 73 9e 3d 98 fc 2a bd
       0.0580872 -0.08752981 0.07736793 -0.0417448
0000b0 fb b1 ac bc 19 b5 b6 3b 93 96 29 bd cd ab f1 bd
       -0.021080961 0.0055757877 -0.041403364 -0.118003465
0000c0 3d 94 c2 3d 0c 77 d7 3b 6a c5 c7 bd 46 17 dc 3c
       0.095009305 0.006575471 -0.097544506 0.026866566
0000d0 d8 ca 4e 3d f9 af 8a bd 7e 41 45 3d d8 63 ce bc
       0.050486416 -0.06771845 0.04815816 -0.025194094
0000e0 05 e1 c0 3e 5c b5 cc bb 3e d0 87 bd ae 57 86 3c
       0.37671676 -0.0062472057 -0.06631516 0.01639923
0000f0 92 85 84 bd 1d 04 0f 3d 61 18 56 3c 34 f9 01 bd
       -0.06470789 0.034916032 0.013067336 -0.0317318
000100 bf 53 60 3d 0a 3a 1c bd ad df 14 bc d7 f8 33 3e
       0.054767366 -0.038141288 -0.009086532 0.17575394
000110 40 85 47 bd 50 c3 a2 bd 5d 7e 91 ba 74 d3 dc bd
       -0.04871106 -0.07947409 -0.0011100281 -0.10782519
000120 ea 80 24 bd 65 33 04 3c 64 f0 d3 bb b9 29 98 3d
       -0.040162005 0.008068894 -0.006467866 0.07429833
000130 ec 05 2d bd 9f 3f 4d be 78 0f 92 3d bd b7 a2 bd
       -0.042241976 -0.20043801 0.07131857 -0.079452015
000140 66 d6 6b 3c 2c 9c ec bd aa ae 0c 3d 6a 9f 24 3c
       0.014394378 -0.11553225 0.03434626 0.010047773
000150 b8 59 4c 3d 64 7b 2a 3d 6f 1e c6 bd f9 bf b9 3c
       0.04989025 0.04162158 -0.096737735 0.022674548
000160 85 7a 1a bd 58 47 e3 bc 6d b6 70 bc 00 2d 03 3d
       -0.0377145 -0.02774398 -0.014691931 0.032025337
000170 7e fd 86 bc ab 2d 8d bd 97 1d 22 3c de c9 e0 bb
       -0.016478296 -0.06893476 0.00989475 -0.006860002
000180 f3 bb 62 3c c0 b0 30 3c 76 25 80 bd 58 90 30 3e
       0.013838756 0.010784328 -0.06257145 0.17242563
000190 11 9e 75 bd 36 9f 72 bc f8 02 04 3b ab d6 b6 3e
       -0.059965197 -0.014808467 0.002014337 0.35710654
0001a0 4f 8c b0 bd 0b 00 03 bd 00 c9 07 3e ca 40 42 bd
       -0.08620512 -0.031982463 0.13260269 -0.04742507
0001b0 f5 55 00 bd 75 0b 46 bd b5 ea a7 bd 23 b8 43 bd
       -0.031331975 -0.04835077 -0.08199064 -0.04778303
0001c0 a5 a3 9d bc 8f 75 1b bc 83 34 7d bd 47 ac 0c 3b
       -0.01924307 -0.009488477 -0.061817657 0.002146499
0001d0 68 2b 20 bd 3a 55 d5 bd 58 d7 0f 3a 6a d2 b6 bc
       -0.039103895 -0.10416646 0.0005487106 -0.02231713
0001e0 5a 5b e0 3b aa d0 52 bc a2 83 3a bd af d6 c2 bc
       0.0068468275 -0.012867132 -0.04553569 -0.02378401
0001f0 8c 68 43 bd 01 93 28 3c b3 eb cd 3c 99 c6 b1 3c
       -0.047707126 0.010288955 0.025136804 0.021701144
000200 2e a9 bf 3c 3b 76 8b ba b3 b8 ff 3c aa 82 27 bc
       0.0233961 -0.0010640094 0.031216001 -0.010224024
000210 f0 97 62 bd a4 75 3b 3c 4d d2 03 3d 15 6e 0a 3d
       -0.05532068 0.011441622 0.03218298 0.03379639
000220 41 f6 2e bd 1d 0a 26 3d f3 cb 3f 3c f8 a8 cf bc
       -0.042715315 0.04053699 0.01170634 -0.025349125
000230 80 ae ba bc 00 45 ff bc 01 32 23 bb 10 19 c3 ba
       -0.022788286 -0.031160831 -0.002490163 -0.0014884789
000240 cd 04 51 bc a1 da e4 bb e1 1d c1 bc b0 5c e9 3a
       -0.012757492 -0.0069840704 -0.023573818 0.0017804112
000250 79 63 89 bc 71 70 ca 3b d4 31 12 bd b7 64 79 bd
       -0.016771065 0.006177955 -0.03569205 -0.060887065
000260 eb 50 09 3c 10 05 38 3f 7f 8a c7 3d 11 c7 86 3c
       0.008381109 0.71882725 0.09743213 0.016452344
000270 25 9a 0e 3e be 75 c1 bd af f6 a3 bc 07 5f cb 3c
       0.13925989 -0.09446286 -0.020015089 0.024825586
000280 a5 58 8c bd 53 53 32 bd 1b e6 81 bd e9 69 e3 bd
       -0.06852845 -0.043536495 -0.06342717 -0.11104185
000290 bb c9 2e bd 48 88 a6 bd 73 72 00 bb 9c c3 30 3d
       -0.042672854 -0.08131462 -0.0019599467 0.043155298
0002a0 52 50 bb 3d 57 be 11 3d 64 5a 0a 3c a0 5f ae bc
       0.09146179 0.035581913 0.008444402 -0.021285832
0002b0 5d a6 51 3d 14 f5 23 3d e5 4e 35 3d a2 de ae 3c
       0.051184047 0.040028647 0.044264693 0.021346394
0002c0 ea 4a 2a bd a4 50 00 bf 90 c4 74 bc 4e 22 e1 bc
       -0.04157535 -0.5012305 -0.014939442 -0.027482178
0002d0 5f 97 86 bd 50 8a 15 3d cf 73 22 3d 85 b9 0f bd
       -0.065718405 0.03650886 0.039661225 -0.035089035
0002e0 c1 f8 19 bd b7 a3 69 bd 3b 57 c1 3d 49 b3 9f bd
       -0.037590746 -0.057040896 0.09440466 -0.07797868
0002f0 b8 0f 93 bd 59 7c e0 3c 90 c2 43 bc 67 71 ec bd
       -0.071807325 0.027403044 -0.011948243 -0.11545067
000300 a8 01 f4 bc d0 89 39 3d 11 eb 23 bc b1 13 95 3d
       -0.029785946 0.045297444 -0.010004775 0.072791465
000310 f9 46 ab bd 6a 6a 2e 3c f4 1c 7d bd 03 bc eb 3c
       -0.08363146 0.010645488 -0.06179519 0.028776174
000320 5d 0d d7 bb e8 d5 92 bc 1b 84 61 bc af b5 82 bd
       -0.0065628723 -0.017924264 -0.013764407 -0.0638231
000330 03 11 10 bd be a3 a0 bc ee cc bf bc 5e ab bf 3a
       -0.035172474 -0.019609328 -0.023413148 0.0014623215
000340 ff 49 13 bd d5 3f 04 3b f2 b9 6e bc 99 e1 7f bc
       -0.03595924 0.0020179648 -0.0145707 -0.0156177515
000350 8c 5d 87 bb 62 de 0f 3c 3b 46 1d bc 8b e8 49 bc
       -0.0041310247 0.008781048 -0.009599264 -0.012323509
000360 46 c6 8c bc a4 38 a4 bd 6c ae 49 bb 66 f6 b4 bc
       -0.017184388 -0.08018616 -0.003077413 -0.022090148
000370 08 8d cd bc cd ab 67 bb 9c e3 c4 bc ed 0c 81 b9
       -0.025091663 -0.0035350204 -0.024034314 -0.00024614428
000380 b2 35 81 bb 86 8e 36 bc 14 10 c9 bb 41 d8 1f bd
       -0.0039431686 -0.011142379 -0.00613595 -0.039024595
000390 e4 61 91 bc 75 d7 29 bd b4 a2 78 bc 2b ee bb bc
       -0.017746873 -0.04146524 -0.01517551 -0.022940716
0003a0 25 62 0f 3a e3 0d b6 bc cf 74 89 ba f3 d2 00 bd
       0.0005469642 -0.022223419 -0.0010487082 -0.031451177
0003b0 b1 16 9f bb b0 43 6e bc 82 54 8a ba 26 c5 de 3b
       -0.004855 -0.014542505 -0.001055375 0.0067984043
0003c0 a9 f7 80 bc 2b d6 89 bc a3 ca 95 bc ca 6b 59 bc
       -0.015743094 -0.016825756 -0.018285101 -0.013270328
0003d0 1b e6 a8 bc 7f 4b 2c 3c 5d f3 a9 bc 8a 4a db 3a
       -0.020617535 0.010516047 -0.020745927 0.0016730588
0003e0 f5 6e fd bb b6 4c 04 bd 52 9e 3f 3c 09 67 c6 bd
       -0.0077341744 -0.03229972 0.011695461 -0.09687621
0003f0 a4 60 4e 3b 5f d7 25 3f 99 d5 a1 3d 2a 70 3e bd
       0.0031490708 0.64781755 0.07902069 -0.046493687

attention_layers.0.in_proj_bias f4 [150]
000000 34 f8 e0 3d da 83 85 3e 90 ce 58 bd ce 45 21 3e
       0.10984841 0.26077157 -0.05293137 0.15749285
000010 d2 88 d4 bd f4 ad 89 be c1 c1 9f be 00 b0 81 be
       -0.10377659 -0.26890528 -0.3120251 -0.2532959
000020 8c 76 14 3f 84 73 f3 bc 58 51 6f bf 26 72 ea bd
       0.5799339 -0.029718168 -0.93483496 -0.11447553
000030 d4 ee 49 be 0c 1f 29 bf d6 75 10 be bf 60 6f 3f
       -0.19720012 -0.66063 -0.14107451 0.93507
000040 a4 3e b2 3f 31 52 8e bd 0a f2 3d bd 8a a4 82 bf
       1.3925366 -0.069492705 -0.046373405 -1.0206463
000050 d4 85 df be 21 84 32 3d c2 c8 c6 bc 04 c8 c9 3d
       -0.4365679 0.04358304 -0.02426565 0.09852603
000060 62 ab 52 3e 44 26 2f bf 08 bd f4 bd 96 b4 54 3e
       0.2057319 -0.68417764 -0.11950117 0.20772013
000070 dd 0c c3 3e 4d a7 d0 ba 18 bd 66 be c1 a1 dc be
       0.3809575 -0.0015919 -0.22533071 -0.43092158
000080 db a0 87 be 6c 03 b7 3d 83 b8 01 be 42 44 99 3e
       -0.2648991 0.089361995 -0.12668042 0.2993489
000090 5d 75 34 bd cf 3e 1f 3c ed 7e b2 be 3e c7 60 3e
       -0.04405724 0.009719565 -0.34862462 0.21951005
0000a0 c1 dc 2c bf 4e b2 20 be 91 02 89 bd 31 59 2b bf
       -0.67524344 -0.15693018 -0.06689943 -0.6693297
0000b0 ed b8 d1 3b dd 5c 5a be 4c 92 df bc 5e e7 c4 be
       0.0064002187 -0.21324487 -0.02729144 -0.3845777
0000c0 00 be 2e be 95 3b 87 be ac dd 4f 3a 3f 70 06 39
       -0.17064667 -0.26412645 0.0007929455 0.00012821051
0000d0 fe 85 53 3a 2c 5e 09 3b c7 10 89 39 92 bc d7 ba
       0.00080689776 0.0020960672 0.00026143176 -0.0016459397
0000e0 58 92 03 ba cb 8c 2a 3a f6 61 20 39 bc 60 a2 b9
       -0.00050190603 0.0006505965 0.00015295282 -0.0003097112
0000f0 75 0b cf ba cf 89 13 ba a4 ac b3 b9 28 4a 15 bb
       -0.0015796261 -0.000562814 -0.00034270168 -0.0022779796
000100 dc c4 19 ba 95 b9 ab 3a 45 a8 c5 3a 1f 9e 3a ba
       -0.0005865821 0.0013101572 0.0015080055 -0.0007118899
000110 3c 41 90 b9 a7 9a b9 b9 14 3a 89 b9 11 e2 1d b9
       -0.00027514424 -0.00035401175 -0.00026173948 -0.00015056903
000120 19 21 84 ba cc 2d 2a ba 76 a8 d6 38 23 d1 a0 3a
       -0.0010080665 -0.00064918096 0.000102356935 0.0012269359
000130 c9 04 a4 39 3e de a9 39 e1 50 bc ba 39 53 70 3a
       0.00031284083 0.00032399775 -0.0014367366 0.00091676746
000140 0f bf 30 3a ae 59 ad b9 1e f9 27 b9 d8 09 b2 b9
       0.0006742337 -0.00033063948 -0.00016019164 -0.0003395814
000150 df 86 d4 3a 02 52 30 38 cf 98 32 ba e0 da 47 b9
       0.0016214511 4.2038046e-05 -0.00068129314 -0.00019059656
000160 0e 0d 07 3a 61 9c af ba af 21 7b 3a 40 93 03 3a
       0.00051517866 -0.0013398045 0.00095799094 0.00050191954
000170 d0 c1 cb b9 ab ff 98 39 45 29 cc 39 0e f8 81 ba
       -0.0003886358 0.00029182187 0.0003894066 -0.0009915845
000180 19 a2 a2 b9 fc 16 1a ba 0d bc c7 39 f5 52 1a 3a
       -0.0003101982 -0.0005878059 0.00038096347 0.00058869954
000190 0c 5f 68 3e c7 d7 5e be 4f be 98 3e c3 9d dc bd
       0.22692508 -0.21762 0.29832694 -0.10772278
0001a0 83 71 cb 3e 8e 99 75 3d 25 9b f5 bd 15 fc 5b be
       0.3973504 0.059960894 -0.11992482 -0.2148288
0001b0 f7 59 05 3e 1e d1 43 3e 33 0d 26 3e b6 7a a4 be
       0.130226 0.1912274 0.16215973 -0.3212487
0001c0 04 55 a9 3d 77 0d f6 3c e8 57 04 3f f0 24 10 3e
       0.082681686 0.030035717 0.51696634 0.1407659
0001d0 59 a4 18 3e bc c2 c9 3d fa b3 4e bf 58 db c0 3b
       0.14906444 0.09851596 -0.8074337 0.005885523
0001e0 78 03 8e 3c 99 c2 3d 3e 2c 65 6c 3e 35 30 3a 3e
       0.017335638 0.18531264 0.23085469 0.18182452
0001f0 df 88 a7 3e c7 d5 0e 3d 9f 8b 0b 3d fc 46 95 bd
       0.32721612 0.034871843 0.0340687 -0.0728893
000200 b7 cd 7b 3a 89 41 f8 3e 46 21 98 be 39 40 b7 be
       0.0009605544 0.484875 -0.29712886 -0.35791185
000210 36 60 66 3d 22 c8 b2 3e cd b1 2e bd 55 22 80 3d
       0.056244098 0.34918314 -0.042650033 0.06256548
000220 bc 6f d3 3d 98 8f bd be 21 9c 54 3d 6d ba f1 3d
       0.10324046 -0.37023616 0.05190671 0.11803136
000230 6e 8d c7 3e 22 c8 97 3e 44 6a 1f be a1 bb 3b 3e
       0.3897509 0.29644877 -0.15567881 0.18333293
000240 68 31 f0 bd 05 f4 9a bc 81 e6 b4 3e bf aa 09 be
       -0.117281735 -0.018915186 0.3533211 -0.1344404
000250 78 1f 9b bd 7a f1 e6 be
       -0.075743616 -0.45106107

attention_layers.0.out_proj.weight f4 [50, 50]
000000 88 26 b0 bb 02 73 80 3e 11 ac 72 be a7 48 7f 3d
       -0.005375687 0.25087744 -0.2369845 0.062325146
000010 de c6 1c bd 1a 4c 73 bd 24 8c f0 bd 5d b0 fa 39
       -0.038275592 -0.059398748 -0.1174548 0.00047815117
000020 1e 6c 10 bf f7 a9 7e be d7 cb bc bb c6 69 49 3e
       -0.56414974 -0.24869524 -0.0057616043 0.19669256
000030 5e 6e 11 be 7b ea e9 bd be 02 4e be 8d 3d ea 3d
       -0.14202258 -0.11421677 -0.20118234 0.11437521
000040 ed 49 92 bd 48 b3 67 bc dc cf db 3d 6d 0f d7 3c
       -0.071430065 -0.014141865 0.107330054 0.026252473
000050 a7 42 b9 bd d7 f0 e5 bc eb e6 83 be 2a 6b 16 bd
       -0.09045916 -0.028068943 -0.25762114 -0.036723293
000060 c9 9e 65 be 00 5b e3 3d d0 3d 06 be 1d 16 1b be
       -0.22423853 0.11101341 -0.13109517 -0.15145154
000070 72 ee f0 bd 59 a3 85 3d ee 2b ab bd 28 e7 49 3e
       -0.1176423 0.06525297 -0.08357988 0.19717085
000080 70 94 c1 3d 78 05 05 be 80 05 52 be d5 e3 15 3e
       0.0945214 -0.12990367 -0.2050991 0.14637692
000090 3f 0e 1f 3e 7b 94 be 3c 71 8d 25 be a6 47 45 3d
       0.15532778 0.02326416 -0.16167237 0.048164032
0000a0 93 91 31 be e7 f6 9c be 69 c9 7a bc d6 00 fc 3d
       -0.17340688 -0.30657122 -0.015306809 0.12304847
0000b0 ae 2c 87 3d 80 38 a3 be 21 80 20 bd c8 d8 04 3f
       0.06600319 -0.31879044 -0.039184693 0.5189328
0000c0 34 71 68 3d bb c4 7f 3e d9 c6 ea bd de 1b c1 bd
       0.056748584 0.2497739 -0.114637084 -0.09429143
0000d0 d3 25 1e bf e7 44 bd be 43 86 95 bd 05 05 91 3e
       -0.61776465 -0.3696663 -0.07300999 0.28324142
0000e0 61 42 ba be d3 62 96 3d f5 92 da b9 58 57 fb be
       -0.36378768 0.07343068 -0.00041689692 -0.49090075
0000f0 5d af 0f bd 0a 33 54 bd 2c c7 46 3e 59 de ce bd
       -0.03507935 -0.051806487 0.19411916 -0.10101003
000100 a0 03 16 3e 02 38 af bd 6a 43 d0 3d 10 6d b8 bd
       0.1464982 -0.085556045 0.10169108 -0.09005177
000110 17 3a 51 be ae 54 7c bd 68 6f cf 3c 9e c5 c4 3e
       -0.20432316 -0.061604194 0.025321677 0.3843202
000120 c3 46 2d bd df 5b 2c be ec 1d 5a 3e f0 60 da 3d
       -0.04230381 -0.16831921 0.21300477 0.106630206
000130 24 35 69 3e 8b 5e ac 3d 44 4e cc 3d 47 e5 db 3e
       0.22774178 0.0841647 0.099758655 0.42948362
000140 88 1d 4e be 0f 04 89 be a5 eb 89 be b0 67 4a be
       -0.20128453 -0.2676091 -0.26937595 -0.19766116
000150 e9 c3 0c 3e 86 22 95 3e 6f 09 d4 3e b6 91 81 be
       0.13746609 0.29127902 0.41413447 -0.2530648
000160 ee 90 8a bd 94 93 8e bd 09 2f b6 3e c1 49 3f bd
       -0.067659244 -0.06961742 0.3558276 -0.046701197
000170 6d c7 27 3e e5 04 5b 3e 9b f2 8c be b0 99 f4 3e
       0.16384669 0.21388586 -0.27528843 0.47773504
000180 77 33 36 3e 5a 87 38 be 1d 28 83 3d 24 b9 4f be
       0.1779307 -0.18020383 0.064041354 -0.2028547
000190 6d 8a cd bd 10 19 99 be f4 fa 74 be c7 41 6c bd
       -0.10036168 -0.29901934 -0.23923856 -0.057679918
0001a0 ab 6e 3b bd f7 19 54 3e 50 ce ce bd c4 c5 90 3d
       -0.045759838 0.2071303 -0.10097945 0.07068971
0001b0 fc 79 18 3b 02 71 0b bd 10 80 6d 3d 6c d1 e5 3e
       0.0023266068 -0.03404332 0.057983458 0.4488634
0001c0 de 6f 54 3e 0f 79 1f bd e6 b1 7c be ea 44 9a 3d
       0.20745799 -0.03893381 -0.24677238 0.075326756
0001d0 c3 69 8f 3d 92 45 b9 be 86 35 7d 3e 70 0d d7 bd
       0.07002594 -0.3618589 0.24727449 -0.1050061
0001e0 b7 b3 05 be fb c6 37 3d 86 92 80 3d 02 4e db 3b
       -0.13056837 0.044867497 0.06277947 0.006692649
0001f0 d2 72 5c be 4b 55 82 be 5f 85 19 3d 67 0e 5a 3d
       -0.21528175 -0.25455698 0.03748071 0.05323639
000200 b2 fa 06 be 17 2b 0d bd 5f 03 4f 3e 7d ce 9b be
       -0.1318157 -0.03446492 0.2021613 -0.30430976
000210 e8 e5 c3 bd 45 6b 2e be e9 26 62 be 26 64 4e 3e
       -0.095653355 -0.17033108 -0.22085156 0.20155391
000220 af 15 26 3e f6 b9 13 3e e3 df a6 bc 1e 20 a0 bc
       0.16219209 0.14426407 -0.02037043 -0.019546565
000230 d1 26 40 be d8 e6 7e bd 92 c0 95 bd 73 53 99 bd
       -0.18764807 -0.06223187 -0.073121205 -0.0748662
000240 a7 29 0a be e7 21 72 3d a4 59 a1 3d 6a c9 48 be
       -0.13492452 0.059114363 0.07878426 -0.19608083
000250 c1 49 b0 bd b9 a8 b6 bb 9c 7b 60 bf 1d 35 18 be
       -0.086078174 -0.0055743125 -0.8768861 -0.14864011
000260 de 00 4b bd 24 da b7 bd 6f 0d d7 3e 07 d6 d4 be
       -0.049561374 -0.08977154 0.42002437 -0.4156954
000270 42 cb d0 be 7c 46 88 3e a5 26 77 3e 04 2c 13 bf
       -0.40780073 0.26616275 0.24135835 -0.5748904
000280 69 97 e4 be 50 d3 4e be 53 59 a0 3e e4 91 5b 3e
       -0.44646767 -0.20197797 0.3131815 0.21442372
000290 9a 57 4d 3e 94 49 93 3e 6a 8b 2a be 72 d1 15 be
       0.20052949 0.28767073 -0.16654745 -0.14630678
0002a0 f1 af d6 3d 86 64 39 be a5 0b df bc 1e 36 b0 3d
       0.10482777 -0.18104753 -0.027227232 0.08604072
0002b0 d4 b9 12 be 9c 22 09 3f f5 21 b4 be 3f 3a 75 be
       -0.143287 0.53568435 -0.35182157 -0.23948
0002c0 19 ba a1 bd 2f 51 2e 3e 83 df f6 3d b4 df ae be
       -0.078968234 0.17023157 0.1205435 -0.34155047
0002d0 61 0b b2 bd b5 e6 12 3e 29 b3 0d 3f f9 dc 6e 3e
       -0.086935766 0.1434582 0.553515 0.23326482
0002e0 55 be 01 3d 16 7d 66 bf 3f b8 06 bf 70 1b 15 3e
       0.031675655 -0.90034616 -0.5262489 0.14561248
0002f0 cb c8 82 3e 62 49 56 3d 5c 64 2d be b6 02 8b 3e
       0.25543818 0.052316077 -0.16932815 0.27150506
000300 f8 89 e7 bc 95 dd b1 bd ce fa 26 3e 20 6b d8 bd
       -0.02826403 -0.086848415 0.16306612 -0.105673075
000310 1a 62 1e be 4e 6f 75 bd b4 26 82 3f c9 0a 13 bf
       -0.1546711 -0.0599206 1.0168061 -0.5743833
000320 84 e8 07 3d 41 52 c2 3e 5d f6 db 3d d6 aa e8 bc
       0.03318073 0.3795338 0.107403494 -0.028401773
000330 b1 a6 5a bc 6f f1 9a bc bb 1e e5 be f0 2f 49 3d
       -0.013345406 -0.018913953 -0.44750008 0.049117982
000340 e9 41 29 be 0b e6 d0 3e 19 0b c5 bb 05 de b1 3e
       -0.16529049 0.4080051 -0.006013286 0.347397
000350 7b 4c 08 3e fe 86 5b be 81 e3 94 3c ce 64 97 3c
       0.13310425 -0.21438214 0.018174889 0.018480685
000360 86 39 9e 3e f6 48 52 3d 23 cf ae 3b 18 29 8a be
       0.30903262 0.051339112 0.005334751 -0.26984477
000370 c7 98 b5 be 32 7e 87 be 52 b4 dc 3e ad 7d 9d be
       -0.35468122 -0.26463467 0.43106323 -0.30759946
000380 4d 7e b7 3e 37 f6 15 be 2f fd 6c 3e cd 44 90 3d
       0.35838547 -0.14644705 0.23143457 0.07044373
000390 f1 5a 2f 3e d5 46 b2 bc 6f 5b 38 be 7a 30 e0 bd
       0.17124535 -0.021762291 -0.18003629 -0.10946746
0003a0 55 41 41 3e 6f 80 05 3e 33 5a 74 be 9d d2 4e be
       0.18872578 0.13037275 -0.23862533 -0.2019753
0003b0 b9 75 8b 3e 56 c0 60 3e d6 74 3e 3e 08 5b 6a be
       0.27238253 0.2194837 0.18599257 -0.22886288
0003c0 f3 a8 4a 3e 96 4d 86 3e c7 90 91 3c 2f c9 c7 bd
       0.19791012 0.26231068 0.01776923 -0.097551696
0003d0 be f1 b8 3c 5f ad 4a 3e 57 a4 f5 bd 42 e3 5b bd
       0.02257621 0.19792698 -0.11994236 -0.053683527
0003e0 40 0a 2c bd 98 c7 b9 3d 65 a6 89 bd a5 9c 1d bc
       -0.042001963 0.090712726 -0.0672119 -0.0096198665
0003f0 16 81 f1 3c 8f 00 8b 3b 59 9d ae 3c 2b 26 ca be
       0.029480498 0.00424201 0.021315264 -0.39482245

attention_layers.0.out_proj.bias f4 [50]
000000 3e 26 af bc 40 94 6c be ad b8 11 be 88 07 98 be
       -0.02138054 -0.23103428 -0.14230604 -0.29693246
000010 91 f2 2d bf 29 d8 88 3e 58 87 13 3f d3 d9 7d bc
       -0.6794825 0.26727417 0.57628393 -0.015493828
000020 a4 fa cc be 1c d9 50 3e 8e 23 54 3e 74 6a 61 bd
       -0.40034974 0.2039532 0.20716688 -0.055033162
000030 25 04 47 be 8e 0b 01 3b c1 b2 26 3e 4b 51 46 be
       -0.19435175 0.0019690725 0.16279127 -0.19366948
000040 e2 d3 85 be 88 76 61 bf 72 86 3f 3f af ca 68 3e
       -0.26138216 -0.8807149 0.7481452 0.22733568
000050 3d fa 92 3e c5 5c 07 3f 18 83 12 bd 18 7d cf 3c
       0.28706542 0.5287593 -0.035769552 0.025328204
000060 15 d7 9c 3c 8d 2e cc 3d e9 55 13 3d 10 90 b4 3c
       0.019145528 0.09969816 0.035970602 0.02204135
000070 96 f0 72 3d be e4 da 3d a3 9b 01 3b d3 5d f4 bb
       0.059311472 0.1068816 0.0019776605 -0.007457474
000080 b0 6c 3e bd 27 bd 55 be f0 c3 cf 3c 84 c6 a2 3e
       -0.04649037 -0.20872937 0.025361985 0.3179208
000090 c3 d6 cf 3e dc f8 82 3e 5c 5f 60 bd 34 73 e0 3d
       0.40593538 0.2558049 -0.05477844 0.10959473
0000a0 b2 1d a4 3d 11 80 92 3d 68 0a d6 3d af e8 e4 be
       0.080134764 0.07153333 0.104512036 -0.44708773
0000b0 1e 06 97 3d fc b9 b1 3e 56 27 51 be 66 9a c2 3d
       0.07374214 0.34712207 -0.20425162 0.095021054
0000c0 06 d1 01 bf a7 f2 05 bf
       -0.5070957 -0.52323383

attention_layers.1.in_proj_weight f4 [150, 50]
000000 74 0c 51 3e bb e8 90 bd 2f f0 a7 be d7 90 a6 3e
       0.20414907 -0.0707564 -0.32800433 0.3253238
000010 92 0a b3 bd e2 2e 24 3d f5 47 ef 3e 15 7e 90 bd
       -0.087422505 0.040083773 0.46734586 -0.07055298
000020 57 b9 79 be cd 94 c5 bd 17 84 3c 3c 59 8b 65 bd
       -0.24387108 -0.09647522 0.011506102 -0.056041095
000030 5d 35 74 be 68 e5 7b bd 67 31 ca bc 28 84 c6 bd
       -0.23848481 -0.061498076 -0.02468176 -0.096931756
000040 c4 95 0b 3e d4 62 14 bc 8d 01 72 3d 2a a2 d9 bc
       0.1363135 -0.009056766 0.05908351 -0.026566584
000050 95 ea 14 be 19 04 1a 3e f7 cc 42 be d7 3e 25 be
       -0.14542611 0.15040626 -0.190235 -0.16137253
000060 ea ed 9a 3e 3c 74 6a 3e f7 76 0e bd 32 74 e2 3e
       0.3025964 0.22895902 -0.034781422 0.44229275
000070 46 00 f2 3e dc cf 0d 3e 3d 11 d9 bd 77 f4 1e be
       0.47265834 0.13848823 -0.10598991 -0.15522943
000080 40 b5 81 3d ea cc 8a bd 1a 43 26 bb 4e b1 18 3e
       0.06333399 -0.067773655 -0.0025369585 0.14911386
000090 bb 3d 03 3e fc 3d 06 bd 28 a6 ee 3c 71 c0 bc 3c
       0.12816517 -0.032773957 0.029131964 0.023040982
0000a0 6e 1e e1 3c b6 2f 93 be 11 03 0d 3e 65 7e 22 be
       0.02748033 -0.28747338 0.13770701 -0.15868528
0000b0 67 63 1d be 86 08 42 3e 42 2f 72 bd 29 c4 d4 3d
       -0.1536995 0.18948564 -0.0591271 0.10388977
0000c0 a2 65 f9 bd 12 e7 81 be f5 26 1a 3c e8 0a 83 bd
       -0.12177588 -0.25371605 0.009408702 -0.063985646
0000d0 76 d9 7b be b7 9a 45 be 1c 65 a4 3e a6 d8 f7 bd
       -0.24594674 -0.192973 0.3210839 -0.12101869
0000e0 89 c5 aa 3e cd 53 3f bd 5a 31 92 bc 01 6a 54 bd
       0.33353832 -0.046710778 -0.017845798 -0.051858906
0000f0 03 a8 16 be 83 05 a6 3c 47 a0 12 3e c5 1f a6 3d
       -0.14712529 0.0202663 0.14318953 0.08111528
000100 5c 03 06 3e 52 dc 81 bc 63 52 00 be 29 5e 78 be
       0.13087219 -0.015852127 -0.12531428 -0.24254669
000110 19 cf e4 39 82 38 1f bd 19 5c 90 3d 9c 55 37 be
       0.0004364185 -0.03887225 0.07048816 -0.17903751
000120 fc af a7 3e 1e ba 13 3d 33 74 99 bd 4d 14 23 3d
       0.32751453 0.036066167 -0.07492866 0.039814282
000130 fa f6 26 3d 13 1b 49 bf d4 af 83 3d 78 c9 74 3e
       0.04076288 -0.78556937 0.06430021 0.23904979
000140 18 79 51 bd 8c 9f 49 be f6 7c 47 bc fe f1 54 bd
       -0.051140875 -0.19689769 -0.012175789 -0.051988594
000150 2b 6d 22 3d 58 8b 07 3e ea 0c 08 3e 94 a3 0d 3d
       0.039654892 0.13236749 0.13286176 0.03457983
000160 10 17 f2 3d 98 02 9f bd 02 05 24 bd c3 1b a1 bd
       0.11820805 -0.077641666 -0.04004384 -0.07866623
000170 bb 8b 89 bd dc e6 d8 3e fc 67 04 3e 9d 7f fc 3d
       -0.067161046 0.42363632 0.12930292 0.12329028
000180 8f 5e cb bc 0d 4b 6f bd af c7 27 3e e2 5d 00 3f
       -0.024825362 -0.058421183 0.16384767 0.50143254
000190 88 11 06 be 50 db 0a 3c b7 c4 e9 bc 07 ee 45 3e
       -0.13092625 0.00847514 -0.028536184 0.19329081
0001a0 b9 45 92 3c 37 b4 e0 bb 04 0f e8 3e 83 41 08 be
       0.017855512 -0.006857421 0.45323956 -0.1330624
0001b0 bc 22 a2 3d fa f8 24 bd 49 35 5a bd ea cd 35 be
       0.07916781 -0.040276505 -0.053273473 -0.17754331
0001c0 12 d9 67 3e fd cf ab 3e a3 74 b8 bd 3a 05 20 3d
       0.226414 0.3355712 -0.09006622 0.039067484
0001d0 a9 c4 8a 3d 86 89 12 3e 52 2f 06 3e 98 c1 b5 bd
       0.06775791 0.14310274 0.13103989 -0.08874816
0001e0 c7 f8 1d 3e 07 40 00 be e9 36 71 bd 0e 3f d1 bd
       0.15426932 -0.12524424 -0.058890257 -0.10217105
0001f0 20 9a 04 bd a7 03 6b be c3 58 bd 3d 71 c5 70 3f
       -0.032373548 -0.22950612 0.092454456 0.9405127
000200 cb 1c 7f be f6 df a3 3e 7b 14 55 3c c5 bb b7 3a
       -0.24913327 0.32006806 0.013005371 0.0014017752
000210 54 1c 00 be e9 1d d2 bd 8c f7 c3 3d f6 5a 8b bd
       -0.12510806 -0.10259611 0.095687 -0.06804459
000220 04 01 76 be 58 bb 35 3c cf c3 6f bd 25 9c dc 3d
       -0.24023825 0.0110920295 -0.058536347 0.1077197
000230 29 77 fa 3d b8 6b 3e bc 88 bc 7f 3d a7 b2 db 3d
       0.12229759 -0.011622362 0.062435657 0.107274346
000240 e8 a4 30 3e 3c 7f 32 3c 9c 9f 6b 3c c5 92 f5 bd
       0.17250407 0.010894593 0.014381316 -0.11990885
000250 94 f8 05 3e 07 e5 e1 be 06 a9 a3 be c5 b8 95 3d
       0.13083106 -0.44120046 -0.31964892 0.073106326
000260 2c 39 6f 3d aa 57 c4 bb 65 16 a7 be 65 48 0c be
       0.058404133 -0.0059918957 -0.32634273 -0.13699491
000270 65 3e b2 3e 9f ee 47 3c c9 84 36 bd e4 71 1c be
       0.34813228 0.012202888 -0.044560228 -0.15277821
000280 1e e2 ab 3d 47 d0 f4 3c 8e 17 24 3e c5 de 36 3e
       0.08392738 0.02988447 0.1602461 0.17858417
000290 6c 4e cb 3d b5 65 1c 3e 89 92 0c be 4e d9 e1 bd
       0.09927067 0.15273173 -0.13727774 -0.11027776
0002a0 9b 78 dc 3a 19 02 3b 3d 36 ad aa 3d 0c 6a 69 3d
       0.0016820611 0.045656297 0.083338186 0.0569859
0002b0 06 b1 54 3e 5e 25 1f be e8 c0 b0 3b 5f 81 0d be
       0.20770654 -0.15541598 0.00539409 -0.13818882
0002c0 43 18 ff 3d 7c b1 80 be 55 ea 91 bd 06 a6 de bc
       0.124557994 -0.2513541 -0.071247734 -0.027178776
0002d0 ed 2a 15 3d a7 68 8f be 59 2b 44 3e ad 94 60 3e
       0.03641789 -0.2800953 0.19157161 0.21931715
0002e0 0d a6 33 3b 9d 71 2f 3e 54 83 38 3e c6 2a 02 3e
       0.0027412206 0.17133184 0.18018848 0.1271163
0002f0 d3 b1 4b 3e de d8 98 3e 42 47 fb 3c e2 75 db 3c
       0.19892053 0.29852957 0.030673627 0.02678961
000300 a1 e2 ce 3c 71 bf ef 3d cf 20 66 3e 79 27 f0 3c
       0.02525455 0.117064364 0.22473453 0.029315697
000310 a9 3f 2e 3e 17 5c ab 3d 36 13 fc bc 99 8f 20 3e
       0.17016472 0.08367174 -0.03077088 0.15679778
000320 36 00 86 3c 64 d7 b4 3d ca ab 39 bc 58 c1 50 3c
       0.016357522 0.08830145 -0.011332462 0.012741409
000330 d1 61 8e bb 9f 00 5c bd bd 32 d2 3e 49 d5 09 3e
       -0.0043451567 -0.05371153 0.41054335 0.13460268
000340 79 34 e3 3b 41 aa 1d be 90 47 fe 3d 46 41 f9 3d
       0.0069337455 -0.15396978 0.12415993 0.12170653
000350 eb b5 60 be 0c bb b1 3a 40 9a 1a bd 30 dd be bd
       -0.21944396 0.0013559773 -0.03774476 -0.09319532
000360 05 c6 d3 be 89 c5 8f bd a8 43 87 3d dc 6c b2 bd
       -0.41362014 -0.07020099 0.06604701 -0.087121695
000370 79 a5 5f be 99 33 4f be f7 c8 38 be 2b 6f 17 be
       -0.21840467 -0.20234527 -0.18045412 -0.14788501
000380 23 31 88 bd 66 8b 68 bd d0 26 8c 3d 3b a3 d3 3e
       -0.06649997 -0.056773566 0.068433404 0.41335472
000390 77 cb be be ea 1f df bd 6c ef 55 3e e0 c2 e0 bd
       -0.37264606 -0.10894759 0.20892113 -0.109746695
0003a0 be e2 fd bd db ff 97 bd 41 b2 56 bd 45 95 9d 3e
       -0.12396763 -0.074218474 -0.05241609 0.30777946
0003b0 4f d0 b0 bc 10 66 90 3e b9 31 49 3d 1b 75 1d 3d
       -0.021583704 0.28202868 0.049119685 0.03844176
0003c0 cd 59 af bb a9 bc c2 bd fb 34 7a bd 28 2f 6b 3e
       -0.0053512813 -0.0950864 -0.061085682 0.22967207
0003d0 11 ed b7 be 92 d0 02 3e 1b 64 a0 3d 19 13 55 bd
       -0.35923055 0.12774876 0.078315936 -0.052020166
0003e0 c3 2d 3c 3e 78 e5 63 bd 16 fb 86 3c 2e ab c2 bd
       0.18376832 -0.05563876 0.016477149 -0.09505306
0003f0 ad 10 5c bd cd 55 3a bf f5 f5 61 be 1c 3c 96 3d
       -0.05372684 -0.7278717 -0.22066481 0.07335684

attention_layers.1.in_proj_bias f4 [150]
000000 cc b3 b7 be 1f d4 e9 bd 6a a1 d0 3e ac 25 13 bf
       -0.35879362 -0.11417412 0.4074815 -0.5747936
000010 c4 72 32 be 7d 7d b8 bd ea f6 85 3d e9 d9 f4 bd
       -0.17426592 -0.0900831 0.06541236 -0.119556256
000020 e2 33 af 3b 5d 9c 9d 3e 9a 57 35 bf 42 28 39 bf
       0.005346761 0.30783358 -0.70836794 -0.72327054
000030 b0 8c 0b bc c6 47 18 3d 5a 74 9a bd c4 eb 40 bf
       -0.008517429 0.037177823 -0.075417235 -0.7535975
000040 0f 83 95 bd a9 c0 9c bd c3 81 05 3f e4 66 29 be
       -0.07300388 -0.076539345 0.52151126 -0.16543156
000050 18 ad 4b be 3a 9e bb 3e e3 c1 cf be 8a d3 df 3d
       -0.19890249 0.36644155 -0.4057761 0.1092902
000060 94 02 23 3d dd 39 72 3d f8 19 78 3d 27 e2 81 be
       0.03979738 0.059137214 0.06057164 -0.25367853
000070 b0 a5 93 3c 32 fa d0 3c 8b fa 38 3e b6 9c 37 be
       0.018023342 0.025509927 0.18064325 -0.17930874
000080 37 ba 0c 3e 98 37 37 3f 47 28 88 be 74 fa fa 3e
       0.1374291 0.71569204 -0.2659323 0.49019206
000090 f6 f4 fe 3e f4 70 fe 3e fc 78 be be ee ea a9 be
       0.49796265 0.4969555 -0.3720168 -0.3318705
0000a0 db d4 b4 3e 2d 9d a6 3e 8d 03 1e bf 03 f8 c9 3e
       0.35318646 0.3254179 -0.6172417 0.3944703
0000b0 c0 1b 54 bf b1 dd ff be 35 29 df be 3d cd 0f bf
       -0.82854843 -0.49973825 -0.43586126 -0.56172544
0000c0 a5 67 3c bf 44 58 27 3e c4 e0 0c 3d c2 ae 26 bc
       -0.7359565 0.16342264 0.03439404 -0.010173501
0000d0 c7 4a 9e 3c c9 fd 0a 3d ab 4d 89 3c 4a a7 2f bc
       0.019322766 0.033933435 0.016760668 -0.010721037
0000e0 21 42 a4 bc 56 f2 c4 3c 46 44 4a 3b 20 bd 4b bd
       -0.020051064 0.024041336 0.0030863448 -0.04974091
0000f0 e3 a9 1a 3d 94 27 03 3c 92 18 c8 3c 11 a6 ae 3c
       0.037759673 0.008005042 0.024425779 0.021319421
000100 6d f5 2e 3c 3c 97 97 3b 46 ed 84 3a d1 b2 28 bc
       0.010678631 0.004626183 0.0010141514 -0.010296539
000110 25 8b 0e bd 9d 0f 9b 3c f9 64 04 3d a7 e6 0e 3c
       -0.034800667 0.018928343 0.032322858 0.008721984
000120 3b f0 43 bb a1 89 ae 3c 98 b8 03 3c 57 a4 9b bb
       -0.0029897827 0.021305861 0.008039616 -0.0047498154
000130 1c d9 da 3c b0 2e 1f 3d 7f 20 06 3d a7 db b6 3b
       0.026714854 0.038862884 0.032745834 0.005580384
000140 dd f4 7a 3c fb dd 12 3d 27 62 f2 bc 26 d4 85 bd
       0.015317169 0.03585623 -0.029587818 -0.06534605
000150 ec 69 1d 3b c5 b6 d2 bb e0 c0 e5 bc 7a b4 28 bd
       0.0024019433 -0.006430479 -0.028046072 -0.04118774
000160 4e d3 8c 3c 61 00 c2 3b 50 a0 c7 bc 9e 64 e3 ba
       0.017190602 0.0059204553 -0.024368435 -0.0017348712
000170 84 5d 26 3d 6e 6a be bd 0e 77 83 3c 9e 67 f3 3c
       0.040616527 -0.092976436 0.01604798 0.029712494
000180 98 8f ba 3c 60 49 18 3d 87 20 dc 3c 37 f4 4c 3c
       0.022773549 0.03717935 0.026870979 0.012509397
000190 30 a8 07 bf 26 31 a5 3d d8 0a 3c 3e 11 25 4c 3d
       -0.5299101 0.08066015 0.18363512 0.049840037
0001a0 e0 b1 b7 3e 6c 01 f4 3d fc 90 08 bd 2e 44 34 be
       0.35877895 0.11914334 -0.033341393 -0.17604133
0001b0 b9 be 87 3d 68 46 ca 3d 5f 33 1d 3e eb d5 36 bd
       0.06628174 0.0987671 0.15351628 -0.0446376
0001c0 85 20 1c 3e 10 87 35 3d 33 90 eb be eb 6a e4 3d
       0.1524678 0.04431826 -0.46008453 0.111532055
0001d0 38 b2 52 3d 8e 0e 73 be 8e 6b ca bc 05 2d 53 3e
       0.051439494 -0.23736021 -0.02470949 0.20622642
0001e0 6b 75 4a 3e e6 dc 2c 3e 3a 8c c5 bb 66 36 a0 bd
       0.19771354 0.16881141 -0.006028679 -0.07822876
0001f0 1f 41 15 3d ee 8e b3 bc 61 e6 bb bd 11 3b 64 bd
       0.036439057 -0.02191874 -0.09174801 -0.055720393
000200 1f 21 c4 bc 4f cf c8 be 05 27 3d 3e 77 03 d2 3c
       -0.023941575 -0.39220664 0.18471916 0.025636418
000210 3d b3 93 3e 56 b9 10 3e f3 d9 ef 3d 82 db bf 3e
       0.28847685 0.141332 0.117114924 0.3747216
000220 aa 2f 79 3e b2 72 37 3e b5 ba 6e bc 65 10 dc 3d
       0.24334589 0.17914847 -0.014570882 0.107453145
000230 1e cb 9c 3e fc 91 1f be bd c7 a3 be d8 4c 9f 3e
       0.30623716 -0.15583032 -0.31988326 0.31113315
000240 a4 de ea bc b8 c7 62 be e1 82 32 3e 49 65 14 3e
       -0.028670616 -0.22146499 0.17432739 0.14491762
000250 d2 21 89 3e 96 2e 44 be
       0.26783615 -0.19158396
