ml-1m_default/SASRec.epoch=601.lr=0.001.layer=2.head=1.hidden=50.maxlen=200.pth (torch, 857835 bytes, 28 tensors)

item_emb.weight f4 [3417, 50]
00000000: 0000 0000 0000 0000 0000 0000 0000 0000
00000010: 0000 0000 0000 0000 0000 0000 0000 0000
00000020: 0000 0000 0000 0000 0000 0000 0000 0000
00000030: 0000 0000 0000 0000 0000 0000 0000 0000
00000040: 0000 0000 0000 0000 0000 0000 0000 0000
00000050: 0000 0000 0000 0000 0000 0000 0000 0000
00000060: 0000 0000 0000 0000 0000 0000 0000 0000
00000070: 0000 0000 0000 0000 0000 0000 0000 0000
00000080: 0000 0000 0000 0000 0000 0000 0000 0000
00000090: 0000 0000 0000 0000 0000 0000 0000 0000
000000a0: 0000 0000 0000 0000 0000 0000 0000 0000
000000b0: 0000 0000 0000 0000 0000 0000 0000 0000
000000c0: 0000 0000 0000 0000 98b5 8f3e 3403 953d
000000d0: 0c0a 80bf 6b73 41be 99ca 033e b4bd b8be
000000e0: 44a6 c93e da23 41bf 29d2 7a3f 4f0a dabd
000000f0: 7623 9f3f 9327 bebf 76c5 83be 5bf3 d9be
00000100: 6a1d b3bf b1ef cb3e 46bb 20bf f231 0a3e
00000110: aa0e a9bd 8794 dc3f 21c0 373d a26e 2a3f
00000120: 0513 bf3e b07d 2fbe 159d d4be e842 093f
00000130: e483 13bf 2dbb 873f 93cc 98bd c2d2 b23e
00000140: 5189 703e 9499 403e b9b2 403f 1e4f bcbe
00000150: 6322 113f 8471 4abf 838d 833f 67b1 393f
00000160: 794c cc3e a6bd 7cbf c0f6 0140 5925 9fbf
00000170: dc4a bd3f 5b72 803e d2d4 5cbe 570d b8be
00000180: ba3f 503f 093a 0abd 5262 86be 91da 5abe
00000190: 03f4 c5bf 7768 ff3e 83c5 cc3f b75f e43d
000001a0: a866 5a3f e810 1dbf 5156 c03f ddf0 333f
000001b0: c9b5 05be f4b8 54bf 987f 2b3e 72bd a43d
000001c0: 2c9c 79bf 9706 493e f931 ff3e d086 803f
000001d0: 45b4 c3bf eaab a53f fd75 0c3f d122 bc3f
000001e0: 5a5e 6cbe 723c 6e3f 9216 933f 9ac0 e93c
000001f0: 6f07 3d3f 7d5d e0bf 68d6 86be 2565 523e
00000200: 0644 813e 3635 983f 4bbf 023e 60fa cdbe
00000210: cf63 8dbe e7db 59bf fa20 e5ba 2b98 57bf
00000220: a296 573f c627 c73f 5588 383f 3fe9 3fbf
00000230: 4a43 03bf 5449 373d 99b5 833e 0500 163f
00000240: 83d7 3ebf 0baf 7a3f 17c3 e63d f011 f2bd
00000250: c719 5b3e 0d5d 92bf 6287 1cbf 3e4b 0240
00000260: 6069 453f 7c9a 46bf 139f 91be d930 c93e
00000270: 4b4f 08bf dc9e 29bf 3f7d a33f faf7 013f
00000280: 5669 553e 3703 e83d 9e48 70be a3e1 05bf
00000290: 1669 0fbf 4c9f 823e 9ffb 85bf 3828 16bf
000002a0: b0e1 c1bf 8a50 e43d 0c4a 64be 7ee4 893f
000002b0: 2bfa 7e3f 8776 3abf 8d45 583f 2ad0 d6bf
000002c0: 6b9d bebd 2998 c73f a34c 163f dc15 0e3f
000002d0: c58e 02c0 dafa d13e 67e8 ecbe abeb aebe
000002e0: 920d 10bf 8851 8ebf a10b e6bc 25be 1b3f
000002f0: 21ad 22bf cdf7 8abf 6ac1 8c3e c458 9bbe
00000300: 743a 80be 47c9 4fbe a6b9 91be 8e10 c0be
00000310: 82bd fbbe 8177 82bf f1bf 993f 1e56 dc3f
00000320: cb95 23bf 6bbf 4c3f 07f2 e8be 1813 de3e
00000330: 54ea 6abf 08d1 bebf 39c3 e33e f5fd c9be
00000340: b77e 6c3f c8f2 cb3e 0741 8d3f fb24 82bf
00000350: 6d82 eabe 3998 843e 02f4 81bf 8794 443f
00000360: f616 44bf 5938 113f 78f6 13bf fa13 0a3d
00000370: 5916 023f 5a45 7b3f 8e0a cd3e 817a 35bf
00000380: 719d 903d 823c 803e c9bf f3be 8c07 973f
00000390: 4164 2a3f 7189 1c3f 0d0d 95be 08e1 db3e
000003a0: d416 553f 32e9 3fbf 258d 923d dc90 adbf
000003b0: c7a2 5c3f 4795 1a3f 9400 4f3e 6f1f 77bf
000003c0: d5cd 413f 720b 08bf a251 4c3e 62db b53e
000003d0: a61d ba3d e79a 21bf d148 eabe 93fd a1be
000003e0: 0d68 f03e c1c7 58bf 8c80 de3f 31a2 04bf
000003f0: 2ce2 e13f f99a b2bf 2e58 803f 5994 6abf
0.0 0.0 0.0 0.0 0.0 0.0 0.0 0.0
0.0 0.0 0.0 0.0 0.0 0.0 0.0 0.0
0.0 0.0 0.0 0.0 0.0 0.0 0.0 0.0
0.0 0.0 0.0 0.0 0.0 0.0 0.0 0.0
0.0 0.0 0.0 0.0 0.0 0.0 0.0 0.0
0.0 0.0 0.0 0.0 0.0 0.0 0.0 0.0
0.0 0.0 0.28068233 0.072760016 -1.0003066 -0.18891685 0.12870254 -0.36082232
0.39384663 -0.7544533 0.9797693 -0.106464975 1.2432697 -1.4855827 -0.25736588 -0.42568478
-1.3993351 0.39831308 -0.62785757 0.13495615 -0.0825475 1.7232827 0.044860963 0.6657506
0.37319198 -0.1713779 -0.41526094 0.53617716 -0.57623124 1.0603997 -0.074608944 0.3492642
0.23489882 0.18808585 0.7527271 -0.36779112 0.56693095 -0.7907946 1.0277561 0.7253632
0.39902094 -0.9872688 2.0306854 -1.2433273 1.478847 0.25087246 -0.2156556 -0.35947677
0.8134724 -0.033746753 -0.26246887 -0.21372439 -1.5465091 0.49884388 1.5997776 0.11151069
0.8531289 -0.6135392 1.5026342 0.70289403 -0.13057627 -0.83094716 0.16747892 0.08043946
-0.97503924 0.1963142 0.49842814 1.0041142 -1.5289389 1.2943089 0.54867536 1.4698125
-0.23082867 0.9306098 1.1491263 0.028534222 0.7383947 -1.752853 -0.26335454 0.20546396
0.2524721 1.1891239 0.12768285 -0.40230083 -0.2761521 -0.8510117 -0.0017481141 -0.84216565
0.8421422 1.5559013 0.72083026 -0.7496528 -0.5127455 0.044747666 0.25724486 0.5859378
-0.74547595 0.97923344 0.11267679 -0.118198276 0.21396552 -1.1434647 -0.6114408 2.0358424
0.77113914 -0.77579474 -0.28441676 0.3929508 -0.5324599 -0.66258025 1.2772597 0.5076901
0.20840964 0.11328738 -0.23465201 -0.5229742 -0.56019723 0.2551216 -1.0467414 -0.5865512
-1.5146999 0.11148174 -0.22293872 1.0772855 0.99600476 -0.7283711 0.84481126 -1.6782277
-0.09307369 1.559331 0.5871069 0.55502105 -2.039964 0.41011697 -0.4627106 -0.34164175
-0.56270707 -1.1118631 -0.028081717 0.6083701 -0.63545424 -1.0856873 0.27491313 -0.3034116
-0.25044596 -0.20291625 -0.2846195 -0.3751263 -0.4916802 -1.019272 1.2011701 1.7213781
-0.6390044 0.7997958 -0.45497152 0.43373942 -0.91763806 -1.4907541 0.4448488 -0.39451566
0.9238085 0.39833665 1.103547 -1.0167536 -0.45802632 0.25897387 -1.015259 0.76789135
-0.76597536 0.56726605 -0.57797956 0.033710457 0.5081535 0.981527 0.40047115 -0.7089005
0.070612796 0.25046164 -0.47607258 1.1799178 0.66559225 0.6114722 -0.2911152 0.42945123
0.8323796 -0.749652 0.071558274 -1.3559833 0.8618588 0.6038403 0.20215064 -0.9653234
0.757047 -0.53142464 0.19953015 0.35518938 0.09087686 -0.6312699 -0.4575868 -0.31638774
0.46954384 -0.846798 1.7382979 -0.51809984 1.7647147 -1.3953544 1.002691 -0.9163261

pos_emb.weight f4 [200, 50]
00000000: 000c 4b40 bdfc 2dc0 c4f8 9bbf fe49 03c1
00000010: cec8 24c0 ff20 a840 e98a eec0 302d e43f
00000020: 32d4 5ac0 38e6 9ac0 76e7 4a40 e4c7 8ec0
00000030: bb5e 06c1 a165 80c0 5516 bb40 1093 eabf
00000040: 2b35 6bc0 f519 92c0 da61 54c0 461b 9c40
00000050: 507d f7bf 374d 7ec0 da51 813d 9a1c e7c0
00000060: 85a8 4f40 1674 afc0 44d9 da40 d905 18c1
00000070: 5b7c 6c40 53e6 cc3e 6d57 f6c0 b646 4a3f
00000080: 1597 6cc0 3a03 e1c0 b3a8 c940 f332 953f
00000090: 10dd b83d ede0 ab40 eb4a 2e41 30a9 8940
000000a0: 1dab 0840 7d27 e940 255a 813f aced 74c0
000000b0: 17e4 9040 1ca8 f440 e374 0d40 652c 37c0
000000c0: 67d1 27c0 c739 c7c0 9b05 4340 350c 02c0
000000d0: 324f 31c0 db76 abc0 a9ab 2ebf 5c06 2740
000000e0: 4a52 a8c0 2251 d13f 4cf3 58c0 f877 42c0
000000f0: e6ed 3f3f e0dc 51c0 239d cbc0 d865 31c0
00000100: 4007 4640 daf4 5fc0 cdea 5ebf 7550 83bf
00000110: 805b 53c0 e416 0740 3ff5 25c0 fe80 a0c0
00000120: dfc1 aebe 1db9 85c0 6f3c e23f daae 17c0
00000130: 7001 b740 f730 99c0 360b 453f 0e2c e9bf
00000140: 8559 9fc0 c3c1 ff3f 6e5a 7dc0 4c6a c8c0
00000150: 47cb 8c40 3ea8 0a40 4543 4fc0 8b3b 3d40
00000160: e85f d940 a2fe 2640 439c 623f 09f1 bc40
00000170: 7294 223d ec14 41c0 9dd1 4940 2e87 9640
00000180: d40f 0840 ddbd 0ac0 9906 85c0 6e70 5dc0
00000190: 846f f63f 7d80 19c0 e2ab 63c0 8cdc 87c0
000001a0: 2343 fcbe 5fc6 4f3e 166f 85c0 28e4 e23f
000001b0: adfc 17c0 7505 d9be 57c1 5f3f b3b5 5cc0
000001c0: a7c9 b7c0 2f59 92bf 55e1 1c40 4cf6 35bf
000001d0: 5bc6 71be 6be6 b03e 12b7 86c0 4a59 1240
000001e0: b89c 41c0 59a2 7ac0 6874 843f 16fc 44c0
000001f0: 682a 4c40 f8c8 d9bf 7c31 3140 d49e 93c0
00000200: 61b5 ae3f f7c3 18c0 a06e 8ec0 fefe c93f
00000210: aa11 20c0 3a79 b4c0 8661 bc3f aeb8 2a40
00000220: ade8 37c0 6a75 2540 6147 8340 cc37 4740
00000230: 396c c7be f01d a040 c6cb 123e 3ba2 8cc0
00000240: af70 8e40 e029 8440 4cf2 c33e 1e7f 32c0
00000250: a340 97c0 bb95 00c0 c4d2 ba3f b69b e83d
00000260: e5a6 6ec0 55ef 8fc0 4885 cbbf 07b3 33bf
00000270: 4423 3cc0 e9e3 1f40 792a 85c0 b529 963e
00000280: 4d9d e6bd 75d1 11c0 4d79 9bc0 37a8 d1be
00000290: 65e3 1540 15c7 9ebf da43 04bf 1b9c 2e40
000002a0: 66da a6c0 5bea a03e 4f22 69c0 d6ed 60c0
000002b0: 7f0a b2bf aa51 dfbf 7e59 cb3f 9513 79bf
000002c0: 8dfc 7a40 3a60 4dc0 6dff a73f 50a0 1bc0
000002d0: 0555 7cc0 c659 dc3f c70a 13c0 34e9 65c0
000002e0: d6d3 fd3f c23c 3640 3562 4fc0 16ce 103f
000002f0: f0d6 ff3f 658e 1c40 fbd0 efbf a796 7040
00000300: ed56 e5bf c9ce a8c0 6fcc 8340 8515 5440
00000310: ff6a 853f 0297 ffbd 93de 54c0 e670 85bf
00000320: 0eb7 2440 976a 3cbf 646c 73c0 ef86 07c0
00000330: dff6 40c0 f24e a5bf 7582 f9bf 9d40 4a40
00000340: 5c0f 1ac0 a6c6 57bf 152c bd3e c250 01c0
00000350: fdaf 83c0 68f4 0cbe 1b90 203f afcd 04c0
00000360: 87d9 983e 7449 9f3f 4cbd 4ac0 bce3 33bf
00000370: 0050 25c0 d2fe 95bf c4db 8cbf d19b 4f3f
00000380: d948 0040 2325 26bf 479f 5740 2a02 28c0
00000390: c200 353f aefb 43c0 4bff 32c0 0d60 3d3f
000003a0: f515 ddbf 1849 4ec0 ceee aa3e 6f56 6740
000003b0: 3b17 67c0 2e8a c73e 593c ec3f 9633 3d40
000003c0: f164 32c0 b665 8b40 ce4b a0bf 06ce 6fc0
000003d0: b5b4 6140 336b 7540 9c46 c23f 97d1 afbf
000003e0: 5bdc 73c0 c51f 4fc0 ba15 8d40 2275 c6be
000003f0: ff55 07c0 2b6b 73c0 b1cd 93bf 6ec7 7fbf
3.1726074 -2.718551 -1.2185292 -8.2055645 -2.5747561 5.254028 -7.454457 1.782629
-3.4192014 -4.840603 3.1703773 -4.4619007 -8.398128 -4.012406 5.846476 -1.832613
-3.67512 -4.5656686 -3.3184724 4.8783293 -1.9335117 -3.9734628 0.0631444 -7.2222414
3.2446606 -5.4829206 6.8390217 -9.501428 3.69509 0.40019473 -7.698172 0.79014146
-3.6967213 -7.031644 6.301843 1.1656173 0.09026539 5.3712068 10.8932905 4.301903
2.135444 7.2860703 1.0105635 -3.8270063 4.527843 7.645521 2.2102592 -2.8620846
-2.622156 -6.225803 3.0472171 -2.031995 -2.7704587 -5.3582587 -0.6823068 2.6097631
-5.260045 1.6352885 -3.3898497 -3.0385723 0.7497238 -3.2791061 -6.3629317 -2.771841
3.0941925 -3.4993196 -0.8707703 -1.0258929 -3.3024597 2.1107721 -2.5930936 -5.015746
-0.34132287 -4.178847 1.7674693 -2.370047 5.7189255 -4.787227 0.7697023 -1.821657
-4.9796777 1.9981006 -3.9586444 -6.2629757 4.399814 2.1665187 -3.2384808 2.9567592
6.7929573 2.6092916 0.88519686 5.904423 0.03969235 -3.016902 3.1534188 4.7040014
2.125966 -2.1678383 -4.1570554 -3.4599872 1.9252782 -2.3984673 -3.557366 -4.245672
-0.4926997 0.20290516 -4.1698103 1.7725878 -2.374797 -0.42386976 0.8740439 -3.44859
-5.743366 -1.1433467 2.4512532 -0.71078944 -0.23610823 0.34550795 -4.2098475 2.2866998
-3.0251904 -3.916159 1.0348024 -3.077886 3.1900883 -1.7014456 2.7686453 -4.613138
1.3649102 -2.3869607 -4.451004 1.5780942 -2.5010781 -5.639798 1.4717262 2.667522
-2.8735764 2.5852914 4.1024632 3.1127806 -0.38949755 5.0036545 0.14335546 -4.3948035
4.4512553 4.1301117 0.38270795 -2.7890086 -4.72664 -2.0091388 1.459557 0.113578245
-3.7289364 -4.4979653 -1.5900049 -0.7019505 -2.9396524 2.4982855 -4.1614347 0.29328695
-0.112604715 -2.2784092 -4.858557 -0.4094865 2.342004 -1.2404505 -0.51666033 2.728278
-5.21416 0.314288 -3.642719 -3.5145164 -1.3909453 -1.7446797 1.5886686 -0.97295505
3.9216645 -3.2089982 1.3124825 -2.4316597 -3.9426892 1.7214897 -2.2975328 -3.5923586
1.9830272 2.8474584 -3.240369 0.5656446 1.9987469 2.446191 -1.8735651 3.759195
-1.7917153 -5.2752423 4.1187053 3.3138134 1.0423278 -0.12479974 -3.3260849 -1.0425079
2.5736728 -0.73600143 -3.8034906 -2.1176107 -3.0150678 -1.2914717 -1.9492937 3.1601937
-2.4071875 -0.8428749 0.36947694 -2.020554 -4.115233 -0.13765109 0.6271989 -2.075054
0.2985346 1.2444291 -3.1678038 -0.7026937 -2.5830078 -1.171839 -1.1004567 0.8109713
2.0044463 -0.64900416 3.3690965 -2.625132 0.7070428 -3.0622363 -2.7968318 0.73974687
-1.7272326 -3.2232113 0.3338532 3.6146505 -3.6107929 0.3897261 1.8455917 2.9562736
-2.787411 4.356166 -1.2523134 -3.7469497 3.5266545 3.834668 1.5177798 -1.3735837
-3.8103244 -3.236314 4.408902 -0.3876124 -2.1146238 -3.803416 -1.1547147 -0.9991368

attention_layernorms.0.weight f4 [50]
00000000: b23c 8d3f f7ec 943f aa0e 793f 4dd7 8a3f
00000010: 1053 813f 4666 953f eb07 393f 314b 963e
00000020: ce4e 843f 30b4 913f 6a81 483f 6593 973f
00000030: fc8b ff3e dd74 b03f 70bc 5f3f 601c 813f
00000040: a9ca 953f 5f86 4f3f e67a 923f 3659 8f3f
00000050: 7ad5 703f 00d3 9a3f b53b 9a3f 772f aa3e
00000060: 32a5 8e3f 2676 a03f 14e1 7a3f b402 183f
00000070: 3d5d 503f 2ec8 8c3f b78a 7c3f 9244 153f
00000080: 120a 153f 1dd9 2f3f 1ab9 973f e782 2b3d
00000090: cce9 4f3f 8cc4 913e 9e2b 813f da68 c23e
000000a0: 522e 763f 991d 663f ce42 393f 40c8 613e
000000b0: 1c49 3d3f 7f30 7a3f 6192 233f 0f02 2e3f
000000c0: 16d3 8b3e f62d 763f
1.1034148 1.1634816 0.97288 1.0846955 1.0103474 1.1671836 0.72277707 0.29354241
1.0336549 1.1383114 0.7832247 1.1841856 0.49911487 1.3785664 0.8739691 1.0086784
1.1702472 0.8106441 1.1443756 1.11991 0.9407574 1.2095642 1.2049471 0.33239338
1.1144164 1.2536056 0.9799969 0.59379125 0.8139227 1.099859 0.9864916 0.58307755
0.5821849 0.68690664 1.1853364 0.041872885 0.8121612 0.28470266 1.0091436 0.3797062
0.9616443 0.8988891 0.7236756 0.22049046 0.7393968 0.9773025 0.6389523 0.6797189
0.27309483 0.9616388

attention_layernorms.0.bias f4 [50]
00000000: 4dc0 2b3e c5ce 89bd 8de3 05bd ad96 a4bd
00000010: 265a 96bd dbcb 793d 8157 a2be 5a13 99bd
00000020: 8b21 cc3d e84d b3bc 605b 163c f755 dcbd
00000030: e0b3 43be 62b1 03be aa09 773e eec6 c9be
00000040: 8879 90bd 9d70 cbbd 2fe4 1cbe f604 7a3e
00000050: ec2f fcbd 8416 743d 7c1e 9a3d 6994 f5bd
00000060: eb50 e3bd 30a0 afbd 4940 473e c27a d7bd
00000070: 119f 443c 04bb d8bd 5ee6 e9bd 73bf 37be
00000080: 4921 a4bd f2b3 20bf a459 9c3e 19c9 dc3e
00000090: ef47 ad3d a92c 3c3d de5d 323e 53f9 6d3e
000000a0: a714 19bd ca1b 313e 71c9 07be 2ab9 2dbe
000000b0: 71ed 803e 3413 bd3d b6d6 a23d 19a5 0d3e
000000c0: 1081 e63e da68 9c3d
0.16772576 -0.06728891 -0.032687712 -0.080365516 -0.07341413 0.060985427 -0.31707385 -0.07474394
0.09967335 -0.021887735 0.009177059 -0.10758584 -0.19111586 -0.12860635 0.2412478 -0.39409584
-0.0705443 -0.09933589 -0.1532142 0.24415955 -0.12313828 0.059591785 0.07525346 -0.119911976
-0.11099418 -0.08575475 0.19458117 -0.10521461 0.012000815 -0.105825454 -0.11420892 -0.17944126
-0.08014161 -0.62774575 0.3053714 0.43122175 0.08460986 0.04594103 0.1741862 0.23239641
-0.03737321 0.17295757 -0.13260438 -0.16965166 0.25181153 0.09232178 0.07951109 0.13832511
0.45020342 0.07637186

attention_layernorms.1.weight f4 [50]
00000000: a3f7 443f 17df 2c3f e409 573f a03c 183f
00000010: a910 473f ed18 4d3f 091e 773f 8194 063f
00000020: 710c 8e3f a526 3e3f d327 043f e02e 793f
00000030: 3733 193f f080 b63e b4f8 7e3f 4ef7 123f
00000040: 4aa4 243f 7552 953e 0d3a 2a3f 1f11 623f
00000050: 3861 573f 4054 913f 4afb 723f 3291 3e3e
00000060: 603f 123f decb 063f efda 533f f390 303e
00000070: b068 0d3f de4f 333f 9e57 393f a66e 0f3f
00000080: 23a3 513f ad1f 213f 38bb 353f 7bd6 f83e
00000090: b5da ec3e 9318 323f 3750 693f 8ac7 bd3e
000000a0: 8eaa 083f 983c 0d3f b0c4 323f 74bb dd3e
000000b0: 3bdc 233f acdf 7e3f f92a ba3e e278 183f
000000c0: 9fc5 633f 284e 283f
0.76940364 0.6752791 0.83999467 0.59467506 0.77759796 0.8011616 0.96530205 0.5257035
1.1097547 0.74277717 0.51623267 0.9733715 0.5984377 0.35645247 0.9959824 0.57408607
0.64313185 0.29164472 0.6649483 0.88307375 0.8413272 1.1353836 0.94914687 0.18610075
0.5712795 0.52654827 0.8275594 0.17242794 0.55237865 0.7004374 0.7239932 0.5602821
0.8188955 0.6293896 0.709888 0.48601136 0.4626061 0.6956875 0.91138023 0.370663
0.53385246 0.55170584 0.6983137 0.43307078 0.6400792 0.99560046 0.3636091 0.5955945
0.8897342 0.65744257

attention_layernorms.1.bias f4 [50]
00000000: b125 0bbc d334 13bd 6f8d 973d 0a8c 523d
00000010: a39f a03d f84c d5bb cd88 3a3e 0a08 91bb
00000020: 992d 20be bb09 bf3e c191 80bd 410f 48bd
00000030: 5a5f 83be ada5 f9bc f01f a03d dfc1 f53d
00000040: c99b 293d 1e07 8b3d 9548 593e a2ae acbb
00000050: f009 943c 6b9c 08be 97ae b1bc 4d25 80bd
00000060: 6ec9 6e3c fe72 3bbe 6469 753d f71b 203e
00000070: f98e 7f3d 0905 7cbe 97c1 5a3e 95b6 32be
00000080: 0919 293e 023c 963e 202f a1bd b06a 1e3d
00000090: a0d8 55bd 8618 ca3d 3b6f 30bd f900 97bd
000000a0: 8988 7bbd 28c0 b73d 3604 21bd 5984 c53d
000000b0: 0104 ac3c 4fcf 72be 5952 01bd d3b2 77be
000000c0: c50d 2c3f d1bd 1abe
-0.008492873 -0.03593905 0.07400023 0.051403083 0.07842948 -0.0065094195 0.18216248 -0.004426007
-0.15642394 0.3731211 -0.062778 -0.048842672 -0.25658685 -0.030474508 0.078185916 0.119998686
0.041408334 0.06788467 0.21219094 -0.0052698413 0.018071145 -0.13340919 -0.021689696 -0.062571146
0.014574392 -0.18305585 0.05991496 0.15635668 0.06239221 -0.24611296 0.21362911 -0.17452462
0.16513456 0.29342657 -0.078703165 0.038675964 -0.052208543 0.09867959 -0.043074828 -0.073732324
-0.061409507 0.08972198 -0.039310656 0.09644384 0.020998003 -0.23711894 -0.031572673 -0.2418931
0.6720851 -0.15111472

attention_layers.0.in_proj_weight f4 [150, 50]
00000000: 4bb8 7dbc a2c4 c7bc 9b04 8d3b f1a6 f9bc
00000010: 798f 80bc 1bdf 12bd 9b77 f4bc c436 dc3d
00000020: c350 a7bc db73 5cbc 0838 9b3c 3b77 8b3c
00000030: 4a91 cf3c 8d86 0bbc c7a0 0d3d 9b56 5dbd
00000040: 6ed6 1c3d a9a3 a6bb 47c9 183b 226e 8fbb
00000050: 7ee3 5dbc d833 623c 7d57 84ba ee1f 7e3e
00000060: 96f3 cdbc 74ad 2dbd 007b 7abc 5f65 cbbd
00000070: 8c74 84bd db18 973c 78be 23bd 7a95 223c
00000080: f5b1 aabc 2093 a63c ada5 003b 98de bb3e
00000090: f48b e2bc 5241 56be 94c0 0ebd 3410 1fbc
000000a0: 7bb5 083d 944c 77bd f021 133c 2483 97be
000000b0: c8b1 33bd b670 97bd 78d7 86bc 3057 8ebd
000000c0: 3337 31be 86c7 3139 67fd febc a8ea 3fbd
000000d0: eac9 19bc 8010 ccbc f58d a2bc df10 d0bc
000000e0: 7fe1 18bc 9e1a 5d3e 11d4 3dbd ceae 793c
000000f0: 45e8 983d 4e11 2ebd e3ce 08be eb45 3ebc
00000100: 46ab 62bd ac16 febc 94cd 3fba b415 5c3d
00000110: 0fa5 74bc d1cb b93b 75d8 88bd 34b6 26bd
00000120: 74c3 f5bc cac7 87bd e859 94bc f717 013c
00000130: 6401 7ebc 1547 eebd 8d31 f93c 6e24 9abc
00000140: c0f8 dbbc ff29 04bd 898a 0cbd 6fac a5bd
00000150: 03cd e2bc e69a cdbd 9f90 5eba 1c8b e83d
00000160: ccb7 3c3d a68a edbd 3f3b 65bb f04d 64bd
00000170: 1018 44bd cb74 93be 2746 043d f97c 5bbd
00000180: 4a3d 6ebd d92f c5bc 856c 19be 6618 cdbd
00000190: 8fef 8bbc 5ccd 61bd 9fbe 0c3b 1202 7d3d
000001a0: b2d8 a73c da5f 80bb da63 fa3d b49c c1bd
000001b0: 8e75 97bc 5504 a9ba 60a3 3abc 454c b5bc
000001c0: 98c0 0ebd 113c 0a3d e360 30bd be49 263c
000001d0: ddcd 35bd c030 3e3b b541 5abb fbe8 24bd
000001e0: f8a9 f6bc 855a 4b3b 7418 11bb cf12 bf3d
000001f0: 5c07 cbbc 13ee 3cbc 2c87 62bc e572 94bc
00000200: 5588 a6bc fc9f 103d 9db2 94bc 3494 853d
00000210: 8782 85bd ddf8 573d f915 c4bc b32f 223e
00000220: 6cd6 27bd 969e 043e 63f5 6cbb ae80 dd3d
00000230: d4bf 353c 9a22 59bc 9592 44bd 7d2f 8e3d
00000240: 2c18 02bd 3fab 08bd a9d0 263d fbe3 bebd
00000250: 6e85 3bbe cabb 86bc 4e15 1dbd 6c4c 8cbb
00000260: 0768 753d fa6d 743d 526c a33c 955d dcbc
00000270: b0a7 4a3a 9a24 8ebd 69f8 74bc 93df 24bc
00000280: 6d00 223c f0a5 04bd 014b a6bc c33f 68bd
00000290: d240 95ba e7ab e23b 7022 46bd 55cb a2bd
000002a0: f502 643d 94ac 39bc 8b53 8a3c 5e77 15bd
000002b0: 89f1 4cbc b7a9 19bc 708f 383d 5f54 413b
000002c0: a5d6 93bd 297b 6fbd 9486 3cbc 1400 8bbd
000002d0: b57d aa3b 5546 73bd e3a0 4a3c ea0d d0bd
000002e0: e4d4 ba3c b6d1 0ebe 29b2 bc3c 247e 7b3d
000002f0: 7809 46bb f6a8 b43d 0b7d 1b3d 9a5b 1f3c
00000300: 2c98 b6bc 570e 32be 2d82 81bc 156f 03bd
00000310: 25e3 c83b 2985 9c3c 81e6 033e 5030 943d
00000320: f80d 90bd ed74 87bd 7fe1 0cbd 8fa8 afbc
00000330: fc8e 9db9 4979 73bc 5db6 07bd 75c7 053c
00000340: 56f0 95bc 4537 693c 151d 8f3d 177b ed3c
00000350: 0bbb 7a3d ead3 c839 da38 9fbd 898e 8537
00000360: 70cd a1bc dfe8 833d 60cd cd3c 337e 2bbc
00000370: ce6e 093d 698b 123d b477 f4bc 35a0 aebd
00000380: e86f 1cbd fb82 1cbc 4fca 423b 8676 3ebd
00000390: ea87 7fbd e655 da3c 7d78 583d 0787 1dbe
000003a0: 0970 233e 6516 7b3d f399 d6bc 78d8 543c
000003b0: 11b2 d9bd 38d5 d93d 0d9f 57bd 1675 b3bb
000003c0: 7987 79bd d1f5 f9bc c521 0a3c 0fe6 753e
000003d0: 2c34 30bd ed3a 9bbc 3998 bc3b 2db7 263d
000003e0: c6e4 f13c 0bdb a13c b1fd b9ba 2ec4 5fbd
000003f0: c5bf 95bd 32c2 9b3c 395a e5bc d47f d33b
-0.015485833 -0.024385754 0.0043035275 -0.030475112 -0.015693413 -0.0358573 -0.029842189 0.10752633
-0.020424252 -0.0134553565 0.018947616 0.017024627 0.025337834 -0.008515966 0.034577157 -0.05403767
0.038290434 -0.005085428 0.002331333 -0.0043771425 -0.013543008 0.013806306 -0.0010096874 0.24816868
-0.025140565 -0.042401746 -0.015288115 -0.099314444 -0.06467542 0.01844447 -0.039976567 0.009923333
-0.02083681 0.020333827 0.001963 0.36693263 -0.027654625 -0.20923355 -0.034851626 -0.009708453
0.0333762 -0.060375765 0.008980259 -0.2959224 -0.043870717 -0.07394545 -0.016460165 -0.069502234
-0.17306213 0.00016954364 -0.031126691 -0.046854645 -0.009386519 -0.024910212 -0.019843081 -0.02539867
-0.009331106 0.21592185 -0.04634482 0.015239431 0.07466177 -0.04249697 -0.13360171 -0.011613349
-0.05533912 -0.03101667 -0.00073167053 0.053731635 -0.014931931 0.0056700488 -0.06681911 -0.040701106
-0.030000426 -0.066299036 -0.018109277 0.007879249 -0.015503261 -0.116346516 0.030419135 -0.0188162
-0.026852012 -0.032266613 -0.034311805 -0.0808953 -0.027685648 -0.1003931 -0.0008490178 0.11354658
0.04607372 -0.11598711 -0.003497794 -0.05573839 -0.04787451 -0.28800043 0.032293465 -0.05358598
-0.05816392 -0.024070667 -0.14982803 -0.10014419 -0.017082004 -0.055127487 0.0021475924 0.061769553
0.02048907 -0.0039176764 0.122260764 -0.09453717 -0.018488672 -0.0012894968 -0.011391491 -0.022131095
-0.03485164 0.03374869 -0.04306115 0.010149417 -0.04438578 0.0029020756 -0.0033303325 -0.04026125
-0.030110344 0.0031029296 -0.002213982 0.09329759 -0.024783783 -0.011531371 -0.013826173 -0.018121192
-0.02032868 0.035308823 -0.018151576 0.06522408 -0.06519037 0.05272757 -0.023936259 0.15838508
-0.040975973 0.1295112 -0.0036157004 0.10815559 0.011093099 -0.013252879 -0.047991354 0.069426514
-0.031761333 -0.033366438 0.040726338 -0.093208276 -0.18312618 -0.016446967 -0.038350396 -0.004281571
0.05991366 0.059675194 0.019949112 -0.026900092 0.0007730676 -0.06940575 -0.014951804 -0.01006307
0.009887797 -0.032384813 -0.020299437 -0.056701433 -0.0011387116 0.006917465 -0.048372686 -0.07948939
0.055666883 -0.01133265 0.01688554 -0.03649079 -0.012508758 -0.009378842 0.045058668 0.0029499752
-0.072186746 -0.058467064 -0.011506695 -0.06787124 0.0052029737 -0.059393246 0.01236746 -0.10158904
0.022806592 -0.13947186 0.023034172 0.061399594 -0.0030218046 0.08821289 0.037961047 0.009726429
-0.022289358 -0.17388283 -0.015809143 -0.032088358 0.0061305934 0.019106464 0.12880899 0.072357774
-0.07033914 -0.06614099 -0.034394737 -0.02144268 -0.00030051905 -0.01486046 -0.0331329 0.00816523
-0.018303078 0.014234369 0.06987969 0.028989358 0.061213534 0.0003830486 -0.077745155 1.5921209e-05
-0.01975128 0.06440901 0.025122344 -0.0104671 0.033552937 0.035777483 -0.029842235 -0.08526651
-0.03819266 -0.009552713 0.0029722636 -0.04649975 -0.062385477 0.026652288 0.05284928 -0.1538354
0.15960707 0.061300654 -0.026196456 0.012991063 -0.106296666 0.106363714 -0.052641917 -0.005476604
-0.060920212 -0.030512722 0.008430903 0.24013542 -0.043018505 -0.018948996 0.005755451 0.040702034
0.029528033 0.019757768 -0.0014189986 -0.05463045 -0.07311968 0.019013498 -0.027997123 0.0064544473

attention_layers.0.in_proj_bias f4 [150]
00000000: 7b14 6e3d 2ffb 4d3e f315 493e 51f4 8bbe
00000010: d632 833d dd2a b9be fb60 be3d b395 f93d
00000020: 9396 5ebd 6072 813d c474 e93d 751f c53d
00000030: 24bb 893d 82e6 a13c a2a4 7abe 632b 203e
00000040: 9321 0c3e af3b 2a3e d37a 1c3d d8df 15bd
00000050: 1cf2 423d 9ba5 8b3e aa58 15be 6fb7 e5bc
00000060: 7607 fc3d e2dc 6a3d 0bc1 cb3d 8ae4 c0bc
00000070: 89e8 e73c ac4b 973d 213c 14bb 7067 773e
00000080: fccc e63d fe06 953d 5c1c 713b 3b1f 98bc
00000090: bcaf 2a3e e344 103d 6fb7 92bd cd31 103d
000000a0: f750 98bd 5afb 083e 5b28 e73e 65ea 87bd
000000b0: 8782 88bd 7579 17be 2485 2a3e c516 0e3e
000000c0: d25b fbbc 3e22 913e dba6 2bba 4dfc 6b39
000000d0: f04d 8339 0a9b 043a 0fff bb37 1d21 b2b9
000000e0: 04b8 51b8 066b 3239 1b38 ba39 063d 8439
000000f0: 96fe 5139 f4dc 38ba 4f3d 1638 9f5a c1b8
00000100: d4d4 e136 8ffd 993a e767 9cb8 fcb7 2439
00000110: 80bc 3039 f464 0fba 5389 d139 3d24 12ba
00000120: d5fa 8439 5794 d1b8 c936 e4b9 ca67 e7b9
00000130: 31ca 013a de66 033a 6ef8 a2b9 9f4a 073a
00000140: 900e 33ba 75e7 4b3a e063 c539 8e72 9037
00000150: 7540 b638 2b04 8ab9 fce7 2eba 5e45 39ba
00000160: b21b 29b9 404c 6539 96f0 323a 4eb5 8f36
00000170: 3ac8 423a 7a37 a7b9 2c2d 1fba 7648 9a39
00000180: decb 9839 34b3 1f39 9e0f ea38 d7b4 6c3a
00000190: 47a0 d7be cb53 d8be ccbb 063f 2007 993f
000001a0: 164d 4e3e 910f 793e 09e8 3d3f c5f4 fcbe
000001b0: 1eb6 53bf 4650 c8bd 0b53 49bf aac9 943f
000001c0: c412 19bf e70f 403f 2729 b1bd 8cad 193f
000001d0: 3740 dfbe 4ea1 8cbe a3b3 66bf 3d0e 2f3e
000001e0: 4ec8 74be b199 1fbe dab4 0e3d 1836 a03e
000001f0: 1e45 48bf d7e8 7abf 6c8e 873f 4ff5 d63e
00000200: aa32 2e3f 858d e03e db52 713f 346f f93e
00000210: 56b7 173f 0998 5abf b414 2cbe ae1e 513f
00000220: 5cbd 303f 6500 5e3f aa01 59bf 133e 29bf
00000230: 77b8 ce3e 9660 153f 550d a43e 8d1a 20bf
00000240: fce0 90bf a668 653f 5161 2fbf 1b1b 053f
00000250: f35f 5f3f 00c9 5e3e
0.058125 0.2011535 0.19637279 -0.27334836 0.064061806 -0.36165515 0.09295841 0.12186756
-0.054342818 0.063206434 0.113992244 0.096251406 0.06725147 0.019763235 -0.24476865 0.1564155
0.13684683 0.1662433 0.03820307 -0.036590427 0.047594175 0.27274784 -0.14584604 -0.02804157
0.123061106 0.057339557 0.099489294 -0.023546476 0.028309124 0.0738748 -0.0022618847 0.24160552
0.112695664 0.07276724 0.0036790585 -0.01856958 0.166686 0.035221945 -0.071638934 0.035203744
-0.07437318 0.13377133 0.45147976 -0.06636504 -0.06665521 -0.14792426 0.16652352 0.13875873
-0.030683432 0.28346437 -0.0006547996 0.00022505336 0.00025044335 0.0005058503 2.2410908e-05 -0.00033975477
-5.000086e-05 0.00017015272 0.00035518486 0.00025222468 0.00020026634 -0.00070519676 3.5819885e-05 -9.219837e-05
6.730299e-06 0.001174854 -7.458013e-05 0.00015708798 0.0001685489 -0.000547006 0.000399659 -0.0005574858
0.00025363886 -9.993527e-05 -0.00043528367 -0.00044137082 0.00049510883 0.0005012582 -0.00031084142 0.0005160961
-0.0006830478 0.0007778325 0.0003764918 1.7219481e-05 8.690442e-05 -0.00026324517 -0.00066721416 -0.00070675265
-0.00016127413 0.00021867547 0.0006826011 4.2828387e-06 0.0007430349 -0.00031894055 -0.00060721 0.00029427157
0.00029143592 0.0001523018 0.000111608984 0.0009029633 -0.4211447 -0.4225143 0.52630305 1.1955299
0.20146593 0.24322344 0.7418218 -0.49405494 -0.82699764 -0.09780936 -0.7864234 1.1624043
-0.5979426 0.75024265 -0.08650427 0.60030437 -0.4360368 -0.27466816 -0.90117854 0.17095275
-0.23904535 -0.15585972 0.034840442 0.3129127 -0.78230464 -0.98011535 1.0590339 0.4198403
0.6804606 0.4385797 0.9426705 0.48717654 0.59264123 -0.8538824 -0.16804773 0.8168744
0.6903894 0.8671935 -0.84768164 -0.6611034 0.4037511 0.58350503 0.32041422 -0.62540513
-1.131866 0.89612806 -0.6850787 0.51994485 0.8725578 0.21756363

attention_layers.0.out_proj.weight f4 [50, 50]
00000000: bb5c 443d fe94 f93c 03d6 aebc 8be8 993d
00000010: 2916 55bc a6ce c93d a130 153e 7b5b f2bd
00000020: 1a2f df3c 54f0 aebb 4291 5a3c fea5 343d
00000030: cf03 15bd 2ae4 1c3e 95d0 94bd c451 6f3d
00000040: 95e2 703c 7c8f 9b3d b3e0 08be 1e56 833d
00000050: 0219 94bd 9cab 0e3d 630a c9bd bab3 ff3d
00000060: 9453 9ebd 5cd3 4bbd 618f 903d 8ab7 69bd
00000070: 73a9 fbbc e1e5 cc3c bdc3 163e b72d 833c
00000080: a8c6 c1bd ee6f d43d 75d0 9a3c 8444 093d
00000090: 061f 02be 57b1 2a3e 1f4e 11be 883b cdbd
000000a0: b571 413d f4a8 ef3d 44b8 a53d 143e e9bc
000000b0: 4947 b6bc 647c 8e3d ee38 b43c 34ab 033c
000000c0: e522 a0bd bb05 0d3e 53d9 aabc 863a 4ebd
000000d0: 5ba7 db3d 22a9 493e fc5a bc3d 4eeb 2a3e
000000e0: 3c7a a43c bd35 40bd 8cf6 bbbc d7ee 19be
000000f0: 16c0 873d 2dd1 ba3d 2261 8ebd da25 9c3d
00000100: bc5c e63d 8541 2f3d 32d0 063d 7060 063d
00000110: 8d57 ea3c c4da 4e3d 5174 2b3d c4a4 7abd
00000120: d312 9ebc 4f31 ed3d 52ef 9fbd e8ac 8fbd
00000130: 6dc9 f63d 36bb c73d c91c b5bc 7be1 e23d
00000140: 5761 cabd 4944 b13c 3d93 903c 96e2 79bd
00000150: 5270 d6bd c7d6 a83d cec3 7cbd 8fa5 54bd
00000160: f298 05be 0b74 28be 592e 93bd dafc 0c3d
00000170: 3f81 a73d 57dd e73d 05e3 273d 049a 403e
00000180: 6f26 ae3d 1d2b 8a3d 014e 35be 05ac 11bd
00000190: f330 97bc 9c9e 1ebe 0c63 0f3e 3fb0 09bd
000001a0: b92f ef3c 9331 df3d 9256 06be 06a4 da3d
000001b0: 811e 8fbd eb72 fabc 4d29 b63c aa39 e23c
000001c0: f44e a53d 11a5 bbbd 2e9b 003e fa6a 663e
000001d0: 4c98 a3bd 0fe2 a7bd 5293 81be 7e6a ef3c
000001e0: 172c cdbd 39fa f7bd 76fd 9d3d 99a6 21be
000001f0: b5c2 5fbd b34f 28bd 26ee 8b3d 094c 633d
00000200: 27a4 6f3d 1a9b ab3d a7ad 98bd 1e0e 0abc
00000210: 3135 a9bc ed24 87bd 9fcb 113d 9347 19bc
00000220: 1eb0 19be 1d0a d73d 29f0 93bd d52c 98bd
00000230: 3b0a 02bd ea21 1a3e cb94 82bc 4738 2b3d
00000240: 5b89 bebc af81 83bd b3ed c63d f933 b33e
00000250: 3d09 543d 010a 8e3d f106 c73b 1500 13be
00000260: 8d28 3e3d 24b8 153e 07ca 5ebd affd d73d
00000270: 3d3a a83d 7a71 a93d 4b3f 23be 09c3 953d
00000280: dced 08be c698 6bbd 9887 b43d f697 64bd
00000290: b1e0 52bc e1f0 b2bc fe59 853d a28a 34bd
000002a0: b87e bfbd 8dcc 093e b408 80bd 74bb ba3d
000002b0: d69e babd 3263 14be 5a1f 55bd 3667 c63d
000002c0: a5ca 4b3e 4284 b0bd ad6f d5bd 0a6b babd
000002d0: 7950 e5bd cb37 0b3e 6cac 2a3d e626 0e3d
000002e0: d989 ecbc 68c5 383d 83c9 4bbd 7ac3 123c
000002f0: 7457 223e c077 1c3a aece 2d3c 514a 613d
00000300: f42d 1eba 11cd 8abc 00ee c3bc 289d b53d
00000310: f43c 27bd 3177 393e 582c c13b ce42 39bd
00000320: 9837 043e ed68 cb3d 86bc d0bc 08d3 3c3c
00000330: daa7 b83d a4bd 00bd 253f be3c 2a6f 503e
00000340: 28bd c43d 797f 413d 0f07 11be 8fd9 f0bd
00000350: 1621 3b3d e11c 54bc 1614 49be a552 8fbd
00000360: f596 383e d4b9 c13d 29d0 f2bc 0d8d be3d
00000370: a2aa 093b 1c97 823c 0377 4fbe b347 533d
00000380: 560e 443e 8ed4 81bc bc31 fabb a2d0 513d
00000390: bd81 893d b2ba 8bbc e14c eebd f9c0 e83d
000003a0: c8f4 debd 4795 113e fa3b 56be 011b 37bd
000003b0: cd7c b1bc 30e1 3cbe 56a2 183d 06f8 14bd
000003c0: 4009 14bd 9fc2 c13d 80cb c43c 983f e0bb
000003d0: 0a61 973d de50 cebd d2df 71bd 797a afbc
000003e0: ab99 e73d 159d 853d d472 2c3d d2ff 96bd
000003f0: b73d 10bb f7b8 703c 5cf1 81bd 5ea3 bdbd
0.047939997 0.030466553 -0.021342283 0.07515057 -0.013005772 0.09853868 0.14569332 -0.11833855
0.02724414 -0.005338708 0.013340296 0.044103615 -0.036380585 0.15321413 -0.07266346 0.058427587
0.014702459 0.07595727 -0.13366966 0.0641291 -0.07231332 0.03483163 -0.09816434 0.12485452
-0.07730785 -0.049762115 0.07058597 -0.057059802 -0.030720448 0.025011959 0.14723106 0.01601301
-0.09461719 0.103729114 0.018898228 0.033512607 -0.12707147 0.16669212 -0.14189957 -0.1002112
0.04722758 0.11702147 0.080917865 -0.028471984 -0.022250788 0.069573194 0.021999802 0.0080364235
-0.078191556 0.13771717 -0.020855581 -0.05034878 0.1072528 0.19693425 0.091970414 0.16691324
0.020077817 -0.04692625 -0.022944711 -0.15032516 0.06628434 0.09121928 -0.0695212 0.07624407
0.112481564 0.042787094 0.032913394 0.032806814 0.0286062 0.0505016 0.041858975 -0.06119229
-0.019296085 0.115816705 -0.078093186 -0.07015401 0.12050138 0.097525045 -0.022108452 0.11078163
-0.09881847 0.021639006 0.017648334 -0.061007105 -0.10470642 0.082440905 -0.06171017 -0.0519157
-0.13046625 -0.16450517 -0.071865745 0.034420826 0.081789486 0.11321514 0.040987987 0.18808752
0.085034244 0.067465045 -0.17705537 -0.03556444 -0.018455958 -0.15490192 0.14002627 -0.033615347
0.02919756 0.108981274 -0.13118961 0.10675816 -0.0698824 -0.030572375 0.02223649 0.027615387
0.080717 -0.09162343 0.12559196 0.22501746 -0.07988033 -0.08197414 -0.2530771 0.029225584
-0.10018175 -0.12108273 0.077143595 -0.15786208 -0.054629046 -0.041091632 0.068325326 0.055492435
0.058506157 0.08379193 -0.074549966 -0.008426217 -0.020655246 -0.0659884 0.03559458 -0.0093554435
-0.1500859 0.10499976 -0.07223541 -0.07430426 -0.031748038 0.15052 -0.01594009 0.041801717
-0.023258856 -0.064212196 0.09713306 0.3500059 0.051766623 0.06935502 0.0060738255 -0.143555
0.04642539 0.14621025 -0.054391887 0.10546433 0.08214233 0.08273597 -0.15942113 0.07312591
-0.13371986 -0.057518743 0.08814925 -0.055808984 -0.012870953 -0.021843376 0.06511305 -0.044077523
-0.093503416 0.13456936 -0.0625166 0.09117785 -0.09112327 -0.14490965 -0.052031852 0.09687655
0.19901522 -0.08618976 -0.10421691 -0.09102447 -0.111969896 0.13595502 0.04166834 0.034705065
-0.028874325 0.045110136 -0.049752723 0.008957738 0.15853673 0.0005968772 0.010608358 0.055002514
-0.0006034069 -0.016943486 -0.023917198 0.08867866 -0.040829614 0.18111874 0.0058951788 -0.045229726
0.12911832 0.099321224 -0.02548052 0.011524923 0.0901639 -0.031430855 0.023223469 0.20354906
0.09606391 0.047240708 -0.14162849 -0.11760246 0.04568585 -0.012946338 -0.19636568 -0.06998185
0.18026336 0.09459272 -0.029640274 0.09304247 0.0021006246 0.015941195 -0.20260243 0.05158205
0.19146094 -0.015848424 -0.0076353233 0.05122436 0.06714199 -0.017056797 -0.11635757 0.113649316
-0.10886532 0.14217101 -0.20921317 -0.044703487 -0.021665955 -0.18445277 0.03726419 -0.036369346
-0.036141634 0.09460949 0.024022818 -0.0068435185 0.073915556 -0.10074018 -0.059051342 -0.021420704
0.11308607 0.06524102 0.042101696 -0.073730126 -0.002200944 0.014692537 -0.06344864 -0.092596754

attention_layers.0.out_proj.bias f4 [50]
00000000: 67c5 84bc 0456 e03d 152c 76be d42a 9fbe
00000010: 77cc 6c3c 6bba 6d3c ff3a 0fbf de62 20be
00000020: 4630 80bd 0304 c8bd 296e d83d 033d 86be
00000030: 2b7b e8be 431d 43be c1b1 3c3e 321f 3cbf
00000040: 883a 96be 88fa 1abe 376d 28be 7c53 743e
00000050: dac3 54be 9140 d73d e506 f13d 14cc 3bbe
00000060: 3d3e 34bd 156e b4be 4a63 a8bd 4b9e 10be
00000070: 00e6 743e 76b6 22bd 5e32 2dbe 22c2 a1be
00000080: 5a95 f93d 64d5 8cbf 50fe 983e 2b82 8c3f
00000090: 5996 493e 5e78 c43e 1be2 20bd 6eaa 633e
000000a0: 55cf c93d cc6b c63c 008a afbc c6a4 9dbe
000000b0: c12f 5c3e bcec b8bd 78c3 8a3e 0744 f63d
000000c0: 06c5 573f 0ab4 703e
-0.01620741 0.10953906 -0.24040253 -0.31087363 0.014453045 0.014509778 -0.55949396 -0.15662715
-0.062592074 -0.0976639 0.105678864 -0.26218423 -0.4540647 -0.19054131 0.18427183 -0.734851
-0.2934153 -0.15134633 -0.16447912 0.23859972 -0.20777836 0.10510362 0.11768893 -0.18339568
-0.044004668 -0.35240236 -0.08222063 -0.14122884 0.23915863 -0.03972479 -0.16913745 -0.31593424
0.1218669 -1.1002622 0.29881525 1.0977224 0.1968626 0.38373083 -0.03927813 0.22232983
0.098539986 0.024221323 -0.021428108 -0.30789775 0.21502592 -0.090295285 0.27102256 0.12024694
0.8428501 0.2350618

attention_layers.1.in_proj_weight f4 [150, 50]
00000000: 0ac7 eebc c4f2 b73d b831 a6be 5bbd f0bd
00000010: a37a 6f3d d6cc d3bc 065a e7bd add8 ebbe
00000020: 386b f9ba e577 913e 2314 ed3d 888a 313e
00000030: 56eb 42be c893 2b3e 0d84 3b3e ad0e 47be
00000040: 6c21 b6bd 3272 a6bd c7a5 a63d 5681 43be
00000050: 3d30 b6bd df88 11be 7de7 0b3a c12d 8c3e
00000060: c714 41be b20c 6fbe 4036 593e a4ed 593d
00000070: 16e9 6cbe fdf3 d8bd 6287 e83c f35b 25be
00000080: 8796 983e c1dc 02bf 7ff4 283e 7695 b43c
00000090: bb54 813d 4dbf e9be 45ff 58be a1a1 de3d
000000a0: 62db 733e 213b 293e 9194 a4be b066 81be
000000b0: a752 583e 2612 8dbe 2197 763e a195 873e
000000c0: 2789 ac3e 61c2 1fbe baed 853e d4d3 973d
000000d0: abc1 2b3e 6906 11be 5c77 cf3d 3e2d 36bd
000000e0: da72 6cbe fa75 953d 451e d83d cff7 a43e
000000f0: c718 833c c143 833d a7fc 9b3e 1c4e 53be
00000100: 2c5d 213d 9055 0b3f fe3b 38be 96d7 433d
00000110: 2c4f bdbd 5201 ea3d a2c1 473e ff50 9dbc
00000120: ac6d 303e ad74 e0be 95c5 883e f822 9f3d
00000130: d40f d6bc d7d4 7fbe 77d5 28bd 2f3a 91bd
00000140: 8f5d 383e ce90 dabc 0635 97be f424 9f3d
00000150: 9097 0b3d 95fd f8bd 9e41 953e ce9b 243f
00000160: 54e8 f93e 06d2 d7bd 0a22 733d 20b4 60bd
00000170: 2877 5f3d 0842 98be 6c09 babe 8f1e 7fbd
00000180: 975b b2be 3113 83bd d194 b2be b254 83be
00000190: 4de9 2d3e ea69 03be df26 393d 2d60 1dbf
000001a0: 7f10 843e 6f0f b63b 3b8a 7d3e 8d45 f4bd
000001b0: 3296 c53d 2cb1 5abe 339f 2b3d a069 7b3d
000001c0: 11d3 24bf 48e4 0e3e 3cdb 23bf 76c4 d7be
000001d0: 7be4 2d3c ad9f be3e 8d3b 39be c49e 1fbe
000001e0: df2c c6be d1b6 83bd ee84 773e 3115 293f
000001f0: ad9e 9cbd bb2a 49be ca3d 343e a10a 973e
00000200: 24ae 523e 15d2 bfbe b478 a73d 7d84 253f
00000210: 7a17 bd3b 2282 7c3d 22d8 07be 2c9e d2be
00000220: 6b66 adbe 525a 45be 1f32 7f3e 3325 d5be
00000230: f4ac 59be 2122 873e ef46 cf3e 5c2b 813e
00000240: b68d a93d 0bd9 39be f3a2 993e 840f 82be
00000250: fd88 0f3f 4db2 213c eb53 993c 3e55 c8bc
00000260: 834d b13d fd6a 973e 3e31 b0bd 6d0b 42be
00000270: 499e 2f3d f244 30be f2cc d0bd 4423 a2bd
00000280: b4aa e23e 0ca4 833c 366d fbbe bcfc 8c3e
00000290: a6ce dd3d f713 c1be 563f 5b3c b646 b13e
000002a0: 6baa a33e aa68 343e cd54 0abc 126e 0ebe
000002b0: e9ec 6dbd d5f1 4ebf 6e31 513e 95dc 803a
000002c0: 685d 773e ae80 bebe e9b5 7d3d 9018 443d
000002d0: a743 93be 2e44 263e f2b0 093d ea12 fcbc
000002e0: 19be 6cbe 773d bfbe 63f1 b53e ca86 33be
000002f0: 3eb5 18be d056 81be 77df aa3d 6882 8f3d
00000300: 5c98 20be 3c26 07be 3e08 283e ff4b 10be
00000310: 5d6f 87bd 39b1 28be a8d3 663e b390 cdbe
00000320: 573a 2fbe d79b cabe 17e1 0a3e 7ea9 a63d
00000330: 72e7 3cbd 5299 01be 9917 67bd 4683 d43d
00000340: d9a8 993c 67ad a5bd 18d1 a93e fbf0 3b3e
00000350: f4db 7fbf a77b bc3e 1969 a0bd e788 253e
00000360: 3735 bf3d cf48 203f 3c8a 49be 3544 b6bd
00000370: 73a8 033e 5f10 fdbc 8d5d 543d 4602 0a3f
00000380: f1ca 2bbe aa65 9bbe 9475 963d 3114 bebb
00000390: d421 693d c6d0 b4bd 0138 b33d 6a7e f43d
000003a0: 703b 043e 3304 723e 15db 853e 4a20 443e
000003b0: b0e6 fcbd c622 92be 5a9a a2be 88ad b9be
000003c0: b503 0d3e a83f e5bc c43b 17be 766d 9ebe
000003d0: 509f aa3e 516d 9c3e d744 ca3e 44dd cbbe
000003e0: 99e7 fa3c dc2c 6abe 306b afbe a4d4 72bc
000003f0: ee10 253d 6def 12bf 637c 97bd 31da 13be
-0.029147644 0.08981851 -0.32459807 -0.11754867 0.058466565 -0.02585451 -0.112964675 -0.46063748
-0.0019029146 0.28411785 0.115761064 0.17338002 -0.19035086 0.16755593 0.18312092 -0.19439192
-0.088930935 -0.0812725 0.08137088 -0.19092306 -0.088959195 -0.14212368 0.00053369236 0.27378657
-0.18855582 -0.23344687 0.21212101 0.053205147 -0.2313579 -0.10593412 0.028384868 -0.16148357
0.29802343 -0.51118094 0.16499518 0.022043925 0.06314989 -0.45653763 -0.21191128 0.10870672
0.23814157 0.16526462 -0.32144597 -0.25273657 0.2112528 -0.2755291 0.24081089 0.26481345
0.3369839 -0.15601493 0.26157933 0.0741345 0.16773097 -0.14162602 0.10130188 -0.04447674
-0.23090687 0.07297893 0.105526485 0.32220313 0.016003026 0.064094074 0.30466196 -0.20635265
0.039395496 0.54427433 -0.17991635 0.04781302 -0.092436165 0.11426033 0.19507459 -0.019203661
0.17229337 -0.43839017 0.26713243 0.07770342 -0.026130594 -0.24983536 -0.0412192 -0.07091176
0.1800444 -0.026680376 -0.2953264 0.0777072 0.03408009 -0.12157742 0.29151624 0.6430024
0.48810065 -0.10538106 0.059358634 -0.05485928 0.054556996 -0.29737878 -0.36335313 -0.062285002
-0.34835503 -0.06400145 -0.34879163 -0.25650555 0.16983528 -0.12833372 0.045203086 -0.6147488
0.25793836 0.005556039 0.24759762 -0.11927328 0.09647788 -0.21356648 0.04189987 0.06138003
-0.6438456 0.1395427 -0.640064 -0.42142075 0.010613556 0.37231198 -0.18089123 -0.15587908
-0.3870611 -0.06431354 0.24171802 0.6604796 -0.076474525 -0.19645207 0.17601696 0.29500297
0.20574242 -0.37464967 0.08177319 0.64655286 0.005770621 0.06164754 -0.13266042 -0.411363
-0.338672 -0.19272736 0.24921463 -0.41629943 -0.21257383 0.26393226 0.40483806 0.25228393
0.08278982 -0.18149202 0.30007133 -0.25402462 0.560684 0.00986917 0.018716773 -0.02445471
0.08657362 0.29573813 -0.08603142 -0.18949671 0.042875562 -0.172138 -0.1019534 -0.07916883
0.4427086 0.016069435 -0.4910676 0.2753657 0.10830431 -0.37710544 0.0133818 0.3462426
0.31965956 0.17618051 -0.00844307 -0.13909176 -0.058087263 -0.80837756 0.20429012 0.0009831364
0.24156725 -0.3720755 0.06194106 0.047874987 -0.28762552 0.16236946 0.033616014 -0.030770738
-0.23119392 -0.3735158 0.35535726 -0.17531887 -0.14912888 -0.25261545 0.08343404 0.07007295
-0.1568312 -0.13198179 0.16409394 -0.1409149 -0.06613038 -0.16473855 0.22541678 -0.4014946
-0.17112099 -0.3957202 0.13562427 0.08137797 -0.04611916 -0.12656143 -0.05641899 0.10376601
0.01875727 -0.080897145 0.33167338 0.18353646 -0.99944997 0.3681309 -0.07832546 0.16165505
0.09336322 0.626111 -0.19681638 -0.08899728 0.12857227 -0.030891595 0.05184703 0.5390972
-0.16776635 -0.30351 0.07346645 -0.005800747 0.056917027 -0.08828883 0.08750916 0.11938174
0.12913299 0.23634414 0.2614371 0.19152942 -0.12348688 -0.28542155 -0.31758386 -0.36265206
0.13770945 -0.027984455 -0.14768893 -0.30942887 0.3332467 0.30552152 0.39505646 -0.3981725
0.030628012 -0.22868675 -0.34261465 -0.014821205 0.04029935 -0.57396585 -0.07396772 -0.14438702

attention_layers.1.in_proj_bias f4 [150]
00000000: 6716 723e 059a 9dbe 9889 a13e c165 66bd
00000010: 66ee 7a3e ed42 953e 095a 303d 1f5c a6bd
00000020: dbd6 223e 6e0b 013e a414 10be bfc7 933e
00000030: fb84 5abe 69f0 debd b642 4dbe 16df 2dbc
00000040: 5bd9 73bd e6d9 853e bd48 79be 8eb2 90be
00000050: 4280 edbc 37d6 f63d b82c 7b3e b7b9 00bd
00000060: 160b 5dbe d152 f73d 8380 de3d 571d 19be
00000070: 2ad2 81bc a2e6 e0bd bdf3 3f3e a593 19bd
00000080: ceb0 0bbe 16b2 ebbd b707 52be 3a19 32bd
00000090: 3af3 2ebe 731a d8bd 35f3 313e 3a9f 16be
000000a0: dddf 91be 8e77 5e3e 3cc8 8abe afee 4ebd
000000b0: 2bc0 74bd 01cb 5fbe 0a34 803e 4e4e 9bbd
000000c0: 1397 b4bd 7cd0 01be c7ed b33c d0f3 82bd
000000d0: 0160 843d bad9 4c3b fac2 703c 6b82 843c
000000e0: 3991 7a3c 7ad4 47bc 1fae 4b3c 90cf 883c
000000f0: e732 ac3b d003 e63c 5a8e a8bc 6b18 fd3b
00000100: 6da0 cfbb 62e6 c93a e8db 73bb 7140 da3a
00000110: d722 00bb f824 f4bb 66c0 63bb 588a c63a
00000120: 2022 86b8 b420 323b 9d8d a03b 46ac 143b
00000130: 7bb7 e93b 75e7 b7bb 45fc 9a3b bb77 b3bb
00000140: 93eb dd3b 8ac2 ad39 7cad 583b 4733 92bc
00000150: 24e3 32bd ae71 1a3b 4f7c 8abb 1930 c2bb
00000160: 3a92 4d3c 1926 3dbc aee2 bdbc 345e 113d
00000170: 0b32 a0ba 89ee 06bc 239a 8fbb 1ab4 6bbc
00000180: 7b8c 7f3c 96ff 86bc b95b 44bd ff95 0ebc
00000190: d6e7 2d3f e2d0 21bf 100b b4bc 23c1 0d3f
000001a0: c3f6 903e 0521 b33e 24f2 1b3f 5bd9 013f
000001b0: 59a8 d23e 2645 84bf 5330 263f aa0c 353f
000001c0: 5c2b 53bf 88e0 283f 6c67 6b3f d2c9 36bf
000001d0: 9348 bcbe 19c8 20bf 616d 033f 2062 d83e
000001e0: 336a 443c 8be2 073e 0d52 503f 4c57 183f
000001f0: a7a2 923e fa16 b73e ff45 ff3e 049c e9be
00000200: 78a8 743f b778 743f 4326 9fbe 3a36 23bf
00000210: cc7b ad3e 1465 143e 5316 663f c61b 073f
00000220: 9f86 52bf 63f0 3bbe c84b 533f 6394 da3e
00000230: 8178 423f 4917 20bf e52a a83e 7cc3 a3be
00000240: f56b 093f cf7f 95be 261d 40bf 880f 773f
00000250: 6b69 7e3f 014e 173f
0.23641358 -0.3078157 0.31550288 -0.056249384 0.24505004 0.29152623 0.043054614 -0.081230395
0.15902273 0.12602016 -0.14070374 0.28863332 -0.2133979 -0.10885698 -0.2004498 -0.01061227
-0.05953346 0.26142806 -0.24344154 -0.28261226 -0.028991822 0.12052577 0.24528778 -0.03142711
-0.2158626 0.12076343 0.108643554 -0.14952599 -0.015847284 -0.1098149 0.18745323 -0.03749432
-0.13641664 -0.115085766 -0.20510755 -0.04348109 -0.17084971 -0.1055192 0.17377932 -0.14709178
-0.28491107 0.21725294 -0.27105892 -0.050520595 -0.05975358 -0.21854784 0.25039703 -0.07583295
-0.088178776 -0.12677187 0.021963967 -0.0639416 0.06463624 0.0031257705 0.014694924 0.01617547
0.015293413 -0.012196654 0.01243165 0.016700536 0.0052550915 0.02807799 -0.020575691 0.007723858
-0.006336263 0.0015403742 -0.0037209932 0.0016651285 -0.0019552016 -0.007450696 -0.003475213 0.0015147431
-6.395974e-05 0.0027180137 0.004899694 0.002268569 0.0071324683 -0.0056123086 0.00472978 -0.0054769195
0.0067724674 0.00033142074 0.003306239 -0.017846717 -0.04367365 0.0023566294 -0.0042262445 -0.005926144
0.01254707 -0.011544728 -0.023179378 0.03549023 -0.0012221945 -0.008235582 -0.004382388 -0.014386201
0.015597458 -0.016479295 -0.047939036 -0.008702754 0.6793188 -0.63209355 -0.021977931 0.5537283
0.28313264 0.3498613 0.6091635 0.50722283 0.41144064 -1.0333602 0.64917487 0.7072245
-0.82488036 0.6596761 0.91954684 -0.71401703 -0.3677412 -0.62805325 0.51338774 0.42262363
0.0119882105 0.13270013 0.813752 0.59508204 0.2863972 0.35759717 0.4985809 -0.45626843
0.9556956 0.95496696 -0.3108388 -0.6375462 0.33883512 0.14491683 0.89877814 0.52776754
-0.82236665 -0.18353419 0.8253751 0.42691335 0.75965124 -0.6253553 0.32845226 -0.3198508
0.53680354 -0.29199073 -0.75044477 0.96508074 0.99379605 0.591034

attention_layers.1.out_proj.weight f4 [50, 50]
00000000: d001 b6be 762b 14bf 88a2 0bbe a701 d0bd
00000010: e8d2 ddbd 7851 443e fa24 72bf 1e33 2b3f
00000020: bc47 6e3e 8128 c9be 6956 303e 1783 f53d
00000030: 9e33 fa3d dede 7b3e 2258 703d 5d5c 88bd
00000040: 3b8e 13bf 08c5 2cbe 65aa 28bf ae51 03be
00000050: a24c 73bd ac70 79be a508 a9be f179 d6be
00000060: cb3a 8d3e 57c6 6c3e fadc 51be 3c7f b93d
00000070: 7c81 de3e 1903 6cbe 297e 943e 7c42 25bf
00000080: ebff 2f3e fdff 51be 58da 29bf ded4 18be
00000090: 88be 2a3e ba6b 193e e46a 12be d61e 82be
000000a0: 0de9 093e d539 4a3d 2e07 cc3e 0d62 1cbf
000000b0: 8fca a0bd 8dcf 65bc 12f8 3fbe 8fce a6be
000000c0: f9ea 003f a080 2e3e 824b 303d 75fb 51be
000000d0: 26d0 cebc d7e7 013e 3613 9e3e 03c9 073f
000000e0: e13a 79bd 782d 4a3e e6ed a3bd b02e 17be
000000f0: 33ab a03e 633b e4be 83f7 01bf 72aa 82bc
00000100: b098 52bd e33e 12be 055c 803e 57e8 cebe
00000110: 509c 003f baa0 7fbe 53cc 023e 0294 9cbc
00000120: fb93 873e eb45 cfbe 7df3 92bd 4ad7 edbd
00000130: 49c5 c2bd d61c 4cbe d4db 483d a996 57be
00000140: ca75 b83d 6bd9 ee3d 087e 5f3d 0172 b9bd
00000150: 98e2 723e 3426 99be a52c 1c3f 65e0 d33e
00000160: f696 e7be 5299 d9be 1318 223e e081 22bf
00000170: 181b 573d 4d6b 04bd 074e 863d 4165 87bd
00000180: ed72 0bbf e73b 783e 6d26 71bd 40ad 423d
00000190: 9c20 5bbe 9c86 b53e 9fac 14be 2200 033d
000001a0: dcac b83c 7f03 3fbe 5a4c 393e 5cd5 a03e
000001b0: e778 9d3e 95e6 2d3e 9e64 553e 4525 3f3d
000001c0: a02f 723e 36ac 883e f79e 7a3e b04b 3d3e
000001d0: 8d73 f23c 6da5 2ebd 2258 733d eff4 92be
000001e0: 9efb a8bb c705 c53d 76e6 993e b281 2b3e
000001f0: 84b7 af3d 628e 2bbc 571d c93d 3540 843e
00000200: e403 c53e 1fee 4d3e f1a6 b43d 91f1 acbd
00000210: 076d 5abd be1b efbd 2963 b63e a195 833d
00000220: c063 52be 171c 1cbe 47d7 e9be cc09 78be
00000230: 8e5f 01bd ed79 aabe d354 0d3f 15d5 1e3e
00000240: 73b3 58be 3862 3b3e 1a4a 103e 108a 95bd
00000250: 7364 fc3e 4cc6 873a 3c52 babd 2063 783c
00000260: 5414 e23e 4617 9dbd 0eff 70be 7d85 84be
00000270: 7cb1 a83d f3f1 74bc 786b 893d e568 4cbd
00000280: 2ef3 10be 2b66 07be 498f b03e b39c fabd
00000290: 6daf 843d cf57 993e 989b 80be e747 143d
000002a0: 570a 55be ad5f acbd 66fc 89be 93ee 04be
000002b0: 2956 0a3e c302 46be 5d62 3cbb d2ac 673d
000002c0: 2f04 4b3e 0477 15be 8ef7 df3c abd6 1f3e
000002d0: e6c7 aebc 1d64 9b3e 35fe 3ebe 47d6 9c3d
000002e0: c419 8bbe 6ec4 873e d609 8c3d 5123 3a3e
000002f0: b6cf 12bd 3a75 4abd 12b7 b5be 28d4 823d
00000300: 37c1 933b a12c aa3e 5a75 0b3f ffb3 60bd
00000310: 005e 55bd 790c 593d 8a56 fd3d 0818 f73d
00000320: f275 02bf 3b87 31be 6996 863d 0bf3 8a3e
00000330: d80a 4d3c 9944 db3d b291 9b3d 16b5 ae3e
00000340: 62ef 043e b439 a93e a995 8c3d 0cd2 c9bd
00000350: 0a94 47be 6e95 4fbd a660 6e3e a7cd 2cbe
00000360: 10f5 98be a441 733e e732 6a3e a1e0 99be
00000370: d71f 393d b295 babd f3cd 07bf 0765 8a3d
00000380: 34fd 4bbd daea 713e af79 5b3d 29e0 1fbe
00000390: 1285 c4be 542a 31bb ea6c bdbc 5aec 18be
000003a0: d727 043e 07c2 79be ccdb b43e e6fa 79bb
000003b0: ad91 64be c3a6 93be 7ffc 78be 0895 0cbe
000003c0: 7ac5 58bd febc 383d 2ed2 543d e1e1 8e3e
000003d0: 3670 afbd 23ae 3cbe 8f77 b23e eca4 de3c
000003e0: f72a 3ebe 08e6 8a3e 2247 b53e 70c8 0ebd
000003f0: 9c3e 91be ec26 46be 7fb7 9e3e 7690 d13d
-0.35548258 -0.57878816 -0.1363622 -0.10156565 -0.10831243 0.19171703 -0.9458767 0.66874874
0.23269552 -0.39288715 0.17220463 0.11987894 0.122168764 0.24596736 0.0586778 -0.06658242
-0.576389 -0.16872036 -0.65885 -0.12824127 -0.059399255 -0.24359387 -0.33014408 -0.4188991
0.27583918 0.23122536 -0.20494452 0.09057471 0.43458164 -0.23048057 0.29002503 -0.6455457
0.17187469 -0.20507808 -0.6634879 -0.14924952 0.16674244 0.149825 -0.14298588 -0.2541415
0.13467808 0.04937156 0.39849228 -0.61087114 -0.07851135 -0.014026535 -0.18746975 -0.32579467
0.5035854 0.17041254 0.04304076 -0.2050608 -0.025245737 0.12686096 0.30874032 0.53041095
-0.060847167 0.19743907 -0.0800436 -0.14763904 0.31380615 -0.44576558 -0.507683 -0.015950415
-0.051415145 -0.14281802 0.25070205 -0.40411636 0.50238514 -0.24963656 0.12773256 -0.019113544
0.26480088 -0.4048303 -0.07175348 -0.11613329 -0.095102854 -0.19932875 0.04903777 -0.21053566
0.090068415 0.11662563 0.054563552 -0.09054948 0.23719251 -0.2991196 0.6100562 0.41382137
-0.45232362 -0.42499787 0.15829496 -0.63479424 0.052516073 -0.032328892 0.06557851 -0.066111095
-0.5447224 0.24241601 -0.058874536 0.047528505 -0.21399158 0.3545426 -0.14518975 0.03198255
0.022543363 -0.18653677 0.18095532 0.3141278 0.30756304 0.16982491 0.20839164 0.046666402
0.2365098 0.26693887 0.24474703 0.18485904 0.029596115 -0.04263823 0.059410222 -0.28702495
-0.005156948 0.096202426 0.3005864 0.16748694 0.08579925 -0.010470958 0.09820049 0.25830236
0.3847953 0.20110367 0.08820904 -0.08444513 -0.053326633 -0.11675213 0.35622528 0.06425024
-0.20545864 -0.1524509 -0.45672056 -0.24222487 -0.03158527 -0.33296147 0.55207556 0.15510972
-0.21162204 0.18299186 0.14090768 -0.07301724 0.49295387 0.001035878 -0.09097716 0.015160352
0.44156134 -0.07670455 -0.23534796 -0.25883093 0.082369775 -0.014950263 0.06709951 -0.049904723
-0.14155266 -0.13222568 0.34484318 -0.12236919 0.06478772 0.29949805 -0.2511871 0.036201384
-0.20804726 -0.08416686 -0.26950377 -0.12981634 0.1350943 -0.19336991 -0.0028745153 0.0565613
0.19825815 -0.14596182 0.027339723 0.15609233 -0.021335553 0.30349818 -0.1865166 0.07658058
-0.27168095 0.2651705 0.068378136 0.18177535 -0.03584262 -0.049428202 -0.35491234 0.06388122
0.004509117 0.33237174 0.5447594 -0.054859158 -0.0520916 0.05299041 0.12370022 0.120651305
-0.5096122 -0.17336743 0.06571657 0.27138552 0.012514792 0.10706443 0.075961486 0.34122533
0.12981942 0.33051836 0.06864483 -0.098545164 -0.19490066 -0.050679617 0.23279056 -0.16875325
-0.29874468 0.23755509 0.2287098 -0.3005419 0.04519638 -0.09110583 -0.5304863 0.06757551
-0.04980202 0.23624745 0.053582843 -0.15612854 -0.38382775 -0.0027033286 -0.023123223 -0.14933911
0.12905823 -0.24390422 0.35323942 -0.0038143932 -0.22321196 -0.28838167 -0.2431507 -0.13728726
-0.052922703 0.045102112 0.051958255 0.27906707 -0.085663244 -0.18425803 0.3485684 0.02717825
-0.18571077 0.27128625 0.35405833 -0.03485912 -0.2836808 -0.19350785 0.3099937 0.10232632
