ml-1m_default/SASRec.epoch=720.lr=0.001.layer=2.head=1.hidden=50.maxlen=200.pth (torch, 860418 bytes, 28 tensors)

item_emb.weight f4 [3417, 50]
0.0 0.0 0.0 0.0 0.0 0.0 0.0 0.0
0.0 0.0 0.0 0.0 0.0 0.0 0.0 0.0
0.0 0.0 0.0 0.0 0.0 0.0 0.0 0.0
0.0 0.0 0.0 0.0 0.0 0.0 0.0 0.0
0.0 0.0 0.0 0.0 0.0 0.0 0.0 0.0
0.0 0.0 0.0 0.0 0.0 0.0 0.0 0.0
0.0 0.0 -0.008596199 -0.003019439 -0.07129438 -0.049378064 -0.124577984 0.15592337
-0.12781088 -0.19477837 -0.0826555 -0.09396267 0.001903026 0.0015976139 -0.07034947 -0.24357456
0.21409628 0.016072936 0.04071625 -0.33684587 -0.043645054 0.30886897 -0.034345735 0.14352848
-0.1609775 0.09375896 0.026167437 0.021089345 0.040290475 0.22003 0.42972147 -0.16374627
0.05242779 0.05373069 0.11817699 -0.0596722 -0.21379586 0.3236589 0.13322757 0.096764006
-0.10541935 -0.07260773 -0.104369186 -0.14729324 0.32013735 0.051823 0.074216686 -0.08539112
0.07016367 0.07723044 -0.08731861 0.09219758 -0.04586658 -0.31560788 -0.19984235 0.1326247
0.07808221 -0.05983368 -0.32660455 -0.28103197 0.13859145 0.17561422 0.27469245 -0.058741074
0.07319304 -0.1123023 -0.0057311575 0.32077885 -0.22190754 -0.5249494 -0.025409559 0.09905626
0.30164617 -0.014475994 -0.2790447 0.089048736 -0.10310355 -0.043296255 -0.098617435 0.13353014
-0.29943982 0.2758705 -0.07700576 0.28641817 0.28738344 0.23926213 0.10676773 0.21259381
0.20834124 -0.059212398 0.012355728 -0.06484008 -0.09272699 0.18732037 -0.14251088 0.06627547
-0.15113968 0.21123283 -0.10393353 -0.016913727 -0.056475114 -0.05161129 -0.26804954 0.0451234
0.1739942 0.17153658 0.13151045 0.1423779 -0.13335891 0.25374565 0.1670728 0.073621005
-0.20885012 -0.16461296 -0.06459797 0.09250659 0.055576645 0.1368704 -0.15753911 -0.64834094
0.195098 0.022880552 -0.1551036 0.016077029 -0.09610385 -0.19871186 0.13805863 0.061599933
0.026258735 0.17015201 0.016163139 0.26817688 -0.1342941 0.25802717 0.44686174 -0.073012374
0.082014255 0.15312919 -0.021817168 -0.00869873 -0.0820069 0.014997078 -0.34193835 -0.03849386
-0.050160673 -0.14043708 -0.11548412 0.011008785 0.14756362 -0.09759636 0.085087895 0.04672241
0.086664416 -0.016723674 0.07269675 0.008515962 0.10660467 0.055197738 -0.26101518 0.07212989
-0.01874163 0.06611943 0.098269865 -0.23783419 0.20733099 -0.21765724 0.09974565 -0.10708949
0.084463865 -0.34005955 -0.07461906 0.1614609 -0.071909145 0.25831568 -0.20936643 0.2838919
-0.013583996 0.14704196 -0.094006196 0.16207397 0.19188584 0.034929633 0.066724226 -0.031261545
0.10052498 -0.09599251 -0.071327046 0.47227097 0.09317444 0.0025961974 -0.11551241 0.010723298
-0.17076539 -0.07970014 0.13095836 0.14141789 0.024847677 -0.14654054 0.13551939 0.07744135
0.023601627 0.15775245 -0.065168716 0.15827735 0.17216611 0.062162016 -0.0078118523 -0.016074352
00000000: 0000 0000 0000 0000 0000 0000 0000 0000
00000010: 0000 0000 0000 0000 0000 0000 0000 0000
00000020: 0000 0000 0000 0000 0000 0000 0000 0000
00000030: 0000 0000 0000 0000 0000 0000 0000 0000
00000040: 0000 0000 0000 0000 0000 0000 0000 0000
00000050: 0000 0000 0000 0000 0000 0000 0000 0000
00000060: 0000 0000 0000 0000 0000 0000 0000 0000
00000070: 0000 0000 0000 0000 0000 0000 0000 0000
00000080: 0000 0000 0000 0000 0000 0000 0000 0000
00000090: 0000 0000 0000 0000 0000 0000 0000 0000
000000a0: 0000 0000 0000 0000 0000 0000 0000 0000
000000b0: 0000 0000 0000 0000 0000 0000 0000 0000
000000c0: 0000 0000 0000 0000 12d7 0cbc c8e1 45bb
000000d0: ca02 92bd a740 4abd be22 ffbd 60aa 1f3e
000000e0: dbe0 02be fb73 47be 4947 a9bd 806f c0bd
000000f0: f56e f93a 0767 d13a 6213 90bd 9c6b 79be
00000100: 0e3c 5b3e 64ab 833c 15c6 263d 1077 acbe
00000110: 28c5 32bd 1324 9e3e 1dae 0cbd 21f9 123e
00000120: 49d7 24be b304 c03d 185d d63c 90c3 ac3c
00000130: a007 253d 8b4f 613e 7404 dc3e 1aad 27be
00000140: 86be 563d b614 5c3d c706 f23d d66a 74bd
00000150: 4ded 5abe 9fb6 a53e cf6c 083e 352c c63d
00000160: 1ae6 d7bd 5db3 94bd 83bf d5bd 0ad4 16be
00000170: 0be9 a33e 5b44 543d ebfe 973d 8ae1 aebd
00000180: f8b1 8f3d fe2a 9e3d 19d4 b2bd 16d2 bc3d
00000190: 98de 3bbd 5b97 a1be 79a3 4cbe c5ce 073e
000001a0: 91e9 9f3d 2914 75bd b638 a7be 6ce3 8fbe
000001b0: ebea 0d3e 37d4 333e 7da4 8c3e 7b9a 70bd
000001c0: 3ce6 953d c0fe e5bd 6fcc bbbb 203d a43e
000001d0: bb3b 63be 1563 06bf b527 d0bc 02de ca3d
000001e0: 5e71 9a3e b82c 6dbc f2de 8ebe 2f5f b63d
000001f0: f427 d3bd 6a57 31bd f0f7 c9bd 20bc 083e
00000200: 2d50 99be e63e 8d3e 32b5 9dbd 67a5 923e
00000210: ec23 933e 2201 753e 0aa9 da3d 31b2 593e
00000220: 6857 553e b388 72bd ae6f 4a3c e0ca 84bd
00000230: a6e7 bdbd e9d0 3f3e 5fee 11be 6fbb 873d
00000240: 5cc4 1abe 6b4d 583e 1adb d4bd a88e 8abc
00000250: 7352 67bd 5c66 53bd ca3d 89be 50d3 383d
00000260: 892b 323e 49a7 2f3e adaa 063e 83cb 113e
00000270: 3d8f 08be f3ea 813e 2215 2b3e 9cc6 963d
00000280: cedc 55be 4d90 28be f14b 84bd 1874 bd3d
00000290: 56a4 633d c127 0c3e ef51 21be acf9 25bf
000002a0: c5c7 473e ff6f bb3c 7ad3 1ebe f9b3 833c
000002b0: 18d2 c4bd 1f7b 4bbe 3e5f 0d3e 3650 7c3d
000002c0: 8f1c d73c 543c 2e3e 8f68 843c 7b4e 893e
000002d0: 6484 09be 231c 843e 10cb e43e 8387 95bd
000002e0: 17f7 a73d e6cd 1c3e ebb9 b2bc 1e85 0ebc
000002f0: 3cf3 a7bd 4eb6 753c 8b12 afbe bdab 1dbd
00000300: 4775 4dbd bdce 0fbe f082 ecbd 315e 343c
00000310: eb1a 173e 9ae0 c7bd 9042 ae3d ff5f 3f3d
00000320: 1d7d b13d 1600 89bc 09e2 943d 8986 0b3c
00000330: 8d53 da3d 0617 623d c8a3 85be d6b8 933d
00000340: 0c88 99bc a069 873d b641 c93d ce8a 73be
00000350: 934e 543e 8ae1 5ebe 7347 cc3d bc51 dbbd
00000360: 64fb ac3d 491c aebe e1d1 98bd 0256 253e
00000370: 1a45 93bd f441 843e 2764 56be 475a 913e
00000380: 698f 5ebc 2b92 163e 5286 c0bd b8f6 253e
00000390: b97d 443e 6012 0f3d b6a6 883d 1b0c 00bd
000003a0: 0ae0 cd3d b997 c4bd ea13 92bd 80cd f13e
000003b0: 3ed2 be3d f724 2a3b c591 ecbd c6b0 2f3c
000003c0: 1fdd 2ebe d439 a3bd f319 063e dacf 103e
000003d0: 5b8d cb3c b90e 16be 98c5 0a3e 9299 9e3d
000003e0: 3358 c13c dc89 213e 2d77 85bd 7513 223e
000003f0: 504c 303e 999d 7e3d 91fa ffbb 5cae 83bc

pos_emb.weight f4 [201, 50]
0.0 0.0 0.0 0.0 0.0 0.0 0.0 0.0
0.0 0.0 0.0 0.0 0.0 0.0 0.0 0.0
0.0 0.0 0.0 0.0 0.0 0.0 0.0 0.0
0.0 0.0 0.0 0.0 0.0 0.0 0.0 0.0
0.0 0.0 0.0 0.0 0.0 0.0 0.0 0.0
0.0 0.0 0.0 0.0 0.0 0.0 0.0 0.0
0.0 0.0 0.70695996 -0.8880296 -0.04607735 0.10627161 -0.64917773 1.036224
0.7996526 -0.36860532 -1.1566898 -0.022063088 0.20109525 -1.4333007 -0.54299855 -1.7439014
0.42920884 -1.2154976 -1.1534536 1.2948077 0.36276093 1.1140984 0.5793141 -0.37744647
0.56681 -0.4610597 0.41728342 0.35416487 0.25647506 -1.4307781 -1.5301563 -0.53176177
-0.82192975 0.6098414 -0.3120424 -1.7494618 0.28922725 -0.34737197 1.2145019 0.099998035
-0.5926622 -0.09646894 1.7930292 -1.10762 -0.05946167 -1.2616142 -2.0734482 0.6853911
-0.38808244 -0.092882104 -0.5968477 -1.3144448 0.26949158 -0.13766052 -0.040909704 0.49609828
-0.24614817 0.58913857 1.1866088 -0.07216923 -1.0439891 -0.40675956 0.18344696 -0.37230012
-0.14932488 -1.323503 0.1409861 -0.9413714 -0.82462126 1.5503612 0.06996726 0.6051174
0.23492175 -0.4258146 0.56146026 0.71791637 0.71383834 0.58653396 0.21634814 -1.2893313
-1.1541513 -0.26873392 -0.51276714 0.40040633 -0.8170529 -0.96023154 0.68419087 -0.649752
0.62519646 0.105153486 -0.36101034 -0.3032934 0.7050908 -0.9364176 0.13614614 -1.1313547
-0.89131737 0.065074906 0.048642345 0.03580903 -0.45920077 -1.189857 0.28499705 -0.39808717
0.30248585 0.68038803 -0.3476969 0.1175356 1.1043005 -0.27553537 -0.5797523 -0.8882787
0.016154226 -0.4604276 0.02335899 -1.0052657 -0.08645361 -0.6163628 -0.5773278 1.4659473
0.11817576 0.70018786 0.16464417 -0.41808832 0.21776588 0.81710976 0.35421923 0.6216109
-0.24615277 -1.3474507 -1.01133 -0.4991325 -0.44244462 0.35783166 -0.5704711 -1.1223754
0.77600616 -0.579673 0.19068651 -0.13626496 0.059587043 -0.19852878 0.9197641 -0.95533943
0.20374036 -0.83849007 -0.4540328 -0.058968607 0.35072803 -0.30769962 0.22192374 -0.9568552
-0.08665999 0.07587456 0.17690504 1.0248853 0.12290508 0.48236293 1.3274989 -0.063271806
-0.658596 -0.42713878 0.36623123 -0.56443244 0.22907291 -0.8168089 -0.20241791 -0.629045
-0.004986281 1.5192887 0.12976983 0.37177125 0.022052707 -0.6112567 -0.12575334 0.9008093
0.26927426 0.87967527 -0.073943235 -1.4082677 -0.89137757 -0.55481607 -0.7709119 0.14097236
-0.66858053 -0.6861378 1.0548627 -0.56618375 0.018607613 -0.3456477 -0.19099581 -0.1310094
0.8340407 -0.801386 0.21044798 -0.8483956 -0.16585328 0.05557941 0.01609173 -0.38182673
0.064084925 -0.9779543 -0.3437339 -0.61045825 0.10141255 0.9480224 0.17747845 0.37438822
00000000: 0000 0000 0000 0000 0000 0000 0000 0000
00000010: 0000 0000 0000 0000 0000 0000 0000 0000
00000020: 0000 0000 0000 0000 0000 0000 0000 0000
00000030: 0000 0000 0000 0000 0000 0000 0000 0000
00000040: 0000 0000 0000 0000 0000 0000 0000 0000
00000050: 0000 0000 0000 0000 0000 0000 0000 0000
00000060: 0000 0000 0000 0000 0000 0000 0000 0000
00000070: 0000 0000 0000 0000 0000 0000 0000 0000
00000080: 0000 0000 0000 0000 0000 0000 0000 0000
00000090: 0000 0000 0000 0000 0000 0000 0000 0000
000000a0: 0000 0000 0000 0000 0000 0000 0000 0000
000000b0: 0000 0000 0000 0000 0000 0000 0000 0000
000000c0: 0000 0000 0000 0000 54fb 343f e855 63bf
000000d0: 9abb 3cbd eea4 d93d 8330 26bf fda2 843f
000000e0: 08b6 4c3f d6b9 bcbe 690e 94bf a6bd b4bc
000000f0: eaeb 4d3e 6676 b7bf f401 0bbf 2938 dfbf
00000100: 43c1 db3e 6d95 9bbf 5ea4 93bf 42bc a53f
00000110: cdbb b93e c79a 8e3f ee4d 143f aa40 c1be
00000120: 761a 113f 0410 ecbe 2ca6 d53e 1955 b53e
00000130: b350 833e bd23 b7bf 29dc c3bf 8a21 08bf
00000140: fd69 52bf 911e 1c3f 05c4 9fbe 5dee dfbf
00000150: 9815 943e bdda b1be cc74 9b3f c5cb cc3d
00000160: b6b8 17bf 8291 c5bd fb81 e53f 7ec6 8dbf
00000170: 158e 73bd 937c a1bf 60b3 04c0 cb75 2f3f
00000180: beb2 c6be f938 bebd 03cb 18bf ba3f a8bf
00000190: cdfa 893e e1f6 0cbe ef90 27bd 9800 fe3e
000001a0: 440e 7cbe c9d1 163f cce2 973f 76cd 93bd
000001b0: 6fa1 85bf ca42 d0be 85d9 3b3e 1f9e bebe
000001c0: 9fe8 18be 8c68 a9bf a95e 103e b7fd 70bf
000001d0: 611a 53bf 3c72 c63f ff4a 8f3d f9e8 1a3f
000001e0: 548f 703e 5f04 dabe dcbb 0f3f 5ec9 373f
000001f0: 1cbe 363f 1727 163f 5e8a 5d3e cf08 a5bf
00000200: 3bbb 93bf 7e97 89be b544 03bf 0f02 cd3e
00000210: 612a 51bf bcd1 75bf 2227 2f3f 2656 26bf
00000220: e00c 203f b65a d73d 59d6 b8be 4649 9bbe
00000230: d580 343f 10b9 6fbf e569 0b3e 3bd0 90bf
00000240: 602d 64bf fe45 853d 323d 473d 7dac 123d
00000250: 5d1c ebbe 3c4d 98bf 22eb 913e 15d2 cbbe
00000260: 6ddf 9a3e e92d 2e3f 5405 b2be 81b6 f03d
00000270: b859 8d3f f912 8dbe a66a 14bf 3c66 63bf
00000280: de55 843c 2bbd ebbe 5a5b bf3c 8cac 80bf
00000290: 970e b1bd f4c9 1dbf c1cb 13bf 29a4 bb3f
000002a0: 2206 f23d 833f 333f 7b98 283e ac0f d6be
000002b0: 05fe 5e3e 1b2e 513f 395c b53e e421 1f3f
000002c0: 790f 7cbe 4479 acbf 4373 81bf 4c8e ffbe
000002d0: 1a88 e2be b635 b73e 650a 12bf ffa9 8fbf
000002e0: 57a8 463f 7365 14bf 5343 433e 0b89 0bbe
000002f0: 8b11 743d 214b 4bbe a975 6b3f 2091 74bf
00000300: 50a1 503e 49a7 56bf fd76 e8be 1189 71bd
00000310: a092 b33e ce8a 9dbe fa3f 633e 76f4 74bf
00000320: cb7a b1bd 1f64 9b3d 9826 353e 712f 833f
00000330: a9b5 fb3d 46f8 f63e 7ceb a93f a694 81bd
00000340: bf99 28bf efb1 dabe a982 bb3e a57e 10bf
00000350: 1792 6a3e 631a 51bf a446 4fbe 1809 21bf
00000360: f563 a3bb 0d78 c23f 62e2 043e cd58 be3e
00000370: e1a7 b43c 527b 1cbf 7cc5 00be 709b 663f
00000380: 51de 893e 6632 613f 8d6f 97bd 1e42 b4bf
00000390: 5231 64bf 6d08 0ebf 7b5a 45bf 0f5b 103e
000003a0: 1828 2bbf baa6 2fbf be05 873f 6bf1 10bf
000003b0: fe6e 983c bcf8 b0be 6894 43be 5427 06be
000003c0: b183 553f a227 4dbf ad7f 573e 7430 59bf
000003d0: 71d5 29be 3ca7 633d ced2 833c cb7e c3be
000003e0: f53e 833d 375b 7abf e4fd afbe fe46 1cbf
000003f0: 62b1 cf3d 99b1 723f e9bc 353e d0af bf3e

attention_layernorms.0.weight f4 [50]
1.0757705 0.85099876 0.9282185 0.14133716 0.66922086 0.8763283 0.38953766 1.1646242
0.8264362 1.0373377 0.90456873 0.9832025 1.1506882 0.9075068 1.0459315 0.82614803
1.158719 0.31863704 1.1494886 1.1124514 0.83207506 0.95033777 1.0598426 0.75259596
0.99494183 0.9645917 1.1849583 0.15189229 0.8768172 0.82440805 1.1963859 0.7361473
0.9686856 1.0554184 1.1092261 0.534681 1.1560407 0.96518415 0.99117255 0.9975455
1.0657636 0.92072535 1.037026 0.84934855 1.080463 1.0558392 1.0835023 1.0754952
1.0609761 0.45342422
00000000: d9b2 893f 0edb 593f ba9f 6d3f b0ba 103e
00000010: 0f52 2b3f 0d57 603f 7b71 c73e 6812 953f
00000020: 5391 533f 7bc7 843f d191 673f 29b3 7b3f
00000030: c049 933f 5e52 683f 15e1 853f 707e 533f
00000040: e750 943f 6524 a33e 7122 933f cf64 8e3f
00000050: df02 553f 5649 733f eca8 873f 21aa 403f
00000060: 82b4 7e3f 7bef 763f b7ac 973f a789 1b3e
00000070: 1877 603f 680c 533f 2c23 993f 2674 3c3f
00000080: c8fb 773f f317 873f 1ffb 8d3f dbe0 083f
00000090: 24f9 933f 4f16 773f 7cbd 7d3f 245f 7f3f
000000a0: f16a 883f a8b4 6b3f 45bd 843f e86e 593f
000000b0: 9d4c 8a3f bd25 873f 34b0 8a3f d4a9 893f
000000c0: 11ce 873f 3827 e83e

attention_layernorms.0.bias f4 [50]
0.016162295 -0.16964398 -0.0770193 -0.12510417 -0.41850263 0.19892068 0.381831 0.0039616833
-0.3310513 0.14191553 0.18417753 -0.0797801 -0.11889694 -0.015602896 0.06619864 -0.13058223
-0.19539121 -0.6432578 0.5570508 0.15997986 0.19731635 0.34855488 -0.03355571 0.035724934
0.021945003 0.10942697 -0.0030648794 -0.10038041 0.06510173 0.059334766 0.020070003 -0.030580118
-0.0856144 -0.15574731 0.101301886 0.2330704 0.28371748 0.21786053 -0.03873373 0.14106275
0.0375991 -0.016897451 0.12691914 -0.2860621 0.07702206 0.1970287 -0.15711883 0.009567868
-0.3871271 -0.24307151
00000000: ca66 843c 27b7 2dbe 4bbc 9dbd 4f1b 00be
00000010: fa45 d6be ddb1 4b3e 5a7f c33e 02d1 813b
00000020: 8e7f a9be 4e52 113e 0999 3c3e c063 a3bd
00000030: 3d80 f3bd 4aa3 7fbc 2793 873d 59b7 05be
00000040: a214 48be 8bac 24bf e29a 0e3f c3d1 233e
00000050: 4c0d 4a3e c975 b23e b671 09bd 4f54 123d
00000060: 02c6 b33c 3f1b e03d 25dc 48bb 3f94 cdbd
00000070: 0e54 853d 0309 733d d969 a43c 2883 fabc
00000080: 9a56 afbd 397c 1fbe 5d77 cf3d 02aa 6e3e
00000090: 6b43 913e d516 5f3e 42a7 1ebd c172 103e
000000a0: 8401 1a3d 866c 8abc 17f7 013e bb76 92be
000000b0: bebd 9d3d e4c1 493e c2e3 20be 8cc2 1c3c
000000c0: 8635 c6be bde7 78be

attention_layernorms.1.weight f4 [50]
0.71891 0.72789913 0.85016423 0.48690858 0.59907424 1.0281978 0.33876124 0.8313457
0.83038265 0.6385179 0.7359629 0.7938908 0.91925704 0.7061266 0.93253374 0.7090838
0.73662734 0.21918528 0.67740893 0.71995145 0.68692976 0.6362624 0.51425207 0.53218627
0.85185385 0.56794006 1.1102715 0.27082905 0.4989956 0.58489263 0.93620044 0.49397066
0.7226354 0.8669966 0.7347375 0.3255833 0.8036793 0.7491602 0.79141587 0.5950195
0.7357659 0.75201666 1.03333 0.7035906 0.5032779 0.90619934 0.9076546 0.55635035
0.92227894 0.5577045
00000000: 7c0a 383f 9957 3a3f 5da4 593f 154c f93e
00000010: ee5c 193f fc9b 833f 1d72 ad3e 12d3 543f
00000020: f593 543f e975 233f 1168 3c3f 6d3c 4b3f
00000030: 6e54 6b3f b6c4 343f 88ba 6e3f 8486 353f
00000040: 9c93 3c3f 1b72 603e ac6a 2d3f bd4e 383f
00000050: a1da 2f3f 18e2 223f 06a6 033f 5c3d 083f
00000060: 1813 5a3f 8564 113f 601d 8e3f 1baa 8a3e
00000070: 5a7c ff3e 86bb 153f d5aa 6f3f b9e9 fc3e
00000080: a2fe 383f 7df3 5d3f c217 3c3f dbb2 a63e
00000090: edbd 4d3f f6c8 3f3f 3b9a 4a3f 3353 183f
000000a0: 275b 3c3f 2a84 403f 2844 843f 831e 343f
000000b0: d2d6 003f aefc 673f 0d5c 683f fa6c 0e3f
000000c0: 791a 6c3f b9c5 0e3f

attention_layernorms.1.bias f4 [50]
-0.04033434 -0.07546699 0.09049561 0.19779642 0.2021867 -0.05786826 -0.5345368 -0.057788104
0.2489375 0.1101144 -0.1085596 0.30147466 -0.23202617 0.1171781 0.09247329 -0.019179145
-0.089716345 -0.61428565 -0.08727011 -0.025621349 -0.12963179 -0.04588722 -0.011025959 -0.17069915
-0.056306522 -0.41232875 0.0908998 0.06562095 0.23632272 0.050107736 0.19165906 0.026429346
0.26234967 0.18281528 -0.21249922 0.024912931 -0.08113192 -0.14480917 -0.062881924 -0.029964771
0.056172065 0.19571054 -0.22748245 0.36554775 -0.064753845 0.13563322 -0.039707523 0.14719214
0.0051225224 0.09003433
00000000: 9f35 25bd 708e 9abd c355 b93d 258b 4a3e
00000010: 080a 4f3e 4507 6dbd 67d7 08bf 38b3 6cbd
00000020: 79e9 7e3e a983 e13d 7f54 debd e35a 9a3e
00000030: 4598 6dbe 12fb ef3d a362 bd3d 951d 9dbc
00000040: 34bd b7bd d341 1dbf acba b2bd dde3 d1bc
00000050: 32be 04be 3df4 3bbd 39a6 34bc c2cb 2ebe
00000060: aba1 66bd c11c d3be ad29 ba3d 4764 863d
00000070: 95fe 713e c53d 4d3d 4642 443e 5b82 d83c
00000080: b252 863e ee33 3b3e 6599 59be 3416 cc3c
00000090: 7e28 a6bd db48 14be 3dc8 80bd ae78 f5bc
000000a0: ae14 663d 5868 483e 29f1 68be 1329 bb3e
000000b0: aa9d 84bd 6fe3 0a3e 5ba4 22bd 89b9 163e
000000c0: d5da a73b eb63 b83d

attention_layers.0.in_proj_weight f4 [150, 50]
0.08648303 -0.07052787 0.03319337 -0.2766719 0.035119805 -0.09325281 -0.114490114 -0.1091956
-0.04069411 0.07618347 0.005666192 0.046502914 -0.043482848 0.036525875 -0.1103929 0.17011839
0.07001195 0.23043543 0.0929938 0.098710455 -0.09761407 0.023372782 -0.05236277 0.008049409
0.0063810204 -0.062079117 0.06444375 0.10102284 0.048409924 0.1538357 0.108682275 -0.029716203
0.11244508 0.0719269 0.030951766 0.104301035 -0.0750102 0.06110227 0.06034299 -0.039294574
0.035137124 -0.07671426 0.07554661 -0.040995862 -0.021441108 0.009806005 -0.042283513 -0.11854136
0.059917327 -0.070025854 -0.11920989 -0.016587945 0.07804473 -0.048368637 0.06570376 -0.0269595
0.4140798 -0.024557019 -0.06280761 0.011995702 -0.047054667 0.019740174 0.027062593 -6.9852395e-05
0.029773723 -0.041180566 -0.038677316 0.1321587 -0.07142351 -0.081096746 0.009332279 -0.081282154
-0.007454128 0.026943801 -0.018013123 0.08310342 -0.08126895 -0.2964849 0.1067771 -0.09295843
-0.015900644 -0.11092534 0.072157666 0.0459688 0.017354473 0.056856144 -0.08268561 -0.0031759057
-0.038612653 -0.034315877 0.008840271 0.016072704 -0.030325728 -0.074094415 0.019386819 0.00450628
-0.011590729 0.023701923 -0.05833232 0.21763436 -0.11291576 -0.05720046 0.0023233097 0.40399876
-0.046428017 -0.03301469 0.15692207 -0.04910751 -0.029895026 -0.121219136 -0.050124317 -0.12516473
-0.028015511 0.018093256 -0.06014314 0.047049247 -0.021886336 -0.12705168 -0.0047118813 0.0075546727
-0.043728624 0.013964772 -0.07784876 0.008864308 -0.09503256 0.009601709 0.036540654 -0.065357834
0.09262443 0.022443684 0.08726468 0.010977454 -0.0360101 0.028149858 0.05123102 -0.03812643
-0.048091635 0.014069352 0.01705398 0.019544637 -0.013083642 -0.040912054 0.032379366 -0.018133992
-0.056180693 -0.027917663 -0.02387004 0.033490904 -0.02962862 -0.00448182 -0.051998116 -0.08250737
0.051559314 0.63817483 0.10536652 0.055260964 0.13316976 -0.09199157 -0.057708472 0.008852135
-0.08356558 -0.05732172 -0.052652307 -0.119973995 -0.035443947 -0.08665842 -0.064678796 -0.014291705
0.10445227 0.027203565 0.012520542 -0.060334865 0.048533313 0.022861993 0.06383602 0.031759296
-0.034416422 -0.4407008 0.0040183063 -0.037058625 -0.03645861 0.047224928 0.039405674 -0.005176175
-0.023539376 -0.079181366 0.12353963 -0.08508272 -0.084116414 0.018692732 -0.027775126 -0.08282321
0.0017771821 0.055279296 -0.055496518 0.10447932 -0.11109083 0.0002530404 -0.0309994 0.037515342
-0.09604954 -0.015508843 -0.021939564 -0.032298185 -0.043756444 -0.043196797 -0.17745446 -0.0101454435
-0.014356074 -0.020853005 0.0011695113 0.018717062 -0.04734752 0.045287874 -0.021154223 0.008748554
0.025672443 -0.14205596 0.008480602 0.010304302 -0.0068116216 -0.028622022 0.024199037 0.04406642
-0.01354385 0.017602567 0.014708813 0.115673006 0.016719274 0.023913015 0.018676905 -0.0029689774
0.05000367 0.011057747 0.012227502 -0.08548575 -0.012222229 -0.07857692 -0.09320388 0.02139685
0.028011817 -0.0045132115 -0.025682565 0.009962885 0.01909013 -0.01906882 -0.010752369 0.009744819
-0.027762555 -0.062607944 0.056850042 -0.080179945 0.0077308086 0.5140819 0.051694695 -0.022974605
00000000: 041e b13d ea70 90bd c5f5 073d f0a7 8dbe
00000010: c9d9 0f3d 54fb bebd cb79 eabd f1a1 dfbd
00000020: deae 26bd 1406 9c3d 77ab b93b d779 3e3d
00000030: 121b 32bd 289c 153d ac15 e2bd 8433 2e3e
00000040: 6d62 8f3d 44f7 6b3e 8973 be3d b528 ca3d
00000050: e3e9 c7bd 4778 bf3c 587a 56bd abe1 033c
00000060: e117 d13b ac46 7ebd 16fb 833d 10e5 ce3d
00000070: 7c49 463d 1b87 1d3e d094 de3d 656f f3bc
00000080: 9b49 e63d 694e 933d 8f8e fd3c c89b d53d
00000090: f39e 99bd 6046 7a3d 362a 773d 59f3 20bd
000000a0: f2eb 0f3d 5e1c 9dbd 2eb8 9a3d 47eb 27bd
000000b0: 43a5 afbc 5ea9 203c 7a31 2dbd d0c5 f2bd
000000c0: df6b 753d b769 8fbd 5124 f4bd 71e3 87bc
000000d0: ead5 9f3d 311e 46bd b18f 863d 2bda dcbc
000000e0: 4402 d43e cd2b c9bc 47a1 80bd 9f89 443c
000000f0: 65bc 40bd 25b6 a13c 5fb2 dd3c b87d 92b8
00000100: 06e8 f33c f4ac 28bd 1b6c 1ebd 9c54 073e
00000110: 7d46 92bd 0d16 a6bd 6ae6 183c 4277 a6bd
00000120: c241 f4bb 3fb9 dc3c 4290 93bc 2032 aa3d
00000130: 5670 a6bd decc 97be f4ad da3d fd60 bebd
00000140: 1142 82bc d32c e3bd 66c7 933d c849 3c3d
00000150: f82a 8e3c fde1 683d 1357 a9bd db22 50bb
00000160: 4d28 1ebd ce8e 0cbd c9d6 103c e7aa 833c
00000170: a96d f8bc d0be 97bd 1bd1 9e3c 6ba9 933b
00000180: 0ae7 3dbc 892a c23c dfed 6ebd 8bdb 5e3e
00000190: 6140 e7bd 084b 6abd ab42 183b edd8 ce3e
000001a0: 4e2b 3ebd 693a 07bd 2eb0 203e f524 49bd
000001b0: 6ae6 f4bc bd41 f8bd 284f 4dbd 2f2b 00be
000001c0: c980 e5bc 4f38 943c a758 76bd b6b6 403d
000001d0: f94a b3bc d619 02be 2066 9abb 308d f73b
000001e0: c91c 33bd 80cc 643c 2c6f 9fbd 9a3b 113c
000001f0: 6ea0 c2bd 7d50 1d3c a7ab 153d 54da 85bd
00000200: e1b1 bd3d d1db b73c d3b7 b23d c7da 333c
00000210: 547f 13bd 889a e63c 9ed7 513d 762a 1cbd
00000220: bcfb 44bd 2483 663c cab4 8b3c 131c a03c
00000230: c65c 56bc 6693 27bd 3aa0 043d bd8d 94bc
00000240: ba1d 66bd 95b3 e4bc 1a8b c3bc c22d 093d
00000250: b8b7 f2bc 3bdc 92bb fafb 54bd a0f9 a8bd
00000260: dc2f 533d 6d5f 233f 67ca d73d 5259 623d
00000270: a75d 083e 1466 bcbd b85f 6cbd 8c08 113c
00000280: 6e24 abbd 2eca 6abd f2a9 57bd edb4 f5bd
00000290: ac2d 11bd f879 b1bd 5176 84bd c127 6abc
000002a0: 12eb d53d 03da de3c f622 4d3c b121 77bd
000002b0: deca 463d 1349 bb3c 76bc 823d 0916 023d
000002c0: 3cf8 0cbd 89a3 e1be ffab 833b c9ca 17bd
000002d0: a055 15bd ed6e 413d d867 213d e79c a9bb
000002e0: a6d5 c0bc d729 a2bd 5802 fd3d d93f aebd
000002f0: 3a45 acbd 8021 993c a988 e3bc 379f a9bd
00000300: 56f0 e83a 8b6c 623d 5150 63bd 41f9 d53d
00000310: 9783 e3bd 82aa 8439 74f2 fdbc b0a9 193d
00000320: 9fb5 c4bd cd18 7ebc 9aba b3bc 1a4b 04bd
00000330: f539 33bd 20ef 30bd 9fb6 35be 1339 26bc
00000340: bd35 6bbc ecd3 aabc 4a4a 993a 8654 993c
00000350: 79ef 41bd c77f 393d 9f4b adbc 1856 0f3c
00000360: 044f d23c 1e77 11be 39f2 0a3c 60d3 283c
00000370: 0634 dfbb bb78 eabc 0f3d c63c fe7e 343d
00000380: 06e7 5dbc 4233 903c 3cfd 703c f8e5 ec3d
00000390: dcf6 883c 3ae5 c33c 4f00 993c 2d93 42bb
000003a0: a6d0 4c3d 8d2b 353c dc55 483c 2713 afbd
000003b0: be3f 48bc f0ec a0bd ade1 bebd 7248 af3c
000003c0: 0a79 e53c 90e3 93bb 3e64 d2bc 5e3b 233c
000003d0: e862 9c3c 3736 9cbc b42a 30bc bca8 1f3c
000003e0: 4c6e e3bc 9838 80bd 97db 683d 6235 a4bd
000003f0: b952 fd3b df9a 033f d1bd 533d 3d35 bcbc

attention_layers.0.in_proj_bias f4 [150]
0.07873161 0.29868016 -0.03796256 0.23178644 -0.13784605 -0.25873953 -0.3012399 -0.24830486
0.61363655 -0.032256294 -0.90789866 -0.07845487 -0.17504378 -0.64795345 -0.1385812 0.9251579
1.2451575 -0.105852075 -0.020343304 -0.9169853 -0.41005218 0.06656863 -0.09851678 0.06658523
0.20914571 -0.7059209 -0.080679655 0.21457191 0.4256875 -0.032142144 -0.26344177 -0.46540058
-0.24143556 0.126396 -0.10695401 0.28745523 -0.03656256 -0.045255948 -0.3832826 0.32964963
-0.75047636 -0.15092897 -0.029476384 -0.6222961 -0.028551213 -0.21728308 -0.016661735 -0.4027688
-0.19832145 -0.2700919 0.0010828926 0.00020600863 0.0004130797 0.002415974 0.00047215668 -3.0520718e-05
9.9883455e-06 0.0006892607 -0.00013750485 -0.00022409063 -0.001518985 -0.0006471243 -7.8353005e-05 -0.0019770695
-0.00031029983 0.00094806426 -0.0011434519 -0.0005636654 -0.00030576065 -0.00014136937 -0.00033462708 -0.0004590463
-0.0002599479 -0.0004870412 0.00047019747 0.0018067661 0.00028238157 0.0006896176 -0.0012919685 0.0009635907
0.00087651686 -0.0006314314 -0.00010850374 -0.00033638306 0.001487112 6.853449e-05 -0.0005427617 -0.0005690785
0.00014167507 -0.001297707 0.00032606558 0.00021044802 -0.0007651162 0.0004439375 0.00033409597 -0.0008490442
-0.0002274392 -0.0004957389 0.00032595717 0.0004781186 0.19006607 -0.16513136 0.30454716 -0.10436793
0.3680184 0.039341908 -0.15854523 -0.23049223 0.08403977 0.16119201 0.10143773 -0.33493236
0.07841061 0.028893255 0.45205352 0.12743455 0.1480212 0.09977656 -0.71647936 0.024736822
0.009325641 0.15667675 0.19515291 0.15909305 0.31794938 0.02133429 0.039390143 -0.051566385
0.00028394526 0.43129852 -0.2419241 -0.29682136 0.045306627 0.30900782 -0.06570206 0.06007121
0.08431748 -0.3461611 0.055059206 0.09338977 0.32832667 0.2706669 -0.1497137 0.14463289
-0.091929145 -0.061685603 0.2982476 -0.13728896 -0.09156646 -0.38165674
00000000: 0a3e a13d 9bec 983e a17e 1bbd 6d59 6d3e
00000010: 8427 0dbe 8279 84be 1e3c 9abe a143 7ebe
00000020: 4917 1d3f 2d1f 04bd 0c6c 68bf f2ac a0bd
00000030: ad3e 33be 47e0 25bf 3be8 0dbe 26d7 6c3f
00000040: 5261 9f3f f9c8 d8bd 00a7 a6bc 8cbf 6abf
00000050: 5cf2 d1be 2255 883d 2ac3 c9bd d65d 883d
00000060: 4b2a 563e 3bb7 34bf 603b a5bd bdb8 5b3e
00000070: b6f3 d93e 7ba7 03bd d7e1 86be fc48 eebe
00000080: e23a 77be f46d 013e b40a dbbd 552d 933e
00000090: 9fc2 15bd 4d5e 39bd 9e3d c4be d6c7 a83e
000000a0: 381f 40bf 208d 1abe 7578 f1bc cc4e 1fbf
000000b0: 3ce4 e9bc 757f 5ebe 317e 88bc b637 cebe
000000c0: c714 4bbe 7c49 8abe d9ef 8d3a 0504 5839
000000d0: 9e92 d839 5155 1e3b cc8b f739 5f03 00b8
000000e0: 9e93 2737 81af 343a 2d2f 10b9 dff9 6ab9
000000f0: ae18 c7ba c7a3 29ba 7351 a4b8 b991 01bb
00000100: bdaf a2b9 8487 783a e1df 95ba f2c2 13ba
00000110: 804e a0b9 8d3c 14b9 e370 afb9 27ac f0b9
00000120: 9e49 88b9 9059 ffb9 d684 f639 03d1 ec3a
00000130: 9d0c 9439 74c7 343a 4557 a9ba 7a99 7c3a
00000140: 0dc6 653a a586 25ba 808c e3b8 925c b0b9
00000150: 33eb c23a 2dba 8f38 1f48 0eba 362e 15ba
00000160: 9d8e 1439 d217 aaba c8f3 aa39 b6ab 5c39
00000170: 1492 48ba 48c0 e839 9a29 af39 6492 5eba
00000180: bf7c 6eb9 79f4 01ba 3be5 aa39 feab fa39
00000190: aea0 423e 3218 29be 9bed 9b3e dabe d5bd
000001a0: e86c bc3e fb24 213d ae59 22be 2806 6cbe
000001b0: 0b1d ac3d 850f 253e 96be cf3d 417c abbe
000001c0: be95 a03d 8cb1 ec3c 8f73 e73e 347e 023e
000001d0: df92 173e a757 cc3d 316b 37bf e0a4 ca3c
000001e0: 93ca 183c df6f 203e 2ad6 473e 4ae9 223e
000001f0: 43ca a23e 40c5 ae3c 8f57 213d 4637 53bd
00000200: 7dde 9439 29d3 dc3e f4ba 77be f8f8 97be
00000210: 7193 393d 4636 9e3e cd8e 86bd 3b0d 763d
00000220: a5ae ac3d 073c b1be c385 613d 2343 bf3d
00000230: 6f1a a83e da94 8a3e 8c4e 19be a51a 143e
00000240: 5945 bcbd 0baa 7cbd e9b3 983e 7a95 0cbe
00000250: 3287 bbbd 8368 c3be

attention_layers.0.out_proj.weight f4 [50, 50]
0.034257688 0.24568342 -0.2144769 0.04184513 -0.054019164 -0.076107845 -0.13301466 -0.015039124
-0.51473 -0.23433818 -0.0076841232 0.18310454 -0.13842203 -0.11284277 -0.17458734 0.11542357
-0.08675942 0.010888921 0.105917506 0.0811523 -0.100157976 -0.01399248 -0.18765791 -0.010111387
-0.23211507 0.12836513 -0.12086896 -0.16480465 -0.10106236 0.08473573 -0.11950939 0.16636428
0.12809207 -0.13995191 -0.20516863 0.18333335 0.19629844 -0.018006321 -0.17089777 0.04843008
-0.16516557 -0.30725968 0.01167749 0.15300128 0.071564995 -0.29434243 -0.054866906 0.5185622
0.035525408 0.24422055 -0.12230821 -0.038607907 -0.6036933 -0.30621505 -0.06776299 0.27572381
-0.3639748 0.058694538 -0.0011675972 -0.51643604 -0.041231163 -0.05250559 0.16725607 -0.086603194
0.122343555 -0.06712804 0.109643586 -0.067098744 -0.17422408 -0.07008681 0.04965878 0.3907706
-0.08197939 -0.16757894 0.2132898 0.11151592 0.21194327 0.097663395 0.11772821 0.3668385
-0.15947612 -0.20762965 -0.28600395 -0.20491545 0.14539248 0.258621 0.36139882 -0.2589964
-0.0464775 -0.12119853 0.36164394 -0.015741313 0.18081845 0.2136712 -0.255381 0.42823747
0.13721025 -0.15732142 0.07359079 -0.18887518 -0.10205374 -0.31891388 -0.23899499 -0.09226075
-0.061744295 0.1735466 -0.080988646 0.06072438 -0.002108584 -0.02912187 0.03581941 0.48240066
0.1749005 -0.044975787 -0.2468615 0.0027535902 0.09638522 -0.38613877 0.2462917 -0.07805479
-0.15110333 0.08844347 0.06529506 -0.00032845736 -0.21005589 -0.284715 0.022994442 0.042871177
-0.13985547 -0.04892771 0.17465474 -0.32534954 -0.08687151 -0.12843965 -0.24053663 0.2269399
0.1448012 0.1803618 -0.028725598 0.024756934 -0.23056805 -0.085277855 -0.05812315 -0.09935297
-0.13638419 0.04322409 0.041208014 -0.15996383 -0.09278342 -0.01592589 -0.79777163 -0.14951399
-0.085198134 -0.056828577 0.43455556 -0.40954337 -0.4240692 0.27580166 0.23548849 -0.5797557
-0.44764987 -0.2286236 0.33650377 0.21985269 0.2359571 0.30812344 -0.1349569 -0.14716452
0.062481347 -0.19396937 -0.021308608 0.14046888 -0.15080306 0.55001795 -0.35614553 -0.2644047
-0.08636723 0.21023355 0.13079002 -0.3098972 -0.08040304 0.15733717 0.53518885 0.219682
0.06121055 -0.8055012 -0.48725033 0.15465117 0.23263419 0.030820014 -0.18833669 0.2880737
-0.011858514 -0.08456229 0.16340125 -0.11881013 -0.13979134 -0.022696279 0.9371937 -0.5610659
0.06975142 0.3991026 0.14886962 -0.031458903 -0.019863173 0.024928192 -0.42768636 0.07578825
-0.14258437 0.42059493 0.0005923541 0.31450006 0.12610927 -0.25955892 0.06446206 0.005292293
0.2760182 0.025445588 0.016157689 -0.23051393 -0.35702103 -0.24121594 0.4184799 -0.28798708
0.36340135 -0.1275906 0.24503458 0.070876464 0.18907762 0.004849923 -0.20402113 -0.108012125
0.1880529 0.12732206 -0.22124925 -0.22949855 0.27520034 0.2023876 0.18874265 -0.23569454
0.23096338 0.30441925 0.032891806 -0.123882286 0.011288671 0.1849392 -0.08630053 -0.0520371
-0.018266153 0.086365014 -0.09435938 -0.03237966 0.07003239 0.0024683909 0.0496273 -0.35746732
00000000: ca51 0c3d 6f94 7b3e d59f 5bbe cd65 2b3d
00000010: 3343 5dbd 6ede 9bbd ff34 08be a866 76bc
00000020: 58c5 03bf 59f6 6fbe 19cb fbbb c27f 3b3e
00000030: 81be 0dbe 1c1a e7bd 06c7 32be 3163 ec3d
00000040: ecae b1bd 7267 323c 47eb d83d 2d33 a63d
00000050: a01f cdbd b740 65bc 6529 40be 3baa 25bc
00000060: 93af 6dbe 2672 033e 258a f7bd 8dc2 28be
00000070: c8f9 cebd ed89 ad3d 57c1 f4bd 665b 2a3e
00000080: 912a 033e 8e4f 0fbe ba17 52be bdbb 3b3e
00000090: 7502 493e fe81 93bc d3ff 2ebe 9f5e 463d
000000a0: 2a21 29be 2451 9dbe f152 3f3c 5eac 1c3e
000000b0: ab90 923d 0db4 96be 1fbc 60bd 7ec0 043f
000000c0: 1783 113d f414 7a3e ba7c fabd 5323 1ebd
000000d0: a58b 1abf 38c8 9cbe 53c7 8abd ac2b 8d3e
000000e0: e85a babe af69 703d 100a 99ba 2735 04bf
000000f0: 02e2 28bd 1a10 57bd 2d45 2b3e 045d b1bd
00000100: 428f fa3d 6d7a 89bd d18c e03d 116b 89bd
00000110: cc67 32be ac89 8fbd 0167 4b3d 1613 c83e
00000120: cfe4 a7bd d099 2bbe a468 5a3e 7562 e43d
00000130: a807 593e bf03 c83d 7d1b f13d 42d2 bb3e
00000140: b54d 23be de9c 54be 1c6f 92be 5bd5 51be
00000150: c4e1 143e f969 843e 4409 b93e 2d9b 84be
00000160: 315f 3ebd ef36 f8bd 6529 b93e edf3 80bc
00000170: 7928 393e a0cc 5a3e 4cc1 82be f141 db3e
00000180: d880 0c3e de18 21be c5b6 963d 7f68 41be
00000190: 8d01 d1bd ae48 a3be 1abb 74be 34f3 bcbd
000001a0: 96e7 7cbd 33b6 313e 60dd a5bd 21ba 783d
000001b0: 2b30 0abb fd90 eebc 60b7 123d 38fd f63e
000001c0: 1e19 333e 8838 38bd 43c9 7cbe 9475 343b
000001d0: 9d65 c53d fbb3 c5be e433 7c3e 31db 9fbd
000001e0: d5ba 1abe da21 b53d 6bb9 853d cd34 acb9
000001f0: e418 57be 2ac6 91be d75e bc3c b099 2f3d
00000200: 4636 0fbe 6c68 48bd b1d8 323e 3794 a6be
00000210: b1e9 b1bd af85 03be 3c4f 76be ef62 683e
00000220: c446 143e c4b0 383e f251 ebbc 0ecf ca3c
00000230: 081a 6cbe 28a6 aebd 8a12 6ebd 9279 cbbd
00000240: 4ca8 0bbe be0b 313d bcc9 283d 8fcd 23be
00000250: 3c05 bebd 0377 82bc c33a 4cbf 321a 19be
00000260: 5c7c aebd 15c5 68bd 117e de3e abaf d1be
00000270: 991f d9be e035 8d3e e523 713e df6a 14bf
00000280: 5d32 e5be 4e1c 6abe 394a ac3e 1021 613e
00000290: bd9e 713e 5bc2 9d3e 2432 0abe 4cb2 16be
000002a0: 71ec 7f3d e89f 46be 648f aebc 13d7 0f3e
000002b0: 1e6c 1abe facd 0c3f b558 b6be 0e60 87be
000002c0: 4de1 b0bd 7747 573e d2ed 053e d9aa 9ebe
000002d0: 59aa a4bd ff1c 213e 2302 093f 51f4 603e
000002e0: eab7 7a3d 5435 4ebf e078 f9be e05c 1e3e
000002f0: a837 6e3e 417a fc3c 55db 40be 657e 933e
00000300: 364a 42bc fe2e adbd a852 273e ba52 f3bd
00000310: 7625 0fbe 8ced b9bc edeb 6f3f 04a2 0fbf
00000320: d5d9 8e3d 2d57 cc3e 4771 183e 0ddb 00bd
00000330: 18b8 a2bc 3536 cc3c b5f9 dabe df36 9b3d
00000340: a301 12be 3858 d73e 3648 1b3a 2706 a13e
00000350: ca22 013e e8e4 84be af04 843d f96a ad3b
00000360: 4252 8d3e 4473 d03c 215d 843c d80b 6cbe
00000370: 76cb b6be 5001 77be ff42 d63e 0b73 93be
00000380: be0f ba3e 1ca7 02be 58ea 7a3e ae27 913d
00000390: 909d 413e 1aec 9e3b eaea 50be 7635 ddbd
000003a0: f090 403e b760 023e 2a8f 62be ab01 6bbe
000003b0: 0fe7 8c3e b23e 4f3e c145 413e e959 71be
000003c0: aa81 6c3e d7dc 9b3e 8fb9 063d ffb5 fdbd
000003d0: 1ef4 383c b460 3d3e 55be b0bd db24 55bd
000003e0: e6a2 95bc 24e0 b03d 7e3f c1bd 89a0 04bd
000003f0: 246d 8f3d bac4 213b ff45 4b3d f505 b7be

attention_layers.0.out_proj.bias f4 [50]
0.010479277 -0.17368157 -0.13005309 -0.2280218 -0.56006074 0.19573633 0.35950923 -0.019858947
-0.3351427 0.13513108 0.17500103 -0.030927656 -0.16362762 -0.010085996 0.100097775 -0.1497078
-0.2119379 -0.6751137 0.5977912 0.1438773 0.22017033 0.43654427 -0.06250754 0.011933332
0.008341245 0.08038375 0.031527672 0.05261801 0.046319384 0.09969249 0.021194797 -0.019750975
-0.066486694 -0.16457172 0.044313625 0.31325108 0.30335754 0.26130357 -0.014314071 0.10496339
0.04137233 0.03374553 0.12251852 -0.34940156 0.12758076 0.24162245 -0.1790467 0.07419262
-0.43954697 -0.41655207
00000000: 46b1 2b3c 95d9 31be a32c 05be 8c7e 69be
00000010: 2460 0fbf 1b6f 483e 9811 b83e 3baf a2bc
00000020: d397 abbe cd5f 0a3e 7833 333e ff5b fdbc
00000030: 008e 27be bc3f 25bc 1000 cd3d 004d 19be
00000040: 4006 59be 40d4 2cbf d808 193f 9254 133e
00000050: 5574 613e bb82 df3e f403 80bd 0684 433c
00000060: b8a9 083c 3ca0 a43d 2923 013d fc85 573d
00000070: 65b9 3d3d 942b cc3d b6a0 ad3c cccc a1bc
00000080: 2d2a 88bd 7d85 28be 3482 353d 7262 a03e
00000090: ae51 9b3e 95c9 853e 9185 6abc 0cf7 d63d
000000a0: 0876 293d c138 0a3d fdea fa3d c3e4 b2be
000000b0: 88a4 023e e06b 773e 0558 37be 4df2 973d
000000c0: 4d0c e1be 5046 d5be

attention_layers.1.in_proj_weight f4 [150, 50]
0.22679678 -0.08873925 -0.3438718 0.31077784 -0.0860928 0.037580445 0.4546283 -0.095718116
-0.2381356 -0.12943174 0.026450228 -0.08073144 -0.20211284 -0.080368616 -0.021110913 -0.12522447
0.11616142 0.059989374 0.04608177 -0.0678695 -0.19509508 0.15553124 -0.20435162 -0.18641269
0.27176887 0.26120865 -0.05115134 0.41684735 0.42338547 0.098535545 -0.06821573 -0.20183653
0.034650933 -0.1373143 0.012598442 0.13053375 0.09604928 -0.05301343 0.052570924 -0.012646138
0.025515907 -0.27534807 0.12792537 -0.13717762 -0.18923531 0.1820487 -0.083836906 0.096432075
-0.07905603 -0.2104913 0.034710582 -0.07486165 -0.22675852 -0.19443892 0.31295478 -0.12059733
0.25923848 -0.062260244 -0.020402823 -0.052663047 -0.17237246 0.026140803 0.18553896 0.09827415
0.15535341 0.0092405 -0.081163034 -0.22552252 0.015850753 -0.06859304 0.051306073 -0.1687775
0.32686734 0.0317011 -0.077897154 0.029664414 0.026283571 -0.6939484 0.08501495 0.23813795
-0.034339044 -0.15818962 0.016002126 -0.046972383 0.057235617 0.11696451 0.1223796 0.04137261
0.10108209 -0.07580445 -0.0739402 -0.0542271 -0.06099712 0.41792527 0.15298603 0.1399953
0.02086489 -0.112400495 0.1542402 0.40007317 -0.1036234 -0.0075297225 -0.04985351 0.1693732
0.045289066 -0.011553221 0.43673053 -0.13406123 0.058094397 -0.026251977 0.0007166536 -0.22669569
0.22563419 0.33784223 -0.09152097 0.038054414 0.088915676 0.15842997 0.15605068 -0.044358484
0.17367212 -0.17396471 -0.019436616 -0.10723704 -0.060267013 -0.23895921 0.11103987 0.901815
-0.23379442 0.30194375 -0.027153583 -0.05708949 -0.119147345 -0.111038014 0.111918285 -0.003704624
-0.28859845 0.012566306 -0.010133833 0.074333176 0.16321293 -0.042739145 0.05109169 0.06405439
0.14948063 -0.002673138 -0.03775336 -0.12001992 0.095815085 -0.32245445 -0.31956726 0.101105854
0.035303522 0.08761116 -0.2977866 -0.1272607 0.33559933 -0.0064415196 -0.12032776 -0.14816347
0.029565066 0.008115306 0.16104056 0.13538006 0.0949283 0.12743632 -0.11889737 -0.06165124
0.0032528294 0.10190943 0.1014104 0.008726651 0.19790658 -0.07570939 -0.0038587172 -0.2030663
0.1573123 -0.18211573 -0.062409043 -0.042989254 0.066774786 -0.26362404 0.16392547 0.21897289
-0.061811335 0.098320425 0.1831431 0.09331834 0.21078448 0.22071697 0.018843612 -0.035272565
0.0053697918 0.06738191 0.18769357 0.005614803 0.16265197 0.048566394 -0.051798154 0.17157438
-0.0009625966 0.06070311 -0.032239493 0.018046398 -0.01018962 -0.083718635 0.3878276 0.14355752
0.012894699 -0.18966816 0.118125185 0.13384785 -0.21391325 -0.01462457 -0.015737092 -0.10288698
-0.414247 -0.030519262 0.05071658 -0.11516974 -0.20360461 -0.19738202 -0.14890803 -0.10396973
-0.045408092 -0.08350015 0.09243635 0.39341778 -0.3133558 -0.09353165 0.22602405 -0.07468049
-0.08458685 -0.093024716 -0.024897367 0.22142285 -0.070593335 0.28605393 0.08672484 0.041106846
0.008477752 -0.08926291 -0.10721591 0.20687361 -0.348028 0.10705716 0.042715985 -0.04154751
0.15817623 -0.06760057 -0.00662237 -0.09160439 -0.064238355 -0.5824748 -0.16176715 0.079653606
00000000: 6a3d 683e edbc b5bd f70f b0be 461e 9f3e
00000010: 6c51 b0bd f4ed 193d 0ac5 e83e dc07 c4bd
00000020: d2d9 73be c189 04be 26ae d83c 8656 a5bd
00000030: abf6 4ebe 4d98 a4bd cbf0 acbc d83a 00be
00000040: 0ae6 ed3d 6bb7 753d 3dc0 3c3d 2aff 8abd
00000050: 01c7 47be 9543 1f3e 8d41 51be f8e2 3ebe
00000060: 4a25 8b3e 24bd 853e 1184 51bd 046d d53e
00000070: fbc5 d83e 01cd c93d b0b4 8bbd 3cae 4ebe
00000080: 23ee 0d3d 1f9c 0cbe b269 4e3c a4aa 053e
00000090: 7cb5 c43d 9c24 59bd 9c54 573d bf31 4fbc
000000a0: bc06 d13c 6cfa 8cbe defe 023e 4a78 0cbe
000000b0: e7c6 41be f96a 3a3e afb2 abbd 2e7e c53d
000000c0: 21e8 a1bd 088b 57be af2c 0e3d 1151 99bd
000000d0: 6333 68be ff1a 47be 9c3b a03e bcfb f6bd
000000e0: e8ba 843e 9904 7fbd d223 a7bc 35b5 57bd
000000f0: 6882 30be 3d25 d63c edfd 3d3e f543 c93d
00000100: f714 1f3e 7765 173c ce38 a6bd 60ef 66be
00000110: 70d9 813c 827a 8cbd 5126 523d 02d4 2cbe
00000120: 285b a73e 03d9 013d 8b88 9fbd c902 f33c
00000130: a550 d73c 9aa6 31bf 511c ae3d 6fda 733e
00000140: 19a7 0cbd 76fc 21be e416 833c 1d66 40bd
00000150: e56f 6a3d 178b ef3d 28a2 fa3d 5376 293d
00000160: 2004 cf3d 5d3f 9bbd f66d 97bd 3c1d 5ebd
00000170: 1ed8 79bd 4dfa d53e 5fa8 1c3e ee5a 0f3e
00000180: d9ec aa3c 3b32 e6bd 25f1 1d3e 64d6 cc3e
00000190: 8138 d4bd e4bb f6bb 3233 4cbd 2b70 2d3e
000001a0: 0781 393d b949 3dbc 259b df3e 5947 09be
000001b0: 64f4 6d3d 630e d7bc cfdd 3b3a ea22 68be
000001c0: a60c 673e a8f9 ac3e 596f bbbd f2de 1b3d
000001d0: 6c19 b63d 773b 223e c0cb 1f3e 3eb1 35bd
000001e0: 1bd7 313e ce23 32be 8a39 9fbc 189f dbbd
000001f0: 8bda 76bd b9b1 74be df68 e33d 59dd 663f
00000200: ce67 6fbe 5f98 9a3e 3171 debc abd6 69bd
00000210: 8603 f4bd e667 e3bd 6a35 e53d 47c9 72bb
00000220: 2dc3 93be e8e2 4d3c 6008 26bc fe3b 983d
00000230: 4a21 273e 3e0f 2fbd 8545 513d f32e 833d
00000240: 7311 193e d02f 2fbb 44a3 1abd 01cd f5bd
00000250: b33a c43d c018 a5be 529e a3be 9610 cf3d
00000260: 6d9a 103d 7b6d b33d 7c77 98be a150 02be
00000270: add3 ab3e 6213 d3bb 676e f6bd 2ab8 17be
00000280: 7032 f23c 0ff6 043c d1e7 243e 12a1 0a3e
00000290: c569 c23d ab7e 023e 7780 f3bd 0386 7cbd
000002a0: 6c2d 553b e4b5 d03d 41b0 cf3d 3afa 0e3c
000002b0: 06a8 4a3e 860d 9bbd 88e2 7cbb 9df0 4fbe
000002c0: 7a16 213e 8c7c 3abe a0a0 7fbd 8015 30bd
000002d0: 38c1 883d bbf9 86be 14dc 273e 6e3a 603e
000002e0: e22d 7dbd 385c c93d dd89 3b3e b01d bf3d
000002f0: e3d7 573e a103 623e eb5d 9a3c f779 10bd
00000300: 14f5 af3b 87ff 893d be32 403e 62fc b73b
00000310: 3d8e 263e 8eed 463d 4d2a 54bd 32b1 2f3e
00000320: c456 7cba d3a3 783d 8f0d 04bd 0ad6 933c
00000330: 5df2 26bc ad74 abbd 5791 c63e be00 133e
00000340: 4a44 533c 5f38 42be 9eeb f13d 690f 093e
00000350: 130c 5bbe e49b 6fbc 13eb 80bc 69b6 d2bd
00000360: 2f18 d4be 8803 fabc 30bc 4f3d 1dde ebbd
00000370: ba7d 50be 831e 4abe 597b 18be 15ee d4bd
00000380: d6fd 39bd 2002 abbd 454f bd3d 0e6e c93e
00000390: 2c70 a0be 868d bfbd d972 673e 16f2 98bd
000003a0: df3b adbd be83 bebd 90f5 cbbc acbc 623e
000003b0: 3d93 90bd a975 923e cb9c b13d a75f 283d
000003c0: 45e6 0a3c 79cf b6bd 0494 dbbd add6 533e
000003d0: ba30 b2be c940 db3d f5f6 2e3d b92d 2abd
000003e0: f3f8 213e 2b72 8abd 7700 d9bb 159b bbbd
000003f0: 668f 83bd 121d 15bf 4aa6 25be 6e21 a33d

attention_layers.1.in_proj_bias f4 [150]
-0.3231497 -0.11048422 0.39326203 -0.53643864 -0.1968076 -0.069551244 0.06608212 -0.098416775
-0.025516164 0.27872205 -0.65832907 -0.63810396 -0.0298359 0.015393249 -0.06536913 -0.69270086
-0.017278811 -0.04736841 0.43214014 -0.16038182 -0.19762899 0.30037975 -0.35142028 0.065067224
0.02914237 0.028917095 0.046550684 -0.23679234 0.037403617 -0.003157513 0.15938672 -0.15393375
0.08635545 0.6452767 -0.28276092 0.46801955 0.4901946 0.44605595 -0.3600045 -0.29842976
0.36369678 0.30710244 -0.5391091 0.3419524 -0.7662622 -0.4479062 -0.4381996 -0.5215069
-0.70628107 0.20234208 0.030241841 -0.004785998 0.018085212 0.030082066 0.013033148 -0.0076310355
-0.01786094 0.020439833 0.0014772826 -0.044402275 0.032491922 0.008036403 0.021169065 0.018763416
0.0109348595 0.005218325 0.00027296963 -0.010270561 -0.03178063 0.01674466 0.025252985 0.006857242
-0.005449244 0.017878661 0.007137068 -0.004185961 0.024271851 0.034336284 0.03234213 0.0019022409
0.012809416 0.032896202 -0.023325186 -0.05701709 0.001824594 -0.0044273464 -0.022123963 -0.033669595
0.014206527 0.0022026345 -0.0196749 0.0065538287 0.033981767 -0.07804741 0.013342266 0.025672195
0.022364326 0.032854594 0.024653781 0.009463107 -0.4357093 0.08005028 0.14367133 0.043017935
0.32293057 0.080084965 0.0024194454 -0.1568599 0.06427313 0.11519377 0.082704924 -0.03226773
0.11820241 0.052655477 -0.40832707 0.109270744 0.04671742 -0.14867678 -0.0006361477 0.20556377
0.18468907 0.1548168 -0.027129646 -0.09196776 0.030157672 0.0073348917 -0.08119173 -0.034543537
0.004736005 -0.31272778 0.17380294 0.068247296 0.2122559 0.11861001 0.06696263 0.23541395
0.21878146 0.18467104 -0.006486821 0.0623407 0.27355918 -0.16124423 -0.2505422 0.25131842
0.009174296 -0.18144606 0.18282098 0.12124278 0.19110067 -0.18258837
00000000: e173 a5be 8d45 e2bd a459 c93e 0b54 09bf
00000010: ee87 49be e270 8ebd 1056 873d bc8e c9bd
00000020: 4607 d1bc a8b4 8e3e 4188 28bf c85a 23bf
00000030: 6b6a f4bc f733 7c3c 40e0 85bd d854 31bf
00000040: 4b8c 8dbc 6105 42bd 7941 dd3e 223b 24be
00000050: 415f 4abe 60cb 993e 5ced b3be f741 853d
00000060: fbbb ee3c 8be3 ec3c eeab 3e3d b179 72be
00000070: 8934 193d 47ee 4ebb 4636 233e cfa0 1dbe
00000080: 20db b03d db30 253f 0ac6 90be 42a0 ef3e
00000090: c9fa fa3e 7261 e43e 8352 b8be c9cb 98be
000000a0: 7736 ba3e 883c 9d3e 0e03 0abf 6314 af3e
000000b0: c229 44bf f653 e5be b35b e0be 7a81 05bf
000000c0: d6ce 34bf c332 4f3e bdbd f73c dcd3 9cbb
000000d0: 7027 943c aa6e f63c fc88 553c c40d fabb
000000e0: 1b51 92bc 7071 a73c 61a1 c13a 29df 35bd
000000f0: 4016 053d 1eab 033c bf6a ad3c bcb5 993c
00000100: 2028 333c 7cfe aa3b 5d1d 8f39 db45 28bc
00000110: 682c 02bd 192c 893c 59df ce3c b7b2 e03b
00000120: 928f b2bb 4576 923c 11de e93b 632a 89bb
00000130: c3d5 c63c 34a4 0c3d 2e79 043d 9d54 f93a
00000140: 96de 513c 2bbe 063d 7614 bfbc c18a 69bd
00000150: 3727 ef3a 4613 91bb 503d b5bc 21e9 09bd
00000160: 7ec2 683c 135a 103b 422d a1bc 80c1 d63b
00000170: 7730 0b3d 52d7 9fbd 8599 5a3c 7f4e d23c
00000180: 6435 b73c 8a92 063d baf6 c93c 260b 1b3c
00000190: 4a15 dfbe 67f1 a33d 941e 133e 9333 303d
000001a0: 2857 a53e 9603 a43d 8f8f 1e3b e29f 20be
000001b0: a1a1 833d b6ea eb3d 3361 a93d 2b2b 04bd
000001c0: 1b14 f23d 45ad 573d 3f10 d1be 57c9 df3d
000001d0: c45a 3f3d ba3e 18be 26c3 26ba 4f7f 523e
000001e0: 221f 3d3e 4c88 1e3e fe3e debc 9859 bcbd
000001f0: 390d f73c 8859 f03b da47 a6bd 867d 0dbd
00000200: 7d30 9b3b db1d a0be 66f9 313e 3dc5 8b3d
00000210: 9c59 593e cee9 f23d b423 893d 5b10 713e
00000220: 3f08 603e 681a 3d3e 668f d4bb f658 7f3d
00000230: f30f 8c3e 351d 25be 1147 80be cfac 803e
00000240: c94f 163c ffcc 39be 6c35 3b3e 224e f83d
00000250: e5af 433e 72f8 3abe

attention_layers.1.out_proj.weight f4 [50, 50]
-0.13515407 0.3809719 0.28192395 -0.24327746 0.19549266 0.20039977 -0.020477682 0.19978689
-0.75313264 -0.10953029 0.14077829 -0.2081998 0.29028186 -0.25078592 -0.11703582 -0.023914106
-0.019364655 0.30933985 -0.05451746 0.34394076 0.22851399 0.5158129 -0.02563003 0.058218125
0.007453222 -0.01378494 0.2495332 0.1560432 0.056181338 0.14567065 -0.022523396 0.28579444
0.32321504 0.25635618 0.13334066 -0.16247727 -0.16791792 -0.12240002 -0.012109312 -0.21006744
-0.20935799 -0.27662057 0.035145763 0.19512886 0.33624738 -0.105902374 0.06904826 -0.2736562
-0.02900194 0.30367833 -0.3494178 -0.17905116 -0.5014002 -0.013238129 0.24342363 0.04777068
-0.3303467 0.42837694 -0.27872044 0.74388176 0.15661497 0.005373378 -0.30047023 0.0445973
-0.24468817 -0.012039439 -0.7930075 -0.4721437 -0.06289294 -0.34289494 0.28370434 -0.015300889
-0.1964381 -0.18064946 -0.15533829 0.21753661 0.14847271 0.22970408 -0.13006525 -0.086752675
-0.14342254 -0.24626373 0.020732809 0.4237112 -0.473866 -0.2001497 -0.3288848 -0.19731483
0.030131932 0.17090791 0.5580956 -0.1137378 -0.30375612 0.017906964 0.14723441 -0.20771466
0.29751253 0.31984544 -0.1799715 0.027223652 -0.056883365 0.1447617 0.029044984 -0.08599911
0.26994148 0.5530937 -0.029379923 -0.012199716 0.10942971 -0.11624481 0.30711484 -0.4036527
-0.51445425 -0.15343837 -0.11461772 0.17195854 0.1811169 0.1998203 -0.10084023 -0.37019056
-0.2782736 -0.47366843 0.021479614 0.38277698 -0.069555394 0.08915048 0.20302914 -0.008318386
-0.005964034 0.10214827 0.16642086 0.26104018 -0.05960803 -0.20505708 -0.12929289 0.04218266
-0.01300376 -0.04791141 0.18544605 -0.37390432 -0.05011689 0.06625432 0.3003261 -0.044823285
-0.27471226 0.048419748 0.12775502 0.28186506 0.077448666 0.08140793 0.18078563 -0.27023956
0.068067946 -0.35856006 0.17185323 -0.005930603 0.33976105 -0.12920205 0.16633855 -0.21874774
-0.27466902 -0.16545174 0.12780268 -0.30627736 -0.015354432 0.4638488 -0.025293337 0.061988693
0.07189865 -0.14286463 0.52206194 -0.37095615 0.03183053 -0.23196474 -0.057940174 -0.1493938
-0.08545941 0.03995119 0.42868388 -0.26224184 -0.4843191 -0.15791504 0.35576695 0.37983158
0.5322232 -0.78904235 0.6548496 -0.10637036 -0.049770575 0.4663512 -0.20254225 0.4472951
0.070619866 0.2314886 0.0072223595 0.13749447 -0.23241201 0.11536029 0.6100931 0.01923085
0.3057179 0.30997595 0.04123095 -0.06763381 -0.34106025 0.0017823932 -0.09976305 -0.068050504
-0.13586406 0.13465965 -0.10348782 -0.001373887 -0.25212568 -0.00050158787 0.792945 -0.15404196
-0.24848574 -0.04215176 0.1477916 -0.13833357 0.10188143 -0.019006405 -0.22539473 -0.070210405
-0.15863127 -0.21271166 0.20556039 -0.50839144 0.33431748 -0.63652885 -0.10867899 0.053154238
0.2598539 -0.058454994 0.013550822 -0.18804033 -0.31735492 0.525739 -0.17327057 -0.082500935
-0.15987156 0.048075557 -0.10016022 0.25190017 0.13489538 0.16277298 -0.1942799 -0.22358193
0.012095987 0.097221054 0.45932022 -0.135483 -0.15408754 -0.22416994 0.48038283 -0.0043533957
00000000: d465 0abe c00e c33e 5658 903e ba1d 79be
00000010: 3a2f 483e 9935 4d3e d0c0 a7bc ef94 4c3e
00000020: 4dcd 40bf 6b51 e0bd 2f28 103e 5432 55be
00000030: d39f 943e 0367 80be 7ab0 efbd 84e7 c3bc
00000040: a0a2 9ebc cb61 9e3e b34d 5fbd 0119 b03e
00000050: 92ff 693e 500c 043f 12f6 d1bc 2176 6e3d
00000060: 283a f43b 3bda 61bc a285 7f3e cac9 1f3e
00000070: 671e 663d b02a 153e fc82 b8bc a653 923e
00000080: 717c a53e 1e41 833e 748a 083e 7160 26be
00000090: adf2 2bbe ddac fabd 2366 46bc eb1b 57be
000000a0: f161 56be 36a1 8dbe 01f5 0f3d dccf 473e
000000b0: 9e28 ac3e 58e3 d8bd 2d69 8d3d aa1c 8cbe
000000c0: 7a95 edbc ba7b 9b3e e4e6 b2be 3059 37be
000000d0: c35b 00bf bde4 58bc 0b44 793e 30ab 433d
000000e0: 3423 a9be 3954 db3e 72b4 8ebe 096f 3e3f
000000f0: ad5f 203e 2913 b03b 3cd7 99be a9ab 363d
00000100: 898f 7abe 1141 45bc 8a02 4bbf d2bc f1be
00000110: 04ce 80bd ed8f afbe b241 913e 94b0 7abc
00000120: 1227 49be 2cfc 38be 0011 1fbe ebc1 5e3e
00000130: 3b09 183e 8c37 6b3e d32f 05be 63ab b1bd
00000140: 5cdd 12be 8f2c 7cbe dad7 a93c adf0 d83e
00000150: 909e f2be 0bf4 4cbe 9763 a8be e60c 4abe
00000160: 3ed7 f63c 7c02 2f3e 5adf 0e3f 5def e8bd
00000170: ec85 9bbe a0b1 923c 9ec4 163e 27b3 54be
00000180: 9053 983e c8c2 a33e 734a 38be 2304 df3c
00000190: 88fe 68bd 693c 143e bfef ed3c 4d20 b0bd
000001a0: c535 8a3e 8c97 0d3f 2aae f0bc 51e1 47bc
000001b0: af1c e03d c211 eebd 283e 9d3e 91ab cebe
000001c0: 46b3 03bf f31e 1dbe b2bc eabd e615 303e
000001d0: b576 393e b19d 4c3e 5385 cebd 9e89 bdbe
000001e0: e179 8ebe ab84 f2be 04f6 af3c 58fb c33e
000001f0: 0f73 8ebd 8794 b63d dfe6 4f3e d749 08bc
00000200: f16d c3bb 1d33 d13d 3b6a 2a3e 0fa7 853e
00000210: 8d27 74bd 7cfa 51be 5b65 04be bac7 2c3d
00000220: b90d 55bc c13e 44bd 92e5 3d3e 6370 bfbe
00000230: 5e47 4dbd 58b0 873d 58c4 993e 9f98 37bd
00000240: 16a7 8cbe c953 463d 36d2 023e 9e50 903e
00000250: 689d 9e3d 33b9 a63d de1f 393e d75c 8abe
00000260: 3567 8b3d 2f95 b7be 4bfa 2f3e 8155 c2bb
00000270: 29f5 ad3e 8b4d 04be a754 2a3e 68ff 5fbe
00000280: 6ba1 8cbe 2e6c 29be b5de 023e 63d0 9cbe
00000290: 2891 7bbc 977d ed3e f933 cfbc dbe7 7d3d
000002a0: 993f 933d 1b4b 12be daa5 053f f7ed bdbe
000002b0: bb60 023d 2a88 6dbe ad52 6dbd b0fa 18be
000002c0: 5805 afbd dca3 233d 747c db3e 9044 86be
000002d0: acf8 f7be 7bb4 21be 1627 b63e 4979 c23e
000002e0: c83f 083f aefe 49bf 39a4 273f b4d8 d9bd
000002f0: 3bdc 4bbd 96c5 ee3e 3c67 4fbe dd03 e53e
00000300: 26a1 903d 590b 6d3e 8ba9 ec3b 5acb 0c3e
00000310: 6afd 6dbe 0442 ec3d 102f 1c3f 048a 9d3c
00000320: 0e87 9c3e 2bb5 9e3e c9e1 283d 9883 8abd
00000330: 739f aebe 319f e93a 9250 ccbd 105e 8bbd
00000340: f31f 0bbe 38e4 093e 6cf1 d3bd ff13 b4ba
00000350: 9e16 81be fe7c 03ba 72fe 4a3f 2dbd 1dbe
00000360: 0c73 7ebe 53a7 2cbd ae56 173e 51a7 0dbe
00000370: 36a7 d03d 52b3 9bbc e0cd 66be 79ca 8fbd
00000380: 3c70 22be 16d1 59be 6c7e 523e f125 02bf
00000390: a92b ab3e 8ef3 22bf 1793 debd 42b8 593d
000003a0: 920b 853e 816e 6fbd 4404 5e3c a58d 40be
000003b0: 587c a2be d596 063f d76d 31be 40f6 a8bd
000003c0: 5fb5 23be e0ea 443d cd20 cdbd 0ff9 803e
000003d0: 0422 0a3e f6ad 263e 4ff1 46be a9f2 64be
000003e0: 3f2e 463c d51b c73d 052c eb3e 0ebc 0abe
000003f0: 20c9 1dbe ce8c 65be bdf4 f53e eea6 8ebb
